results/Basic_run01/Basic.onnx (onnx, 6795 bytes, 7 tensors)

network_body._body_endoder.seq_layers.0.weight f4 [20, 6]
000000 87 68 ce 3d 3a 3e a9 3e 93 b5 90 3e cc 5d ac 3e
       0.10078531 0.33055288 0.2826353 0.3366531
000010 a5 41 ee 3e 76 f0 2b bf 58 1b d8 3e a8 fe 15 be
       0.46534458 -0.6716379 0.42208362 -0.14647925
000020 9b 7a 88 be 14 d3 44 bf e2 f6 ba 3e 2b c3 d1 bd
       -0.2665604 -0.7688458 0.36516482 -0.102423035
000030 ac 47 7e 3e bc 3e 2b bd 55 18 7b 3e 0f e1 65 bf
       0.24832028 -0.041807875 0.24521 -0.8979654
000040 28 23 d6 3e ce 40 3d 3e 3f 0a 14 3d cf d6 9b 3e
       0.41823697 0.18481752 0.036142584 0.30437323
000050 60 e9 79 3f ac ef 81 3e 0f 8e fe bd b3 a5 55 bd
       0.97621727 0.25378168 -0.12429439 -0.052159976
000060 50 d4 81 be f8 15 17 3e c5 1d 4d 3e 02 07 de 3e
       -0.25357294 0.14754474 0.20030887 0.43364722
000070 1a 80 5f 3e d8 04 4e be a8 38 02 bf 71 e0 f6 bd
       0.2182621 -0.20119035 -0.508677 -0.120545276
000080 af 90 b2 be 3f 87 09 bf 63 4c 0b 3e c9 e2 77 be
       -0.3487601 -0.53721994 0.13603358 -0.24207605
000090 9b a5 35 bf 47 db af 3e 93 2c e7 3c e3 89 12 3f
       -0.7095582 0.34346983 0.028219497 0.5724165
0000a0 bd 38 5b be 5a 91 b7 3e 29 ed 5c 3f b1 f6 0c 3e
       -0.21408363 0.35853082 0.8629938 0.1376598
0000b0 2f 0b 27 be df a5 a5 be 2e cd 09 3e 70 6b a4 3f
       -0.1631286 -0.32353112 0.13457176 1.2845287
0000c0 7f d7 37 3e 3b af 0a 3d 0d cc df 3e 42 6d d7 be
       0.17953299 0.03385852 0.43710366 -0.42075545
0000d0 4b c3 f8 3e 9b fb 80 bf 19 86 39 bd 5b c8 72 3e
       0.48586497 -1.0076784 -0.0452939 0.23709242
0000e0 9c 63 e9 3e 38 ad 08 bf fa 2b 56 3e 76 7b 31 bf
       0.45583808 -0.5338931 0.20915213 -0.6932901
0000f0 e7 50 91 3e 05 4f 6f 3c 28 7f 48 bf f6 51 ce 3e
       0.28382036 0.014606242 -0.78319025 0.40296906
000100 0d 6b 8c be ee fe 69 3e 90 be ff be 3b cb 56 3e
       -0.27425423 0.22851154 -0.49950075 0.20975964
000110 04 d9 2d bf e8 12 26 3e 03 4b 80 3f 07 5f 84 3f
       -0.67909265 0.1621815 1.0022892 1.03415
000120 79 cf 1c bf 7d 6a 31 3d bf 31 4d bf d8 3d c6 3e
       -0.6125408 0.043314446 -0.8015403 0.38719058
000130 eb 15 1d bf 1c bf 04 bc cc 10 1d be df dc 88 3e
       -0.6136157 -0.008102205 -0.15338439 0.2673101
000140 56 ca 22 3f b0 07 40 3f ae 5b 29 3f 41 58 3b 3f
       0.6358999 0.7501173 0.6615552 0.7318154
000150 2a a6 2f bf dc 6b 2a bd 2e c3 04 3f 7e b5 81 3e
       -0.6861292 -0.04160677 0.5186032 0.2533378
000160 e0 06 7e 3e 02 89 18 3c cf 63 54 bf 38 8c 9f 3e
       0.2480731 0.009310009 -0.82964796 0.31161666
000170 ef b0 6b bd e7 14 5a 3f 3d a5 83 bd 0d 33 40 bf
       -0.057541784 0.85188144 -0.06428001 -0.750779
000180 ad 9d fc 3e 96 bc 6e bf 49 ac 0f 3f 10 f7 96 be
       0.49339047 -0.9325651 0.5612226 -0.2948537
000190 4b a5 85 3f 1a 45 32 bf f2 55 0d bf a3 bf aa 3e
       1.0441068 -0.6963669 -0.5520927 0.33349332
0001a0 86 15 b0 3d a5 2e 2b 3f e1 c7 46 3e 58 27 54 bf
       0.08597855 0.6686805 0.19412185 -0.82872534
0001b0 ac 00 38 3e 16 8e cc 3e 26 47 35 3f ab b7 2a 3f
       0.17969006 0.39952153 0.7081169 0.66686505
0001c0 93 39 73 3e dc 53 9c be cb b9 2c 3f 60 bb 5a 3d
       0.23752432 -0.3053273 0.67471 0.05340135
0001d0 75 ae 0a bd e5 6a 98 be 64 7b 93 3f fc b2 06 3d
       -0.03385778 -0.29769054 1.1522031 0.032885537

network_body._body_endoder.seq_layers.0.bias f4 [20]
000000 f3 f6 16 3e fa 84 1c 3e 79 a6 99 3e 33 28 0b 3e
       0.14742641 0.15285102 0.3000982 0.13589554
000010 66 ea 9a 3a a5 d7 e8 3e d2 bd 26 3e c4 a8 94 3e
       0.0011819124 0.45477024 0.16283348 0.29035008
000020 d5 64 92 3e 71 d7 31 bd e3 83 07 3e cb f4 70 3e
       0.28592554 -0.04341835 0.13233905 0.23530881
000030 90 24 31 3e db 5e e2 3e 16 c7 62 3e f0 42 85 3e
       0.17299104 0.44212994 0.22146258 0.26027632
000040 df da 37 3e 8f a3 85 3e 79 22 8c 3e 62 81 8b 3e
       0.17954586 0.26101348 0.2737005 0.2724715

network_body._body_endoder.seq_layers.2.weight f4 [20, 20]
000000 35 6a a7 be 5d c9 2b bf 09 a7 8e be 97 9d b2 be
       -0.32698217 -0.6710413 -0.27861813 -0.34885857
000010 3f 95 25 bc 6d 3f 02 be 2d 4a c7 3e 6c b1 a9 3d
       -0.010106384 -0.12719508 0.3892378 0.08285794
000020 7a 8d d5 be 56 d4 f6 be 4b f4 b0 3c 77 5f 89 3f
       -0.417095 -0.48208874 0.021600863 1.0732259
000030 5d bd 3e 3e 31 e8 9f 3e db 38 09 3e 1b 31 69 3e
       0.18626924 0.31231835 0.13400595 0.22772638
000040 8d fe 2e be 44 29 e8 3e bb 57 37 bd 78 ff 7f 3e
       -0.17089291 0.45343983 -0.0447614 0.24999797
000050 48 83 14 3f 9b b7 66 be fb c7 33 bf dd 56 dd bd
       0.5801282 -0.22530977 -0.7022702 -0.108075835
000060 8a 38 41 3f b6 27 b5 bd d5 b4 7a 3e 40 53 8a be
       0.75476897 -0.08845465 0.24483044 -0.2701664
000070 ef 5f 19 3e 11 03 8c 3e 2a bd 8c bc 79 4e 42 bd
       0.14978002 0.2734609 -0.017180044 -0.04743812
000080 71 e6 c7 be 33 79 4f 3d b8 b9 2c 3f 6e 0b 0c 3f
       -0.39043 0.050652694 0.67470884 0.5470494
000090 4c 92 21 3e 77 ba f4 3e 50 f7 b4 3e b7 56 00 be
       0.15778464 0.4779851 0.35344934 -0.12533079
0000a0 3a f4 ce 3e 33 7f 8a be 6e 9c 74 bd 9c 6e 3b 3e
       0.40420705 -0.2705017 -0.059719495 0.18303913
0000b0 2d ed 0b 3e 5b 2e a3 bc 0e e2 c4 be de 11 36 bf
       0.13664694 -0.019919565 -0.38453716 -0.71121013
0000c0 67 26 0f 3f c4 6c 16 3f 26 9f 8e be 52 54 91 be
       0.5591797 0.58759713 -0.27855796 -0.28384644
0000d0 2a 65 39 3e 5f 7a 10 3e 94 b4 92 3e 2b 58 12 bc
       0.18104997 0.14109181 0.28653395 -0.008932154
0000e0 87 27 95 3e 60 96 58 bd cc 88 b1 3e 19 e5 a6 3e
       0.2913172 -0.052877784 0.3467468 0.32596663
0000f0 0a 48 26 3e 5c 4d 1d bf e0 8d c4 bc 15 27 0d 3d
       0.16238418 -0.61446166 -0.023993433 0.0344611
000100 f5 d8 fb 3e a2 d9 51 bd ad 1d 39 3e 9f e0 14 bf
       0.49188963 -0.05123294 0.18077727 -0.58155245
000110 5f e6 65 be 42 d2 0b be 13 04 41 be 40 e6 8e 3e
       -0.22451161 -0.13654426 -0.1884921 0.27910042
000120 e9 04 a2 bc 83 67 76 3e ad 30 5c 3e b9 8e 10 3f
       -0.019777732 0.24062924 0.21502943 0.5646778
000130 d0 40 a3 be 2f f6 18 3f d2 f3 fc 3e 1c 58 bf be
       -0.31885386 0.59750646 0.4940477 -0.3737191
000140 9b 89 05 be 97 93 28 bf cc a4 15 be 3b d9 d0 3e
       -0.13040774 -0.65850204 -0.14613646 0.40790734
000150 c2 a0 6e 3e e3 96 88 3e 3a a2 8a 3e e3 41 85 be
       0.23303512 0.26677617 0.27076894 -0.2602683
000160 b6 4f b3 be 7b 5b ef bd a6 15 c4 be 3e dc 8a bd
       -0.35021752 -0.116873704 -0.38297766 -0.06780289
000170 53 20 7f be 95 0f a1 3d dd 27 99 3e 22 fb da 3e
       -0.24914674 0.078643 0.29913226 0.42769724
000180 14 e1 09 be e1 20 c3 3e b8 7f a8 bd e7 4f 5a be
       -0.13464767 0.38111022 -0.082274854 -0.21319543
000190 e5 fb c2 3d 7e e6 43 bf 99 50 d3 be 41 fe a2 3e
       0.09520701 -0.7652358 -0.4127243 0.31834605
0001a0 92 26 e2 3e b1 21 79 3e 79 57 00 3f e8 ef e9 bd
       0.44170052 0.24329259 0.5013347 -0.114227116
0001b0 6d f1 71 be 3f 80 e2 be 86 3c c1 be 1e 6f 12 3f
       -0.23627253 -0.4423847 -0.37741488 0.572008
0001c0 74 52 b8 3e 4a 08 46 3e 67 30 cb 3e db 73 1e 3f
       0.36000407 0.193391 0.39685366 0.6189553
0001d0 fc 7a e1 3d e2 4d 20 3f 27 83 12 3f 38 84 3b be
       0.110097855 0.6261884 0.5723137 -0.18312156
0001e0 72 e8 b2 3e 6c d0 e0 3e 5d 97 16 3f ac 55 73 3d
       0.34942967 0.43909013 0.5882471 0.059407875
0001f0 f4 46 39 39 08 de da 3d 7c 00 04 bf 80 00 0c 3e
       0.00017669407 0.1068688 -0.5156324 0.13672066
000200 dd 35 85 3f 3e c6 b9 3e 5e cc 2e bf 9c 33 20 bf
       1.0407063 0.3628406 -0.6828059 -0.6257875
000210 46 f1 22 bf c2 6e 7d 3e c1 be b2 3e 64 e6 2e bd
       -0.63649404 0.24749282 0.3491116 -0.042700186
000220 0c a2 76 3f ac e7 4c 3e 5b ca 65 3e d6 a0 c1 3e
       0.96341014 0.20010251 0.22440474 0.3781802
000230 5d 50 03 3f f6 08 1b be 84 a8 7a 3d f1 1d 5b 3e
       0.512945 -0.15140137 0.061195865 0.2139814
000240 bc 0f 4a 3e 0a 28 e0 be 81 08 9f 3e 4d f4 0b bf
       0.19732565 -0.43780547 0.31061175 -0.5466965
000250 e6 67 22 3f 3a df 06 3f 7a e5 44 be 52 72 69 be
       0.63439786 0.52684367 -0.19228163 -0.22797516
000260 d8 fd b1 be 05 18 1a 3e 17 26 3a 3e db c5 61 3e
       -0.3476398 0.15048225 0.18178593 0.22048132
000270 aa 8a 05 3f 63 1a 38 3e e4 80 44 3d 33 2f 96 bb
       0.5216471 0.17978816 0.047974482 -0.0045832633
000280 b3 89 6c be 6b d1 22 3e f2 ab 05 bd ef e7 56 be
       -0.23099403 0.15900199 -0.032634683 -0.20986913
000290 32 e3 a6 3d 63 2a 61 3d dc 78 eb 3e ab d4 59 3e
       0.08148803 0.054972064 0.45990646 0.21272533
0002a0 8b 20 e9 be 29 5f 70 be 2d e6 a9 3e 16 c5 74 3f
       -0.4553264 -0.234738 0.33183423 0.9561323
0002b0 f1 18 a9 be 0f 65 74 3e e3 95 92 3c a2 53 77 bd
       -0.3302684 0.23866676 0.017893737 -0.060382493
0002c0 56 d9 1a bf 42 94 dc be 67 f4 32 3c 66 50 65 3e
       -0.6048788 -0.43081862 0.010922528 0.22393951
0002d0 20 eb 88 3d 79 34 16 bf 46 e7 bc bd 24 2a 14 3f
       0.066854715 -0.58673817 -0.092237994 0.578768
0002e0 4b bb af 3d 40 d0 0b 3e 79 e2 47 3e dd 2c 2a bf
       0.08580645 0.1365366 0.19519986 -0.66474706
0002f0 b1 b6 b5 3e eb 2c e2 3b f6 4b 6a be ce 1c ab bd
       0.35490945 0.0069023273 -0.2288054 -0.083551034
000300 f0 95 05 be 5d 27 43 3e ad c8 99 3e 55 45 9b 3e
       -0.13045478 0.19057985 0.30035916 0.30326334
000310 26 3a 8c be d0 85 d8 3e 8a 9f ae 3e 1e fd 1b bd
       -0.27388114 0.4228959 0.34106094 -0.03808319
000320 c0 ea 72 3d 96 d8 52 3e 29 b2 e3 3e f4 47 e7 3e
       0.059305906 0.20590433 0.44471863 0.45172083
000330 7c e6 38 be 0a b6 d3 3e 34 65 93 be b5 e8 bb be
       -0.18056673 0.41349822 -0.2878815 -0.3670098
000340 6b 10 49 3f 50 f0 12 3f d5 10 1d be 22 81 24 bf
       0.78540677 0.5739794 -0.15338452 -0.6425954
000350 8d df 19 bf 50 c5 d9 3d d9 3f b2 3e bb 8a f5 3d
       -0.60106736 0.106333375 0.34814337 0.11989351
000360 59 c9 1e 3f 41 19 c0 3e 34 fc bb 3e 23 d5 fc 3e
       0.6202598 0.37519267 0.36715853 0.4938136
000370 42 ec ac bd 27 ee a0 be ec 97 7f be 66 bd 8c 3d
       -0.084435 -0.31431696 -0.24960297 0.068720624
000380 23 8b ac 3e 30 09 72 3e 6f bc 9b be bc d0 85 3d
       0.33699903 0.23636317 -0.304172 0.065339535
000390 d8 74 16 3f 52 f8 41 3e 23 c3 36 bf cf 6d 89 be
       0.5877204 0.18942383 -0.71391505 -0.2684159
0003a0 f8 ec a9 be 3e 24 11 be 4d 77 86 3e 53 9f 6e 3d
       -0.33188605 -0.14173982 0.26262894 0.058257412
0003b0 c4 2e 0c 3f 66 16 ba 3e 1e a8 84 3e f5 57 b4 bd
       0.5475886 0.36345214 0.25909513 -0.08805839
0003c0 3b 47 07 be 16 20 9e 3e 32 7b b3 3e bf 91 23 bc
       -0.13210766 0.30883855 0.35054928 -0.009983479
0003d0 c6 db 0d bf fd 06 e8 3e d5 da 46 be 28 00 00 3f
       -0.5541347 0.45317832 -0.19419415 0.5000024
0003e0 d7 91 56 be a2 d7 fa bc fb 8b df 3e 18 3b 37 3f
       -0.20954071 -0.0306204 0.43661484 0.71574545
0003f0 f4 d6 bb bd 1c ee ce 3d f4 cf 20 be f3 d9 24 bf
       -0.091718584 0.101040095 -0.15704328 -0.64395064

network_body._body_endoder.seq_layers.2.bias f4 [20]
000000 32 c3 2a 3e 7a b8 44 3e e8 ab 1b 3e 98 85 86 3e
       0.16676024 0.19210997 0.15202296 0.262738
000010 8a a4 1f 3e 55 05 f6 3d f3 f1 79 3e 73 3f 12 3e
       0.1559011 0.12012736 0.24408703 0.14282016
000020 ba d6 62 3e 09 ed 0a 3e 79 87 67 3e e8 d2 26 3e
       0.22152224 0.13566984 0.22610272 0.16291392
000030 e6 5d 84 3e 97 c2 05 3e 29 69 60 3e 82 a5 78 3e
       0.2585289 0.13062511 0.21915115 0.24281886
000040 37 eb 21 3e a4 f7 ba 3d ec fe 4a 3e 52 0f 2b 3e
       0.15812384 0.09129265 0.19823807 0.16705063

action_model._continuous_distribution.log_sigma f4 [1, 2]
000000 65 df 6e be 61 d0 45 be
       -0.23327406 -0.19317771

action_model._continuous_distribution.mu.weight f4 [2, 20]
000000 af 17 e9 be ad 9d a0 3e f0 d1 00 3f a7 1b af 3d
       -0.45525882 0.31370297 0.5032034 0.08550196
000010 b7 e5 c7 3d 6d 2b 0c bd fc 85 df 3e 48 4b fd 3e
       0.097606115 -0.0342211 0.4365691 0.49471498
000020 b9 fc 14 bf 24 3d a0 3e 3b ef ee 3e a4 3e cb 3e
       -0.58198124 0.31296647 0.46666893 0.39696229
000030 e6 b5 02 bf 25 36 ba 3e fb b9 dc bc 13 ad 13 bf
       -0.51058805 0.36369434 -0.026944151 -0.57685965
000040 db 54 ae be 80 d8 6c 3e be 5d 30 be 5c dc 51 be
       -0.34049115 0.23129463 -0.1722326 -0.20494217
000050 ae 2c bf be 0c 38 cd be 86 29 07 3d 29 85 04 bf
       -0.37338775 -0.40081823 0.032998584 -0.51765686
000060 06 a8 b8 be 7f 67 f7 be 37 8a b8 3e 42 4a 96 bd
       -0.36065692 -0.4832115 0.3604295 -0.07338382
000070 57 3b f0 bd 93 29 ab be 32 7c 71 3e 77 cc 47 3d
       -0.11730068 -0.33430156 0.23582533 0.048778977
000080 c4 6d b4 3e 8d 0b 14 3e a2 e5 12 3f b4 2c 8b 3d
       0.35239995 0.14457531 0.5738164 0.06795636
000090 0c 1a 2f be f9 10 af be 1d 56 eb 3e cc 24 f3 be
       -0.1709978 -0.34192637 0.45964137 -0.4748901

action_model._continuous_distribution.mu.bias f4 [2]
000000 fe 78 f4 bb 9a 50 94 3d
       -0.0074607125 0.07241936
