results/3DBall_run02/3DBall/3DBall-15147.onnx (onnx, 77016 bytes, 9 tensors)

network_body.observation_encoder.processors.0.normalizer.running_mean f4 [8]
0	0x3a514826	0.0007983468
1	0x3a08bdbd	0.00052162615
2	0xbb943db7	-0.0045239585
3	0x3c6d8948	0.014498062
4	0x3a581cde	0.00082440476
5	0xbbe95b84	-0.007121505
6	0xbc13fcc0	-0.009032428
7	0x3ba72e3d	0.0051019476

network_body._body_endoder.seq_layers.0.weight f4 [128, 8]
0	0x3ecde326	0.40212363
1	0x3e106233	0.1409996
2	0x3eeca14d	0.46216813
3	0x3dff5624	0.12467602
4	0x3eb708e2	0.35748965
5	0x3e636b4e	0.22208902
6	0x3cd91db5	0.026503423
7	0xbd658981	-0.056039337
8	0xbee6549d	-0.4498643
9	0x3d9ccf99	0.076567836
10	0x3ea9f190	0.3319211
11	0xbe42c1f4	-0.190193
12	0x3efa7252	0.48915344
13	0x3ea8b6e6	0.3295204
14	0xbe9c826a	-0.30568248
15	0x3e1e7434	0.15474015
16	0xbf817ab2	-1.0115569
17	0x3d8c483f	0.06849717
18	0x3e96fb87	0.29488775
19	0xbe49211f	-0.19641541
20	0x3e3cddcb	0.18443982
21	0x3b941b30	0.0045198426
22	0xbbe16479	-0.0068784324
23	0x3dee468c	0.116345495
24	0x3d717488	0.058949023
25	0x3e38a224	0.18030602
26	0xbe93b463	-0.28848562
27	0x3ecc138e	0.3985867
28	0xbf6d6177	-0.92726845
29	0x3e80f06f	0.25183436
30	0xbe646421	-0.22303821
31	0x3e5a22c0	0.21302319
32	0x3e34307c	0.1759662
33	0xbeef989c	-0.4679612
34	0x3d7d9662	0.061910994
35	0x3f1aa87f	0.60413355
36	0x3e3c9759	0.1841711
37	0x3d1804fa	0.03711412
38	0xbe3ea94c	-0.18619269
39	0x3ed19c3a	0.40939504
40	0x3e128e5b	0.14312117
41	0x3e14a275	0.14515097
42	0xbdb71e09	-0.089412756
43	0xbeff815a	-0.49903375
44	0x3e07a9a1	0.13248302
45	0xbeaceaaf	-0.337728
46	0x3d5ce172	0.05392594
47	0xbf10e56c	-0.5660007
48	0xbe0fe09e	-0.14050528
49	0x3c04335e	0.0080688875
50	0x3e86163f	0.26188847
51	0xbf1e62c0	-0.6186943
52	0x3e3a1bff	0.18174742
53	0xbf5ea855	-0.86975604
54	0xbeb85384	-0.36001217
55	0xbee8e5ff	-0.45487973
56	0x3ee87c66	0.45407408
57	0x3d7f86f5	0.062384564
58	0x3de24a10	0.110492826
59	0x3f2692cc	0.65067744
60	0x3f5b3a27	0.8563561
61	0xbe0d1bcb	-0.13780133
62	0xbf4ad040	-0.79224014
63	0x3e18bb2b	0.14915149
64	0xbe9d28c6	-0.3069517
65	0x3e3958a5	0.18100221
66	0xbec3e89e	-0.3826341
67	0x3c4c78eb	0.012480001
68	0xbf3eb3ba	-0.7449299
69	0x3e576469	0.21034397
70	0xbdae1448	-0.08499962
71	0xbe8fe3c9	-0.28103474
72	0x3eee5c80	0.46554947
73	0xbef098e9	-0.4699166
74	0xbf03a2d0	-0.5142031
75	0x3d1f5ec8	0.03890875
76	0x3f0bd15b	0.54616326
77	0x3b95c253	0.0045702844
78	0x3efa2407	0.48855612
79	0xbe4e5357	-0.20148979
80	0xbf14a0e4	-0.58058
81	0xbe7dda7b	-0.24790375
82	0x3e5cb954	0.21555072
83	0x3d94c587	0.07264238
84	0x3ed9954f	0.42496726
85	0x3ece3005	0.4027101
86	0x3c66eb16	0.014094135
87	0xbc24eefd	-0.010066745
88	0x3f03dd61	0.5150967
89	0xbe5a87ae	-0.2134082
90	0xbf8596c8	-1.043664
91	0xbf15c303	-0.5850069
92	0x3ec58cbe	0.3858394
93	0xbf1d2da0	-0.61397743
94	0xbf0f43d7	-0.5596289
95	0x3de9d8ee	0.11418329
96	0xbf0da62a	-0.5533167
97	0xbcb9afe2	-0.022666875
98	0xbd9a2d85	-0.075282134
99	0x3f130a19	0.5743728
100	0x3e2495e2	0.16072801
101	0xbeb72f44	-0.35778248
102	0xbeb873a2	-0.3602572
103	0x3f2fe2e1	0.68705565
104	0x3ef745f5	0.4829556
105	0xbed9905c	-0.4249295
106	0x3f1db787	0.61608166
107	0xbdd0dcb2	-0.10198344
108	0x3d4c0828	0.049812466
109	0xbe8500a7	-0.2597706
110	0x3d97807f	0.073975556
111	0x3d64d2aa	0.055864967
112	0x3e06f064	0.13177639
113	0x3e7066c1	0.23476698
114	0xbe9ed66c	-0.31022966
115	0xbed8bcc7	-0.42331526
116	0x3f1ddb5e	0.6166285
117	0xbf004be1	-0.5011578
118	0x3ea28f4f	0.3174996
119	0xbd879afc	-0.06621358
120	0xbe72c670	-0.2370851
121	0x3f16ae96	0.58860147
122	0x3f2e74da	0.6814705
123	0xbf40e7a5	-0.7535346
124	0xbe7dcf4a	-0.24786106
125	0xbeb4d72b	-0.3532041
126	0x3d3fd305	0.046832103
127	0x3d35355f	0.04424035
128	0x3f38ed8f	0.72237486
129	0x3d8d0256	0.06885211
130	0xbd969c06	-0.07353978
131	0x3e49ef4d	0.19720192
132	0xbf34411c	-0.7041185
133	0x3df49557	0.11942547
134	0xbf003a32	-0.500888
135	0x3f04fbbf	0.51946634
136	0xbf08900b	-0.5334479
137	0xbf372705	-0.71543914
138	0xbf3aa2ec	-0.7290485
139	0x3e0f3094	0.13983375
140	0x3db34252	0.08752884
141	0xbe03bad1	-0.12864234
142	0xbf1ac75f	-0.60460466
143	0x3eb61d91	0.35569432
144	0xbe971f12	-0.29515892
145	0x3d267eb9	0.040648196
146	0xbe432f22	-0.19060948
147	0x3dd91696	0.10600011
148	0xbdc5ef0e	-0.09664737
149	0xbf3ed7fc	-0.74548316
150	0x3dc68e16	0.096950695
151	0xbd0b2bf8	-0.03397748
152	0x3e0eb186	0.13934907
153	0x3e4478b6	0.19186673
154	0x3dc0812d	0.09399638
155	0xbd348791	-0.0440746
156	0x3d814035	0.06311075
157	0xbe1cc352	-0.15308884
158	0x3f14673c	0.57970023
159	0xbefd2a28	-0.49446225
160	0xbea2109b	-0.31653294
161	0xbf42da47	-0.76114315
162	0xbe2b4206	-0.16724405
163	0x3ef6393f	0.4809055
164	0x3cdf1607	0.027232183
165	0x3e471215	0.19440491
166	0xbf05806d	-0.5214909
167	0xbe95f7a3	-0.29290494
168	0xbdc5526b	-0.096348606
169	0x3c455ad4	0.012045581
170	0x3e9aab6e	0.30208915
171	0x3e67a93a	0.22623149
172	0x3d5e356b	0.054250162
173	0xbf0f2f1b	-0.5593125
174	0x3f7245cf	0.9463777
175	0xbddd5463	-0.10807111
176	0xbd445904	-0.047936454
177	0x3d8734f5	0.066018976
178	0x3f2a4221	0.66507155
179	0xbe15c37b	-0.14625351
180	0x3e36e553	0.17860918
181	0xbdd030b0	-0.101655364
182	0xbe33bb64	-0.17551953
183	0xbf203b9b	-0.6259095
184	0xbe946d61	-0.289897
185	0x3eb32192	0.3498655
186	0x3ea845c2	0.3286572
187	0xbe52e7fb	-0.20596306
188	0xbd903a72	-0.070423976
189	0x3ed76334	0.42067873
190	0x3e2cbdb0	0.16869235
191	0x3eab4302	0.3344956
192	0xbed3d26c	-0.41371477
193	0x3f2ca49b	0.6743867
194	0xbeddb938	-0.43305373
195	0x3ec583d7	0.38577148
196	0x3e0cb444	0.13740641
197	0x3aebd6c9	0.0017993088
198	0x3ec31bc0	0.3810711
199	0x3e702584	0.23451811
200	0x3d86bd97	0.0657913
201	0xbe2506b3	-0.16115837
202	0x3e63b9b4	0.22238809
203	0xbe91af19	-0.284539
204	0xbeaf280e	-0.34210247
205	0x3ec81a65	0.39082637
206	0x3f017f70	0.5058508
207	0x3e8aecb7	0.27133724
208	0x3eb07138	0.3446138
209	0x3cd96a9b	0.026540091
210	0x3ea21d84	0.31663144
211	0x3db5346a	0.08847888
212	0x3e5e99fd	0.2173843
213	0xbca1facc	-0.01977291
214	0xbe4b0a76	-0.1982821
215	0x3e1a1d10	0.15050149
216	0xbd7e56dd	-0.062094558
217	0x3f026d99	0.5094848
218	0x3e91a518	0.2844627
219	0xbf051995	-0.5199216
220	0x3dc68cbd	0.096948124
221	0x3ec2f409	0.3807681
222	0x3e79b043	0.24383645
223	0x3ecda086	0.40161532
224	0xbeaef709	-0.34172848
225	0xbf1e9162	-0.61940587
226	0xbda3f993	-0.08006587
227	0x3e240645	0.16018017
228	0xbe4e8c1f	-0.2017064
229	0x3db0c723	0.08631732
230	0x3d91b8a6	0.07115297
231	0x3e255832	0.16146925
232	0x3f05b3c1	0.5222741
233	0x3f06370e	0.52427757
234	0x3f08b73e	0.53404605
235	0x3d09e39e	0.03366434
236	0xbdf766fd	-0.1208019
237	0xbf12b3e5	-0.5730575
238	0x3f3ddc75	0.74164516
239	0xbea02f93	-0.31286296
240	0xbef33bb7	-0.47506496
241	0xbc89d771	-0.016826363
242	0xbee00fe9	-0.43762138
243	0x3f265f43	0.6498911
244	0xbe9acf00	-0.30236053
245	0xbe3922db	-0.18079703
246	0xbe3d2fd9	-0.18475284
247	0x3db4758e	0.08811484
248	0x3ea830c4	0.32849705
249	0x3decb7d9	0.11558504
250	0x3eaaf5be	0.3339061
251	0xbe0255e2	-0.12728074
252	0xbe03a025	-0.12854059
253	0x3d9d6c2f	0.0768665
254	0xbea93cfb	-0.33054337
255	0xbe3432df	-0.17597531

network_body._body_endoder.seq_layers.0.bias f4 [128]
0	0xbbedfee1	-0.00726305
1	0x3bf5a7be	0.007496803
2	0x3c1bd318	0.009510778
3	0xbba3b65e	-0.004996105
4	0xbc24cf36	-0.010059169
5	0x3c27568a	0.010213504
6	0xbc217e7a	-0.0098568145
7	0xbbd07f44	-0.0063628275
8	0x3b248d96	0.0025108806
9	0xbc4bf13f	-0.012447654
10	0xbbf0a7f5	-0.007344241
11	0x3ba3b2da	0.004995686
12	0xbaf0e1e7	-0.0018377871
13	0x3a88c082	0.0010433348
14	0xbbbd1384	-0.0057701487
15	0x3c33f866	0.010984516
16	0x3922d62d	0.0001552931
17	0xbba0d41e	-0.004908099
18	0xbc0bdebf	-0.0085369935
19	0x3c22e932	0.009943293
20	0xbc2423b1	-0.010018275
21	0xbc2dd6b2	-0.010610269
22	0x3c12c0a2	0.00895706
23	0x3a2ec5e9	0.0006667064
24	0xbb8d99d9	-0.0043213186
25	0x3a1c0813	0.0005952131
26	0x3bbe7a74	0.0058129374
27	0xbbdc5b8d	-0.006724781
28	0xbbdaa9e9	-0.006673087
29	0x3c2bcb35	0.01048546
30	0x3b885078	0.0041599832
31	0x3b8b0c7b	0.004243431
32	0xbba1047d	-0.004913865
33	0x3a62ae48	0.0008647186
34	0x3b1495bb	0.0022672254
35	0xbbd66adf	-0.0065435017
36	0xbbf54bca	-0.0074858414
37	0x3a78b2e1	0.0009487104
38	0x3bc1e5ea	0.0059173005
39	0xbba6911b	-0.005083216
40	0x3c1a4262	0.009415241
41	0x3c07b22e	0.008282227
42	0xbb667558	-0.0035165157
43	0x3a462cfd	0.00075598044
44	0xbb00a973	-0.001963225
45	0x3b37f0fa	0.0028067217
46	0xbadd3253	-0.001687596
47	0x3bd4e168	0.006496597
48	0x3b3087a6	0.0026936322
49	0xbaabdf1a	-0.0013112754
50	0x3a0f4147	0.0005464744
51	0xbc5bb6b8	-0.013410263
52	0xbc075bec	-0.008261662
53	0xbb9ce9aa	-0.004788597
54	0xb99ea4ae	-0.00030258804
55	0xbbf35618	-0.0074260347
56	0x3c108f48	0.008823223
57	0x3b595ba8	0.0033166204
58	0xbc0002c4	-0.007813159
59	0x3c0d791e	0.008634834
60	0xbc116552	-0.008874254
61	0xbbef4682	-0.0073021064
62	0x3ac150ab	0.0014748772
63	0xbc044fe5	-0.008075689
64	0x3ad417dd	0.0016181428
65	0xba2fc68a	-0.0006705305
66	0xbba9ede7	-0.005185831
67	0xba6f5bab	-0.0009130786
68	0x3beb1681	0.0071743135
69	0xbc1a7548	-0.009427376
70	0x3b324da2	0.0027206917
71	0xbbb16b26	-0.0054143844
72	0xbaa12edd	-0.0012297292
73	0xba9db963	-0.0012033399
74	0xbc229081	-0.009922148
75	0xbb0a1aeb	-0.0021073173
76	0xbb844278	-0.004036244
77	0xbc10e010	-0.008842483
78	0xbbb7b28b	-0.005606001
79	0xbbe86610	-0.007092245
80	0xbc08589e	-0.008321909
81	0x3bba4f17	0.005685698
82	0xbc20771d	-0.009794024
83	0x3bd02930	0.006352566
84	0x3b866b28	0.0041021295
85	0xbc00d59c	-0.007863428
86	0xbb73785a	-0.0037150593
87	0x3bcafa5e	0.006194397
88	0xba5bdda8	-0.00083872164
89	0x3c25351b	0.010083462
90	0x3bffc798	0.007805776
91	0x3b5965a3	0.0033172152
92	0x3bc506ba	0.0060127648
93	0xbbc7689a	-0.0060854675
94	0x3c3778ad	0.011198205
95	0x3c0a95f9	0.008458608
96	0x3c075c52	0.008261757
97	0x3c0a560e	0.008443369
98	0xbc0328ea	-0.00800536
99	0xbc1f1fe0	-0.009712189
100	0xbc0988e2	-0.008394452
101	0xbb8cea0b	-0.004300361
102	0xbbc8c813	-0.0061273663
103	0xbbb7f9f8	-0.0056145154
104	0xbbe51a34	-0.006991649
105	0x3aa901da	0.0012894229
106	0x3b3f1e87	0.0029162483
107	0xb990be9c	-0.00027607835
108	0xbbf98e64	-0.0076158512
109	0xbc267ade	-0.01016113
110	0xba92d00c	-0.0011200919
111	0xbc4c05ca	-0.012452552
112	0xbc110a94	-0.00885262
113	0x3c1e49c1	0.009661139
114	0x3c2d5795	0.010579963
115	0xbc447638	-0.011991076
116	0xbc273db6	-0.010207584
117	0xbb678448	-0.0035326649
118	0xbc5f7f7a	-0.013641233
119	0x3aad42cd	0.0013218761
120	0x3c14e747	0.009088344
121	0xbaac4d83	-0.0013145659
122	0x3b4e0dba	0.0031441287
123	0x3ba58748	0.005051527
124	0xbb83d994	-0.00402374
125	0xbc0a5384	-0.008442763
126	0xbbde7667	-0.006789017
127	0x3c0e92af	0.008701964

network_body._body_endoder.seq_layers.2.weight f4 [128, 128]
0	0x3d37e2a0	0.04489386
1	0x3d94fa53	0.07274308
2	0x3cb25a24	0.021771498
3	0x3d52968a	0.051413096
4	0x3e8b222d	0.27174512
5	0xbd87943e	-0.06620072
6	0x3cb8f0c9	0.022575753
7	0xbd5571e6	-0.052110575
8	0x3d261af7	0.04055306
9	0xbd6d10f7	-0.057877507
10	0x3ddc4bbf	0.10756635
11	0x3df6ed20	0.12056947
12	0x3dd77e0b	0.10522088
13	0x3d6498a5	0.055809636
14	0xbe2a2359	-0.16615047
15	0xbdc3e15c	-0.09564468
16	0x3d6d85a2	0.05798877
17	0x3e2b9f50	0.16759992
18	0xbcc9fd58	-0.024656937
19	0x3c34c5e5	0.01103351
20	0x3babf6e8	0.0052479394
21	0x3d8977c3	0.06712296
22	0x3d679651	0.056539837
23	0x3d071dc5	0.032987375
24	0xbe2f1604	-0.17098242
25	0xbdb05798	-0.08610457
26	0x3db88989	0.09010608
27	0x3d2f461b	0.042791467
28	0xbddf7496	-0.10910909
29	0xbd289120	-0.041154027
30	0xbdd0d361	-0.10196567
31	0x3df3e6c5	0.1190925
32	0x3e08961f	0.13338517
33	0x3b2af9e8	0.0026088897
34	0x3cff7ba3	0.031186884
35	0xbe0cd080	-0.13751411
36	0xbdd901bb	-0.10596033
37	0xbd5cf1a8	-0.0539414
38	0xbd49b218	-0.04924211
39	0x3d8e055a	0.069346145
40	0xbc857bb5	-0.01629434
41	0xbe1ab782	-0.15109065
42	0xbd946b27	-0.07247
43	0xbda27364	-0.07932165
44	0x3d588d25	0.05286898
45	0xbe238b68	-0.15971148
46	0x3ddd9d64	0.108210355
47	0x3d4473fd	0.047962178
48	0x3d054838	0.032539576
49	0xbca18b21	-0.019719662
50	0x3d6bd0e9	0.05757228
51	0xbd945433	-0.07242622
52	0xbd6c025e	-0.057619445
53	0x3beba88c	0.007191723
54	0x3dfc8967	0.12330895
55	0xbd49e467	-0.049290087
56	0x3d1c83e3	0.038211714
57	0x3e05da9c	0.13071674
58	0xbd5625c9	-0.05228213
59	0xbcea789c	-0.028621964
60	0xbe53b165	-0.2067314
61	0x3dbc71be	0.09201382
62	0x3b5a5be6	0.0033318936
63	0xbe2002d0	-0.15626073
64	0xbe5c59a2	-0.21518567
65	0xbd4db2d5	-0.050219376
66	0xbd9cbe4b	-0.07653483
67	0x3cad55f5	0.021159152
68	0x3cf4d2b2	0.029885624
69	0xbb751fa2	-0.0037402888
70	0x3d13a72e	0.036048107
71	0x3d7d6e7c	0.061872944
72	0x3dcffe40	0.10155916
73	0xbda2c046	-0.079468295
74	0xbd660f1b	-0.05616675
75	0x3e36bc7f	0.17845343
76	0xbdc0ce35	-0.09414331
77	0x3d2c9272	0.04213185
78	0xbe022b04	-0.12711722
79	0xbdcc1205	-0.099643745
80	0x3d51ce2c	0.05122201
81	0xbd079586	-0.03310158
82	0xbd8b155e	-0.06791185
83	0xbe2eb6dd	-0.17061944
84	0xbc88654f	-0.01664987
85	0xbc07b083	-0.00828183
86	0x3dad4aaf	0.084615104
87	0x3df5b1c1	0.119967945
88	0xbe0f03dd	-0.13966317
89	0x3ce37104	0.027763851
90	0xbcf9526d	-0.030434811
91	0xbd1d3002	-0.038375862
92	0x3dba145d	0.09085915
93	0xbd4074d8	-0.04698643
94	0x3db7ca5b	0.08974143
95	0xba87fa7e	-0.0010374335
96	0x3b578bcc	0.0032889722
97	0x3dc33b04	0.09532741
98	0x3c3a30ef	0.011364206
99	0x3d893f99	0.067015834
100	0xbd525877	-0.051353898
101	0xbdf3fcd4	-0.119134575
102	0x3da12752	0.07868828
103	0xbb0e5a5b	-0.0021721337
104	0x3e16dd18	0.14732778
105	0x3d4bc6b3	0.04975004
106	0x3dd9131e	0.105993494
107	0xbdb4eaf2	-0.08833875
108	0x3d9df0eb	0.07711967
109	0x3dd22928	0.10261756
110	0x3dcf82ac	0.101323456
111	0xbe2434c3	-0.16035752
112	0xbca92df1	-0.02065179
113	0xbd9c22a0	-0.07623792
114	0x3dd283ca	0.10279043
115	0x3e3eb5f6	0.186241
116	0x3ce30cb1	0.027716013
117	0x3d98e126	0.07464819
118	0x3b6f2e6c	0.0036496175
119	0xbd2d1d96	-0.042264543
120	0xbd12af42	-0.03581167
121	0x3c68e3bc	0.014214452
122	0x3d94cfed	0.07266221
123	0xbd27d882	-0.040977962
124	0x3dcc0768	0.0996235
125	0xbd14642a	-0.036228336
126	0xbcd67041	-0.026176574
127	0xbd017724	-0.031607762
128	0xbcba5c52	-0.0227491
129	0x3d0fd277	0.035112824
130	0xbd5125f9	-0.051061604
131	0xbaeeabed	-0.0018209197
132	0xbc4e0021	-0.012573273
133	0xbd7e71e4	-0.062120333
134	0xbd69a4d4	-0.057041958
135	0x3e0c98ec	0.1373021
136	0x3de7e018	0.11322039
137	0xbdfaf976	-0.12254612
138	0x3df0c463	0.11756208
139	0x3d363382	0.044482715
140	0x3c8ec775	0.017429093
141	0x3dadf9f9	0.08494944
142	0x3d61a409	0.055088077
143	0x3d91f71f	0.07127213
144	0x3c8ba81d	0.017047936
145	0xbe404a2b	-0.18778293
146	0xbba1dc99	-0.0049396274
147	0xbdb2dfe8	-0.08734113
148	0xbd662a0b	-0.05619244
149	0x3e44cea6	0.19219455
150	0x3d8ee921	0.069780596
151	0xbda6f9cb	-0.08153113
152	0x3cacecc0	0.021108985
153	0x3e144d81	0.1448269
154	0x3d5bcba5	0.053661007
155	0xbd24cb10	-0.040232718
156	0xbd34bb34	-0.044123843
157	0xbd595b34	-0.053065494
158	0xbcd94470	-0.026521891
159	0x3c6d44ac	0.014481705
160	0xbb0a8a04	-0.0021139393
161	0xbddd6908	-0.10811049
162	0x3e1b606e	0.15173504
163	0xbd9325f7	-0.071849756
164	0xbd930f2d	-0.07180629
165	0x3bd76632	0.006573462
166	0xbe642db6	-0.22283062
167	0xbd4583f8	-0.04822156
168	0xbbb06b9b	-0.0053839213
169	0xbe1ac699	-0.15114821
170	0x3db9c039	0.09069867
171	0x3d26a45b	0.040684085
172	0x3d841bc0	0.064506054
173	0xbd84b029	-0.064789124
174	0xbd9de7f5	-0.07710258
175	0x3db5d6da	0.0887887
176	0x3d85b2aa	0.06528218
177	0x3d5a5cba	0.053311087
178	0x3e1800cd	0.14844055
179	0x3cac8449	0.021059172
180	0x3dc2ea3a	0.095173314
181	0x3e8af5ff	0.27140805
182	0x3d017bdb	0.03161226
183	0x3cc150bf	0.023598073
184	0xbe02ef0e	-0.12786505
185	0xbbecd162	-0.007227109
186	0xbda808ea	-0.08204825
187	0xbd2fcf44	-0.042922273
188	0xbbced3b1	-0.0063118567
189	0xbdc26f5f	-0.094938986
190	0xbd0629b8	-0.03275463
191	0x3e691852	0.22763184
192	0xbcb43c00	-0.022001266
193	0x3e0d9559	0.13826503
194	0xbd378c1f	-0.044811364
195	0xbd835b6a	-0.0641392
196	0x3da637e1	0.08116127
197	0x3cc6bf98	0.02426128
198	0xbd51f5ec	-0.05125992
199	0x3c237eff	0.009979009
200	0x3e4160a7	0.18884526
201	0xbe38f96b	-0.18063895
202	0x3d56fb4f	0.05248576
203	0x3cb7965e	0.022410568
204	0x3da7e480	0.0819788
205	0x3c41ae20	0.0118213
206	0xbd86acc7	-0.065759234
207	0xbb5ccc2d	-0.0033691034
208	0x3dc1b1d9	0.0945775
209	0x3c846edf	0.016166149
210	0x3e0a92a7	0.13532506
211	0xbdf40496	-0.11914937
212	0x3d50043c	0.05078529
213	0x3e22d1a4	0.15900284
214	0xbdc73b09	-0.09728057
215	0xbd6f649b	-0.058445554
216	0x3c85eac2	0.016347293
217	0xba5bc891	-0.0008384074
218	0x3cbe70a8	0.023247078
219	0x3b6982bc	0.0035630902
220	0xbd9cf287	-0.07663446
221	0xbd6aeb2f	-0.057353195
222	0x3d507155	0.05088933
223	0x3d752141	0.059846167
224	0x3e42d5e4	0.19026905
225	0xbe0d233b	-0.1378297
226	0xbd9c0c1b	-0.076194964
227	0x3d9c24de	0.07624219
228	0x3c1453c3	0.0090531735
229	0x3ba1a812	0.0049333656
230	0xbd809afa	-0.062795594
231	0xbd9df5b1	-0.077128775
232	0x3c4ef95a	0.012632692
233	0x3de6db64	0.11272314
234	0xbe0735df	-0.13204144
235	0x3dca750d	0.09885607
236	0x3d0d282b	0.034462135
237	0x3d5ce9d2	0.053933926
238	0xbd7661f0	-0.060151994
239	0x3d583250	0.052782357
240	0x3c9d7d3b	0.019224754
241	0xbdddc0b4	-0.10827771
242	0x3b95be9f	0.004569843
243	0x3dba16d8	0.09086388
244	0xbc6106d0	-0.013734534
245	0xbe02b258	-0.12763345
246	0xbe1ff77f	-0.15621756
247	0x3d060bcf	0.032726105
248	0xbdb6fc45	-0.08934835
249	0x3d086822	0.033302434
250	0x3e15935b	0.14606993
251	0x3bda301c	0.006658567
252	0xbdac331c	-0.08408186
253	0x3c85dbaf	0.016340105
254	0xbd2a758d	-0.04161601
255	0xbe186b4e	-0.14884683

network_body._body_endoder.seq_layers.2.bias f4 [128]
0	0xbb2146cd	-0.002460885
1	0xbbad0cad	-0.005281052
2	0x3bad78ea	0.005293955
3	0xbab9a428	-0.0014163302
4	0x3bd62ff9	0.0065364805
5	0xbc236a4a	-0.009974072
6	0x3bc8c2f5	0.0061267563
7	0xbb0b0ff5	-0.0021219228
8	0x3afb5d09	0.0019177507
9	0x3b951f19	0.0045508263
10	0xbc110aa9	-0.008852639
11	0xbbc95b7e	-0.00614494
12	0x3c019948	0.00791008
13	0xb880508a	-6.118517e-05
14	0xbb724653	-0.0036968186
15	0xbc19f9e9	-0.009397962
16	0xbbe295fe	-0.006914853
17	0xbb089482	-0.002084047
18	0x3c042703	0.008065942
19	0xbbc06164	-0.005870985
20	0xbc01a223	-0.007912192
21	0x3be3507a	0.006937084
22	0xbc02d64c	-0.007985663
23	0xbc01f4c3	-0.007931891
24	0x3b88ef9a	0.0041789534
25	0xbb4ca930	-0.0031228773
26	0x3b2e8916	0.0026632003
27	0x3b2c109f	0.0026255024
28	0x3c00c7a5	0.007860099
29	0xbc4f8d1e	-0.012667922
30	0x3c0f47bb	0.008745129
31	0x3b0d3460	0.002154611
32	0xbb58b004	-0.0033063898
33	0xbc0ef01b	-0.008724238
34	0xbb84eba9	-0.004056413
35	0x3bbcff1e	0.005767717
36	0xbbdbfd64	-0.006713556
37	0xbbb32c5b	-0.005467934
38	0xbb51f6db	-0.0032038006
39	0xbc268ce9	-0.010165432
40	0xbb65fe23	-0.0035094104
41	0x3be91344	0.0071128923
42	0x3c0ca0d5	0.008583267
43	0xbc0ce429	-0.0085993195
44	0x3b0edf39	0.0021800532
45	0xbc198c92	-0.0093718935
46	0x3babc8e1	0.0052424525
47	0x3bdece91	0.006799527
48	0xbb91bb8c	-0.004447406
49	0x3b9ac8d6	0.0047236485
50	0xbc276ed8	-0.010219298
51	0x3afcb94f	0.00192813
52	0x3c226304	0.0099113025
53	0x3b3e6cab	0.002905647
54	0xbb9995cd	-0.004687047
55	0xbb101785	-0.0021986675
56	0xbb9a1fa4	-0.004703479
57	0x396ff514	0.00022884115
58	0x3c0629b0	0.00818865
59	0xbb2f0166	-0.0026703714
60	0x3b87d627	0.004145402
61	0xbc03db5f	-0.008047908
62	0x3c15b0d0	0.009136394
63	0xbbe72cd3	-0.007054904
64	0x3be7e308	0.007076625
65	0xbbeb6a23	-0.0071842833
66	0xbc3131f1	-0.01081513
67	0x3c393ad6	0.0113055315
68	0xbbdb3aed	-0.006690374
69	0xbbe9febc	-0.0071409624
70	0x3c257b77	0.010100237
71	0xba5e0f88	-0.0008470942
72	0x3c04240c	0.008065235
73	0x3c082b01	0.008311034
74	0xbad431fa	-0.0016189211
75	0xbc1eb6d6	-0.009687146
76	0xbc0a67ba	-0.008447582
77	0xbbd29854	-0.0064268503
78	0xba8b0545	-0.0010606429
79	0xbbea5604	-0.007151367
80	0xbbf1207c	-0.007358609
81	0x3bb1a53b	0.0054213083
82	0x3bee7f36	0.0072783483
83	0x3c0ee44a	0.008721421
84	0x39a76d64	0.00031934225
85	0x3bfe997b	0.007769761
86	0xbc1ad76d	-0.009450776
87	0x3bec2476	0.007206495
88	0xbc225fe7	-0.00991056
89	0x39b2c70c	0.00034099107
90	0xbc209848	-0.009801932
91	0xbc1d1193	-0.00958671
92	0x3967c193	0.00022101989
93	0xbc13128a	-0.008976588
94	0x3bd64a14	0.0065395925
95	0x3ab94497	0.0014134821
96	0xbc01386e	-0.007886989
97	0x3ab35b0c	0.001368375
98	0x3be795e4	0.007067429
99	0xbc5a827f	-0.013336777
100	0xbb92ef0b	-0.0044840625
101	0x3bc29a32	0.0059387917
102	0x3b93efc4	0.0045146663
103	0x3c124ca7	0.008929408
104	0x3a2364be	0.00062329683
105	0x3aa9ee71	0.0012964738
106	0x3b5c25c5	0.0033591848
107	0xbbd9f838	-0.0066519044
108	0x3c16b6a4	0.009198818
109	0xbbf4d059	-0.007471126
110	0x3aa14caf	0.0012306179
111	0x3c1dedf0	0.009639248
112	0xba24af30	-0.00062822085
113	0xbbeaf225	-0.007169979
114	0x3c189fc4	0.009315435
115	0x3bdd002f	0.0067444067
116	0x3be7e082	0.007076324
117	0xbb81bebd	-0.0039595054
118	0xbbfbbcb8	-0.007682409
119	0xbc8944d2	-0.016756449
120	0x3b60ec55	0.0034320552
121	0xbbedd30b	-0.0072578243
122	0x3bcbfeb7	0.0062254327
123	0xbb5bb3ad	-0.0033523843
124	0x3bdb9016	0.006700526
125	0x3c008c2b	0.007845919
126	0x3bf47080	0.0074597
127	0xbc04647d	-0.008080599

action_model._continuous_distribution.log_sigma f4 [1, 2]
0	0xbc70d91a	-0.014700199
1	0x3a9f8f44	0.0012173434

action_model._continuous_distribution.mu.weight f4 [2, 128]
0	0xbaf02291	-0.0018320848
1	0xbbe6e7c2	-0.0070466707
2	0x3d1f4b3f	0.03889012
3	0xbca1a26c	-0.01973077
4	0x3d080cd7	0.03321537
5	0xbcdb56c3	-0.02677477
6	0x3c3e6df9	0.011622899
7	0x3a5409b7	0.0008088606
8	0x3cadebd8	0.021230623
9	0x3c3d7467	0.011563397
10	0xbc491f8f	-0.012275591
11	0xbc9f79af	-0.019467203
12	0x3d03a6ec	0.03214161
13	0x3bd8231f	0.0065959836
14	0x37fecde5	3.0375037e-05
15	0xbb805519	-0.0039163944
16	0xbc106f3b	-0.008815582
17	0xbae7457e	-0.0017644612
18	0x3c96b51c	0.018396907
19	0xbb1abc00	-0.0023610592
20	0xbcbce200	-0.023056984
21	0x3c8582fe	0.016297814
22	0xbd3e4ffd	-0.046463
23	0xbc4f4412	-0.012650507
24	0x3ae6fb79	0.0017622552
25	0xbb309f38	-0.002695037
26	0xbb078084	-0.0020675967
27	0x3ccd57ac	0.02506622
28	0x3d355419	0.044269655
29	0xbae5c892	-0.0017531088
30	0x3c668a50	0.014071062
31	0x3889ef8c	6.577288e-05
32	0x3b67f860	0.0035395846
33	0xbc6b4ed8	-0.0143620595
34	0xbc4186ed	-0.011811954
35	0x3c8fefb5	0.017570356
36	0xbae9069f	-0.0017778462
37	0xbbe3bd05	-0.006950023
38	0xbc9754ab	-0.01847299
39	0xbc3223f0	-0.010872826
40	0x3b0491da	0.0020228536
41	0x3d0100b3	0.031494807
42	0x3d33f3db	0.04393373
43	0xbc5056b8	-0.012715988
44	0x390b5d9c	0.00013290945
45	0xbc9ab3f6	-0.01888464
46	0x3c05bb03	0.008162263
47	0x3c1c7c2e	0.009551091
48	0xbca94b7a	-0.020665873
49	0x3bcb3f5d	0.006202622
50	0xbc48d8bd	-0.012258706
51	0x3c2f42ea	0.010697106
52	0x3d077084	0.033066288
53	0x3a2e3c7e	0.0006646587
54	0xbc3f56a2	-0.01167837
55	0xbc03acd1	-0.008036808
56	0xbb386795	-0.0028137912
57	0x3bd29b6e	0.00642722
58	0x3c2bcfd7	0.010486565
59	0xb9cb9ebe	-0.0003883745
60	0x3ba6ed25	0.005094188
61	0xbc9c03ab	-0.019044718
62	0x3ccccccb	0.024999997
63	0xbb995863	-0.004679726
64	0x3c5d5c5c	0.01351079
65	0xbcb83ae5	-0.02248902
66	0xbce94cb2	-0.028478954
67	0x3ccacf88	0.024757162
68	0xbc62925e	-0.013828842
69	0xbc1740ef	-0.00923179
70	0x3cffa292	0.03120545
71	0xbb032a30	-0.002001416
72	0x3cc637fe	0.024196621
73	0x3ca51635	0.02015219
74	0xbbdcef58	-0.006742399
75	0xbcd20237	-0.025635822
76	0xbb3d9cb3	-0.0028932511
77	0xbc1fcbd9	-0.009753191
78	0x3c4c80f5	0.012481918
79	0xbc171fe1	-0.009223909
80	0xbca541b9	-0.02017294
81	0x3c220534	0.009888936
82	0x3cdd7d50	0.027037293
83	0x3c1714c8	0.009221263
84	0x3bf1c445	0.0073781335
85	0x3c5d53cf	0.013508751
86	0xbc91bb8a	-0.01778962
87	0x3c969f5a	0.018386532
88	0xbc4744d0	-0.012162402
89	0x3c30e43d	0.010796604
90	0xbcc9912c	-0.024605356
91	0xbcf1f63a	-0.029536355
92	0x3c00a9be	0.00785297
93	0xbcfb7d99	-0.030699538
94	0x3b6a919b	0.0035792354
95	0xb8c63bae	-9.452492e-05
96	0xbb8f2dda	-0.0043694796
97	0x3bf3c703	0.0074394955
98	0x3d15e38c	0.03659396
99	0xba6cbfad	-0.00090312475
100	0x3a2c549e	0.0006573888
101	0x3cf916a8	0.030406311
102	0x3c0f9c46	0.008765286
103	0x3c723129	0.0147822285
104	0xbc0d0b63	-0.008608672
105	0xbac3021a	-0.0014877946
106	0x3b70a2c7	0.0036718117
107	0xbc0cb48a	-0.008587966
108	0x3c6bd3e3	0.014393779
109	0xbc2f1b1f	-0.0106876185
110	0xb7105866	-8.603651e-06
111	0x3c43edd4	0.011958558
112	0x3b478078	0.0030441564
113	0xbc3f920a	-0.011692533
114	0x3ccc83f3	0.024965262
115	0x3c806cda	0.015676904
116	0x3cd57eb8	0.0260614
117	0xbaea0d79	-0.0017856798
118	0xbc5f0b36	-0.013613513
119	0xbac4f921	-0.001502786
120	0x3c7dda41	0.01549393
121	0xbc726a73	-0.014795887
122	0x3c1b7960	0.009489387
123	0xbb0c5c32	-0.0021417257
124	0x3be98ada	0.007127148
125	0x3c3c2bca	0.0114850495
126	0x3cb6372f	0.02224311
127	0xbc811691	-0.01575783
128	0xbb0c0511	-0.0021365325
129	0x3cdbd896	0.026836675
130	0x3ce65461	0.028116407
131	0xbd27c2d9	-0.040957306
132	0x3c792b74	0.015208114
133	0x3c72ff6c	0.014831405
134	0xbb701915	-0.0036636044
135	0xbb4b9e46	-0.003106968
136	0x3cf211aa	0.029549439
137	0x3bb6fb76	0.0055841757
138	0x3c0b97a6	0.0085200425
139	0xbc554e08	-0.013019092
140	0x3bb83594	0.0056216214
141	0x3c522edd	0.012828556
142	0x3b8cf1a4	0.0043012667
143	0xb8d7c63b	-0.00010288922
144	0x3cc8e5e0	0.024523675
145	0xbbce4db5	-0.0062958845
146	0xbc6b76e6	-0.014371609
147	0x3cb8d19b	0.022560885
148	0xbc347ad7	-0.011015615
149	0xbc656dcf	-0.014003231
150	0xbc6f78f5	-0.014616241
151	0x3ca7481d	0.020420128
152	0xbc100fae	-0.008792801
153	0xbc0893cc	-0.008336019
154	0x3b66630b	0.003515425
155	0x3d03bff5	0.032165486
156	0xbd276291	-0.040865485
157	0x3b0cf859	0.0021510331
158	0xbb6408ed	-0.003479536
159	0xbca144db	-0.019686153
160	0xbb18c872	-0.0023312834
161	0x3ca373d6	0.019952696
162	0xbc857ac8	-0.016293898
163	0x3bf110b2	0.0073567266
164	0x3ae37aa5	0.0017355277
165	0xbb6ff3ea	-0.003661389
166	0xbcde564c	-0.027140759
167	0x3bdbaa18	0.0067036264
168	0x3bea193e	0.0071441224
169	0x3c87f46d	0.016596043
170	0x3ba215c7	0.0049464437
171	0x3c4928dd	0.012277809
172	0xbc0f6be7	-0.008753753
173	0x3c922567	0.0178401
174	0xbc3a6549	-0.011376687
175	0xbcb32e25	-0.02187259
176	0xbcac8daa	-0.021063644
177	0xbc1a2f3d	-0.009410677
178	0x3be29b82	0.0069155106
179	0x3c88b764	0.01668901
180	0xbc2a81b8	-0.010406904
181	0xbca83dd6	-0.020537298
182	0xbc988634	-0.01861868
183	0xbc9596de	-0.018260416
184	0x3c0fcb03	0.008776429
185	0x3c9e59f0	0.019329995
186	0xbc2e3a5b	-0.01063403
187	0x3c9f8c91	0.019476207
188	0xbc3a4faa	-0.011371532
189	0x3c732062	0.014839264
190	0xbb6f2265	-0.0036489007
191	0x3c62d735	0.013845255
192	0xbc4710a4	-0.0121499635
193	0xbc649f98	-0.013954066
194	0x3b6d8fb4	0.0036248984
195	0xbc1f73b6	-0.0097321775
196	0xbb284e59	-0.0025681464
197	0x3c8df1c0	0.01732719
198	0xbc6291f6	-0.013828745
199	0xbc2ca6ea	-0.010537842
200	0xbcd2b1bc	-0.025719516
201	0xbc18547a	-0.0092974845
202	0xbcb2ca0c	-0.02182486
203	0xbbb74fe0	-0.0055942386
204	0x3ba2c851	0.004967727
205	0x39180a31	0.00014499646
206	0x3d2e0ea3	0.042494427
207	0x3c83c3b2	0.016084526
208	0x3cfc10ab	0.030769667
209	0x3b8824d6	0.004154782
210	0xbc828aeb	-0.015935382
211	0xbb230728	-0.0024876092
212	0x3c80e7b8	0.015735492
213	0xbba3fbf9	-0.0050044027
214	0xbb8455cb	-0.0040385476
215	0xbcce6e88	-0.02519919
216	0x3bcc0d93	0.006227204
217	0x3cb41194	0.021981038
218	0x3c46a39a	0.012123967
219	0x3be7fca9	0.00707968
220	0x3c7f55d8	0.015584432
221	0xbc20211d	-0.00977352
222	0xbb147617	-0.0022653395
223	0xbba26be1	-0.004956708
224	0x3b2b45cb	0.002613413
225	0x3c1e5d0d	0.00966574
226	0x3c187244	0.009304587
227	0x399368ed	0.000281162
228	0x3cd11b6b	0.02552577
229	0x3c559e30	0.013038203
230	0xbc9b0e69	-0.01892777
231	0xbaa5ccfe	-0.0012649593
232	0xbc7777f8	-0.015104286
233	0xbc95e27b	-0.01829647
234	0xbbe58175	-0.007003958
235	0x3cba5acf	0.022748379
236	0xbc40562f	-0.011739298
237	0x3c815a51	0.015790137
238	0xbc9b7fc3	-0.01898182
239	0xba1890a4	-0.0005819893
240	0x3c3a08d4	0.011354644
241	0x3ceb61c7	0.028733147
242	0xbc6670b2	-0.014064955
243	0x3bc3f390	0.0059799626
244	0xbd0196b9	-0.03163788
245	0x3c72b420	0.014813453
246	0xbc1115cc	-0.008855294
247	0x3a02ef5f	0.00049947755
248	0x3c51dcc0	0.012808979
249	0x3ccb3f33	0.02481041
250	0xbc854464	-0.016267963
251	0x3cecda1a	0.028912593
252	0xb94b3575	-0.00019379503
253	0xbba899f4	-0.005145306
254	0x3b5e7d30	0.003394913
255	0x3cb783a0	0.02240163

action_model._continuous_distribution.mu.bias f4 [2]
0	0x3c298468	0.0103465095
1	0xbb67d8f5	-0.003537712

onnx::Div_51 f4 [8]
0	0x3c79b859	0.015241706
1	0x3c60612c	0.013695043
2	0x3dcaf71d	0.09910414
3	0x3e5820bb	0.21106236
4	0x3d8d47dc	0.06898472
5	0x3dfcdc33	0.12346687
6	0x3e1b4b3d	0.1516542
7	0x3dd247e6	0.1026762
