results/3DBall_run02/3DBall/checkpoint.pt (torch, 451554 bytes, 44 tensors)

network_body.observation_encoder.processors.0.normalizer.running_mean f4 [8]
0.0031170528 0.0007846098 0.023947878 2.9918365 -0.04093326 -0.03152808 -0.36481288 -0.0054782294
00000000: 7847 4c3b 46ae 4d3a 572e c43c 407a 3f40
00000010: a2a9 27bd 9723 01bd c1c8 babe b882 b3bb

network_body.observation_encoder.processors.0.normalizer.running_variance f4 [8]
1267.5209 1420.0966 254936.42 167540.73 246097.95 136680.0 292589.44 147487.89
00000000: ab70 9e44 1783 b144 1bf6 7848 2f9d 2348
00000010: 7d54 7048 007a 0548 aedd 8e48 f907 1048

network_body.processors.0.normalizer.running_mean f4 [8]
0.0031170528 0.0007846098 0.023947878 2.9918365 -0.04093326 -0.03152808 -0.36481288 -0.0054782294
00000000: 7847 4c3b 46ae 4d3a 572e c43c 407a 3f40
00000010: a2a9 27bd 9723 01bd c1c8 babe b882 b3bb

network_body.processors.0.normalizer.running_variance f4 [8]
1267.5209 1420.0966 254936.42 167540.73 246097.95 136680.0 292589.44 147487.89
00000000: ab70 9e44 1783 b144 1bf6 7848 2f9d 2348
00000010: 7d54 7048 007a 0548 aedd 8e48 f907 1048

network_body._body_endoder.seq_layers.0.weight f4 [128, 8]
0.4350082 0.119565144 0.42589715 0.107921995 0.369279 0.18315502 0.02661907 -0.056469228
-0.4647928 0.1295418 0.33765674 -0.20073453 0.50781405 0.323881 -0.28392577 0.20282678
-1.0542121 0.09897796 0.31159323 -0.16686551 0.1790059 0.03231795 -0.025188804 0.14258671
0.075551346 0.1956265 -0.2942542 0.36565042 -0.9180628 0.24848813 -0.23584239 0.22565058
0.21468091 -0.45602024 0.050965548 0.59941465 0.13333464 0.023370404 -0.20748983 0.34696913
0.13253115 0.122688875 -0.07033854 -0.5598518 0.09998872 -0.31999904 0.048711717 -0.56720436
-0.1562443 -0.037635606 0.23965707 -0.70691836 0.16165984 -0.890912 -0.3154633 -0.43582273
0.50096095 0.06960825 0.05835917 0.59393525 0.86289257 -0.20878045 -0.72937006 0.1706378
-0.3502603 0.11592871 -0.33439645 -0.009757314 -0.72987473 0.24120677 -0.05905912 -0.3032387
0.49817175 -0.43529356 -0.50797784 0.06299018 0.52319 -0.027072404 0.49301374 -0.2083826
-0.6069589 -0.282343 0.21795905 0.05500175 0.39002007 0.42330542 0.016162941 -0.04329303
0.5033051 -0.20711435 -1.035331 -0.6550203 0.38240737 -0.6449793 -0.50119114 0.13364714
-0.5906553 0.0528969 -0.07231133 0.5839784 0.18665515 -0.33831427 -0.35022855 0.7068778
0.49482423 -0.42907926 0.6046569 -0.07712947 0.036338683 -0.26208135 0.09922991 0.03717961
0.08833824 0.24845916 -0.3893491 -0.40777758 0.6323582 -0.55178666 0.28685802 -0.013165079
-0.27394003 0.5967548 0.70474803 -0.7583546 -0.25773388 -0.3287991 0.028921897 0.043382864
0.74550176 0.047055285 -0.10964635 0.13536622 -0.66463435 0.088487834 -0.4716934 0.52403736
-0.5236367 -0.6873471 -0.74372095 0.13813433 0.04319477 -0.07134146 -0.6169384 0.33028033
-0.27509007 0.03460717 -0.21265295 0.102817394 -0.078840144 -0.7724384 0.12021747 -0.025060935
0.07266621 0.16868551 0.14586942 -0.040278662 0.064585134 -0.09426427 0.6198564 -0.5273313
-0.25994393 -0.8055592 -0.15880959 0.47418568 0.0008470204 0.1712159 -0.4789834 -0.3649503
-0.05596094 -0.0025210488 0.28529567 0.24484682 0.047128122 -0.60664606 0.9469853 -0.13791607
-0.070144154 0.06362758 0.68445784 -0.13961054 0.13316229 -0.084879294 -0.1608874 -0.6271832
-0.29712808 0.42365554 0.3353678 -0.19180432 -0.052538272 0.43540877 0.16384956 0.39841285
-0.43279535 0.76655626 -0.4070835 0.4086941 0.16711946 0.032072857 0.33735082 0.29328096
0.023875054 -0.17347507 0.22476664 -0.32843262 -0.34954214 0.440011 0.49129587 0.24215233
0.36576793 0.0292861 0.31983176 0.0741911 0.20207264 -0.019711727 -0.19585858 0.16533823
-0.12067012 0.56451285 0.31544414 -0.50729537 0.14743917 0.44100982 0.2377752 0.46962696
-0.35529736 -0.62431127 -0.08768664 0.1415224 -0.21925406 0.08627415 0.044192698 0.13606197
0.54657114 0.5334701 0.5294061 0.07066207 -0.10600738 -0.57829237 0.72784513 -0.27711606
-0.53067666 -0.03589687 -0.4041122 0.6363755 -0.3351342 -0.1069642 -0.17543708 0.07493083
0.30698887 0.097750105 0.3445492 -0.14116423 -0.15517412 0.08519231 -0.3106247 -0.19472498
00000000: 65b9 de3e 92de f43d 310f da3e 3506 dd3d
00000010: 2312 bd3e fd8c 3b3e 3c10 da3c 474c 67bd
00000020: 52f9 edbe 9ba6 043e 58e1 ac3e 5a8d 4dbe
00000030: 1a00 023f bbd3 a53e b85e 91be d3b1 4f3e
00000040: 6cf0 86bf f5b4 ca3d 2689 9f3e cbde 2abe
00000050: 534d 373e d45f 043d c058 cebc 4002 123e
00000060: aaba 9a3d 5052 483e 7da8 96be 8836 bb3e
00000070: 2a06 6bbf ac73 7e3e ab80 71be f210 673e
00000080: 50d5 5b3e 7c7b e9be 40c1 503d 3d73 193f
00000090: e088 083e 4a73 bf3c 3778 54be f0a5 b13e
000000a0: 3fb6 073e 4e44 fb3d a70d 90bd 7352 0fbf
000000b0: e3c6 cc3d ead6 a3be f085 473d 4e34 11bf
000000c0: 81fe 1fbe cb27 1abd aa68 753e 9af8 34bf
000000d0: 288a 253e cf12 64bf 6884 a1be 2824 dfbe
000000e0: fa3e 003f c58e 8e3d 060a 6f3d 240c 183f
000000f0: 87e6 5c3f 8bca 55be ffb7 3abf adbb 2e3e
00000100: 5155 b3be 086c ed3d 0336 abbe 24dd 1fbc
00000110: 12d9 3abf e8fe 763e fae7 71bd 1a42 9bbe
00000120: 5e10 ff3e ccde debe d60a 02bf ff00 813d
00000130: c8ef 053f f2c6 ddbc 4c6c fc3e 4062 55be
00000140: a961 1bbf 438f 90be a830 5f3e 8449 613d
00000150: b6b0 c73e 7dbb d83e 2568 843c 0854 31bd
00000160: 9ad8 003f c915 54be ba85 84bf 69af 27bf
00000170: e6ca c33e 5d1d 25bf 104e 00bf ccda 083e
00000180: 3035 17bf 6baa 583d f617 94bd 9c7f 153f
00000190: 8722 3f3e 8737 adbe 2851 b3be f2f5 343f
000001a0: 9a59 fd3e 47b0 dbbe cbca 1a3f 0ef6 9dbd
000001b0: dfd7 143d 872f 86be 0d39 cb3d a649 183d
000001c0: aeea b43d 146c 7e3e c458 c7be 39c8 d0be
000001d0: 3ae2 213f e441 0dbf 0edf 923e 58b2 57bc
000001e0: de41 8cbe ecc4 183f 5e6a 343f 8723 42bf
000001f0: b2f5 83be 5b58 a8be 9ded ec3c 3bb2 313d
00000200: 34d9 3e3f 0bbd 403d 448e e0bd 719d 0a3e
00000210: 7a25 2abf 1c39 b53d cc81 f1be 5027 063f
00000220: 0e0d 06bf fbf5 2fbf 7f64 3ebf 1673 0d3e
00000230: 00ed 303d 791b 92bd adef 1dbf 811a a93e
00000240: 9bd8 8cbe 3fc0 0d3d b2c1 59be ed91 d23d
00000250: f176 a1bd 86be 45bf 9434 f63d 974c cdbc
00000260: 06d2 943d e5bb 2c3e cb5e 153e 3dfb 24bd
00000270: 3645 843d a00d c1bd e9ae 1e3f 2fff 06bf
00000280: 5f17 85be 2139 4ebf fb9e 22be 77c8 f23e
00000290: 940a 5e3a 3953 2f3e 503d f5be c4da babe
000002a0: 4c37 65bd 2e38 25bb 4612 923e 20b9 7a3e
000002b0: 6b09 413d 284d 1bbf a16d 723f df39 0dbe
000002c0: bda7 8fbd 2d4f 823d a138 2f3f 11f6 0ebe
000002d0: b25b 083e 32d5 adbd abbf 24be 148f 20bf
000002e0: 2c21 98be 61e9 d83e 54b5 ab3e 5a68 44be
000002f0: 5f32 57bd e6ed de3e 2ec8 273e c5fc cb3e
00000300: 5a97 ddbe 083d 443f 406d d0be 5a40 d13e
00000310: 5d21 2b3e d45e 033d 3fb9 ac3e ec28 963e
00000320: 9e95 c33c 73a3 31be 3a29 663e 5228 a8be
00000330: 30f7 b2be 1f49 e13e 228b fb3e c8f6 773e
00000340: ef45 bb3e 67e9 ef3c fdc0 a33e 81f1 973d
00000350: 21ec 4e3e 7d7a a1bc 278f 48be 6d4e 293e
00000360: e521 f7bd ea83 103f e581 a13e 1cde 01bf
00000370: 4bfa 163e 0acc e13e 587b 733e f272 f03e
00000380: 89e9 b5be ddd2 1fbf 0e95 b3bd 3feb 103e
00000390: 2384 60be 80b0 b03d 6703 353d d453 0b3e
000003a0: 16ec 0b3f 7f91 083f 2887 073f 46b7 903d
000003b0: 661a d9bd f80a 14bf 0f54 3a3f 28e2 8dbe
000003c0: 6dda 07bf 9908 13bd cbe7 cebe 81e9 223f
000003d0: b696 abbe 0c10 dbbd c7a5 33be 5675 993d
000003e0: a52d 9d3e 3531 c83d c168 b03e 5b8d 10be
000003f0: f7e5 1ebe 4e79 ae3d 330a 9fbe fc65 47be

network_body._body_endoder.seq_layers.0.bias f4 [128]
-0.005183933 -0.030464321 0.0010670993 -0.074417956 0.0019052773 -0.054411415 -0.086982116 -0.04807558
-0.010125724 0.02198595 -0.049375888 -0.12775278 -0.016993023 0.027683724 0.011881082 -0.008597142
-0.093439475 0.025232216 0.006230457 0.033653572 -0.022106815 0.025385343 -0.02811003 -0.009486302
0.0075169466 -0.037624717 0.033995457 -0.0120239025 -0.030470248 0.057941906 -0.020895192 -0.023536833
-0.02869186 -0.0403038 0.017475465 -0.018791055 -0.026925365 -0.0015110603 -0.01334072 0.0013569252
-0.0047731656 -0.015362053 -0.025286777 0.0021340796 -0.04476917 -0.0020583374 -0.019328006 -0.053690746
0.037727624 0.003981744 -0.021283966 0.047895685 -0.0029739095 -0.041234836 0.026720785 -0.13222378
-0.0025506476 0.026922794 -0.08559174 -0.04861543 -0.09159205 -0.05743281 0.020058982 0.01796719
-0.05084682 -0.10459867 -0.036177583 -0.008090648 -0.02071456 0.003928788 -0.009377682 -0.10895386
0.010369066 -0.075223446 -0.030616436 -0.066434145 -0.063887306 -0.026635872 -0.0045601055 -0.038844552
-0.012647975 0.013199265 0.014820696 0.015591717 0.017125715 0.0322014 -0.12273799 -0.05450179
-0.06072286 -0.037770167 0.005718989 -0.12105944 -0.0066796504 0.013202982 0.0069917 -0.09124871
-0.031609412 0.04774688 -0.0021080133 -0.11609842 -0.07123332 -0.082132086 0.013102792 -0.011144669
-0.003682384 -0.03993727 -0.054526906 -0.043500938 -0.06480465 -0.049746487 -0.00033540756 0.020686312
0.007753308 -0.0026297006 -0.0090323165 -0.053265862 -0.07374877 -0.0523369 0.02819933 0.0040043285
-0.012930182 -0.007530234 -0.047771394 -0.03809449 -0.06251788 -0.009409645 0.0002685764 -0.06272946
00000000: fbdd a9bb 5090 f9bc e9dd 8b3a 7168 98bd
00000010: 7fba f93a 81de 5ebd ae23 b2bd e6ea 44bd
00000020: 5de6 25bc e11b b43c 5f3e 4abd a0d1 02be
00000030: f434 8bbc fac8 e23c dfa8 423c 07db 0cbc
00000040: 325d bfbd cbb3 ce3c dd28 cc3b 54d8 093d
00000050: 5a19 b5bc ecf4 cf3c 0147 e6bc 6f6c 1bbc
00000060: b850 f63b 601c 1abd d23e 0b3d e7ff 44bc
00000070: be9c f9bc 7e54 6d3d 652c abbc 51d0 c0bc
00000080: 310b ebbc 9915 25bd b528 8f3c b3ef 99bc
00000090: 9592 dcbc c50e c6ba 0993 5abc dbda b13a
000000a0: 3768 9cbb 1fb1 7bbc 3726 cfbc eadb 0b3b
000000b0: e15f 37bd 2ce5 06bb c455 9ebc d4ea 5bbd
000000c0: 4888 1a3d 4a79 823b b65b aebc 442e 443d
000000d0: ece5 42bb dce5 28bd 8ce5 da3c ac65 07be
000000e0: c428 27bb 318d dc3c b94a afbd f920 47bd
000000f0: 9d94 bbbd ab3e 6bbd bc52 a43c ee2f 933c
00000100: c144 50bd d437 d6bd f22e 14bd a38e 04bc
00000110: 95b1 a9bc 10bd 803b d9a4 19bc 3423 dfbd
00000120: 04e3 293c c00e 9abd 52cf fabc a00e 88bd
00000130: 59d7 82bd 7933 dabc f06c 95bb 771b 1fbd
00000140: 7439 4fbc bb41 583c 81d2 723c 6774 7f3c
00000150: 3a4b 8c3c 9de5 033d 0e5e fbbd 453d 5fbd
00000160: 89b8 78bd e4b4 1abd 5b66 bb3b 03ee f7bd
00000170: f8e0 dabb 5251 583c a11a e53b 9be0 babd
00000180: df78 01bd 3c92 433d 9826 0abb 02c5 edbd
00000190: c6e2 91bd de34 a8bd 18ad 563c 2198 36bc
000001a0: 2754 71bb 4395 23bd 9b57 5fbd 0a2e 32bd
000001b0: 4db8 84bd f9c2 4bbd a4d9 afb9 5776 a93c
000001c0: 760f fe3b 0e57 2cbb 48fc 13bc 4e2d 5abd
000001d0: 9809 97bd 385f 56bd 4802 e73c be36 833b
000001e0: 1dd9 53bc 2ec0 f6bb f0ab 43bd f808 1cbd
000001f0: 6009 80bd e92a 1abc b7cf 8c39 4e78 80bd

network_body._body_endoder.seq_layers.2.weight f4 [128, 128]
-0.0005958265 0.038660362 0.02311422 0.06719915 0.24882373 -0.029001744 0.05511421 -0.09615453
0.0524738 -0.07507092 0.10157336 0.050122008 0.07192528 0.014190126 -0.2259717 -0.055341583
0.03054943 0.17093784 -0.05709052 0.078953326 -0.00095840584 0.06760998 0.06866857 0.019326953
-0.2653455 -0.10180744 0.03829883 0.005943362 -0.091797136 -0.023875661 -0.10070769 0.09871109
0.13347147 0.025811171 0.013237094 -0.1663445 -0.092323765 -0.12820414 -0.06591773 0.06224434
-0.038362544 -0.13767381 -0.071618415 -0.109635636 0.041040674 -0.18055722 0.07344869 0.007120608
-0.06799246 0.012748624 0.0023102935 -0.14771032 -0.086897396 0.052680526 0.119947694 -0.08039624
-0.0150390025 0.14001912 -0.04292188 -0.0035413594 -0.2450858 0.09008069 0.015800158 -0.19249354
-0.23349309 0.013112779 -0.08558061 0.017870778 0.021599654 -0.010065469 -0.045231048 0.06590742
0.11547073 -0.10847718 -0.06706446 0.20698339 -0.14982975 0.011001631 -0.12542993 -0.07240931
0.06873709 -0.091700055 -0.088540114 -0.19798833 -0.07427244 -0.077483356 0.06484274 0.098112196
-0.20370789 0.0649035 -0.05837781 -0.12547359 0.09555501 -0.049611345 0.08707942 -0.07501476
-0.002838128 0.08840422 -0.0013346616 0.08860824 -0.08048665 -0.17791735 0.007853453 0.01800356
0.078954436 0.02791917 0.10794567 -0.0942586 0.090557404 0.11386304 0.054262783 -0.20512763
-0.046159092 -0.087588735 0.08228039 0.13021928 0.010720994 0.047678754 -0.0023330078 -0.039810535
-0.040599745 -0.03174323 0.04412405 -0.0729503 0.06686406 -0.038220175 -0.047952842 -0.03780878
-0.05923457 0.005549887 -0.086935684 0.0025352645 -0.012316823 -0.04636948 -0.07796072 0.12935665
0.1082312 -0.10682813 0.11619155 0.06375863 0.00963026 0.05992212 0.06893224 0.012342638
0.028472215 -0.16908945 0.0065879147 -0.051207893 -0.04228229 0.19423078 0.052818663 -0.1648844
0.013021736 0.07791786 0.037131492 -0.08449324 -0.030923365 -0.06682351 -0.029492572 0.002970058
-0.021925872 -0.11082027 0.15980892 -0.068795934 -0.098330975 0.015863748 -0.25758427 -0.038988765
-0.021629008 -0.16303834 0.08333336 0.018821597 0.0249166 -0.06355716 -0.10288546 0.08153039
0.06695732 0.041013796 0.12713404 0.024467539 0.0698109 0.26745236 0.06053095 0.0320102
-0.11988522 -0.0023513115 -0.057218514 -0.038574714 0.013593736 -0.12886739 -0.02135011 0.2317789
-0.032991104 0.11862006 -0.038312107 -0.05948569 0.047549702 0.024188781 -0.0680926 0.029237185
0.17320023 -0.22147764 0.022955557 0.03691625 0.058832463 -0.015247289 -0.085862644 0.007294767
0.10114508 0.023735588 0.08859455 -0.1377795 0.036393873 0.1580782 -0.11577978 -0.04959964
0.028896714 0.032292955 0.042350154 0.0033385034 -0.07316608 -0.05827687 0.056737818 0.053932164
0.18457313 -0.14644673 -0.0739196 0.07404211 0.018650386 0.021646585 -0.03808705 -0.030412178
-0.008217161 0.12254442 -0.16469288 0.08305482 0.06115112 0.0367083 -0.06951184 0.06371914
0.021551048 -0.11258012 0.005634446 0.08295595 -0.042159844 -0.17148033 -0.1503117 0.0293855
-0.0932285 0.042636875 0.13996722 -0.001956559 -0.063923925 0.015671292 -0.034818467 -0.1793571
00000000: 3d31 1cba 545a 1e3d 085a bd3c b59f 893d
00000010: a6cb 7e3e 1195 edbc 70bf 613d abec c4bd
00000020: c4ee 563d c8be 99bd b205 d03d bc4c 4d3d
00000030: 904d 933d b47d 683c 2065 67be dbad 62bd
00000040: cc42 fa3c 540a 2f3e c0d7 69bd 48b2 a13d
00000050: 873d 7bba 1a77 8a3d 1ba2 8c3d 8f53 9e3c
00000060: 5edb 87be 6b80 d0bd 3cdf 1c3d 89c0 c23b
00000070: 2300 bcbd e496 c3bc d53f cebd 0a29 ca3d
00000080: bfac 083e f371 d33c 65e0 583c 3656 2abe
00000090: 3e14 bdbd f247 03be e0ff 86bd ecf3 7e3d
000000a0: 0b22 1dbd 5dfa 0cbe adac 92bd a688 e0bd
000000b0: 441a 283d fee3 38be 446c 963d fd53 e93b
000000c0: a23f 8bbd 9bdf 503c 4b68 173b 6041 17be
000000d0: 43f7 b1bd 89c7 573d 23a7 f53d c9a6 a4bd
000000e0: 2666 76bc 2c61 0f3e dace 2fbd 2716 68bb
000000f0: c6f7 7abe 3a7c b83d 556f 813c 071d 45be
00000100: d018 6fbe fbd6 563c e344 afbd bd65 923c
00000110: c2f1 b03c a3e9 24bc 3144 39bd 78fa 863d
00000120: eb7b ec3d 4929 debd 1759 89bd 74f3 533e
00000130: f86c 19be 2f40 343c b470 00be 554b 94bd
00000140: 08c6 8c3d 3dcd bbbd 8554 b5bd 74bd 4abe
00000150: 261c 98bd 98af 9ebd 45cc 843d 0cef c83d
00000160: cd98 50be 20ec 843d 921d 6fbd 267c 00be
00000170: 58b2 c33d 4435 4bbd b256 b23d 57a1 99bd
00000180: e3ff 39bb 460d b53d d0ef aeba 3d78 b53d
00000190: 2fd6 a4bd f72f 36be c5ab 003c 347c 933c
000001a0: ddb2 a13d beb6 e43c 9f12 dd3d a70a c1bd
000001b0: 2976 b93d 0731 e93d a742 5e3d fa0c 52be
000001c0: 5111 3dbd b961 b3bd 9f82 a83d 3458 053e
000001d0: 1ca7 2f3c cc4a 433d 60e5 18bb 5f10 23bd
000001e0: eb4b 26bd 3005 02bd 6bbb 343d f866 95bd
000001f0: 06f0 883d c28c 1cbd 336a 44bd 61dd 1abd
00000200: f39f 72bd d4db b53b 560b b2bd ae26 263b
00000210: 80cc 49bc eded 3dbd dfa9 9fbd 1276 043e
00000220: 52a8 dd3d b5c8 dabd d6f5 ed3d e293 823d
00000230: 3dc8 1d3c e670 753d 592c 8d3d c738 4a3c
00000240: 903e e93c c925 2dbe 6fdf d73b 5ebf 51bd
00000250: 3230 2dbd 6fe4 463e 6258 583d 75d7 28be
00000260: 1f59 553c 6693 9f3d 3117 183d cb0a adbd
00000270: ff52 fdbc c4da 88bd 689a f1bc 4ea5 423b
00000280: e39d b3bc bdf5 e2bd f3a4 233e e2e4 8cbd
00000290: c061 c9bd b1f4 813c 16e2 83be afb2 1fbd
000002a0: 512f b1bc 86f3 26be aeaa aa3d c02f 9a3c
000002b0: e61d cc3c 422a 82bd 9db5 d2bd 68f9 a63d
000002c0: eb20 893d 15fe 273d 6d2f 023e 2670 c83c
000002d0: 04f9 8e3d 84ef 883e 4def 773d 211d 033d
000002e0: 6286 f5bd 7618 1abb f65d 6abd 8500 1ebd
000002f0: 43b8 5e3c d0f5 03be 6de6 aebc 7357 6d3e
00000300: ae21 07bd 13ef f23d 28ed 1cbd 44a7 73bd
00000310: 7ac3 423d 8d27 c63c 2274 8bbd d282 ef3c
00000320: 675b 313e 09cb 62be 4b0d bc3c 7e35 173d
00000330: 4ffa 703d c4cf 79bc c1d8 afbd f108 ef3b
00000340: 2725 cf3d 2371 c23c 0f71 b53d 1216 0dbe
00000350: be11 153d 40df 213e f31d edbd fe28 4bbd
00000360: cdb8 ec3c 9e45 043d 5b77 2d3d cbca 5a3b
00000370: 19d8 95bd bab3 6ebd ea65 683d f9e7 5c3d
00000380: bd00 3d3e 22f6 15be 2963 97bd 64a3 973d
00000390: b2c8 983c 2e54 b13c 2b01 1cbd f622 f9bc
000003a0: 45a1 06bc 92f8 fa3d 40a5 28be a518 aa3d
000003b0: 9979 7a3d 715b 163d 395c 8ebd 2e7f 823d
000003c0: d38b b03c 6890 e6bd 29a1 b83b cfe4 a93d
000003d0: cdaf 2cbd 8a98 2fbe 4feb 19be dcb9 f03c
000003e0: 95ee bebd 01a4 2e3d 9153 0f3e 9d39 00bb
000003f0: 8cea 82bd 1561 803c cf9d 0ebd 63a9 37be

network_body._body_endoder.seq_layers.2.bias f4 [128]
-0.020196166 0.0045417403 -0.043302644 -0.0022545487 0.00302117 -0.020345265 0.0006075103 0.058981985
-0.031004984 0.058500614 0.011176173 -0.026992552 -0.04687605 -0.06177882 -0.028995322 0.017457223
-0.0006866065 0.07764182 -0.030018903 0.03421841 0.00637393 -0.020853482 0.01860073 -0.002457748
0.03963306 0.0011526978 0.017623844 -0.02492937 -0.004922806 0.013007707 -0.02823662 -0.016042883
0.06567154 -0.018659525 0.03489357 -0.008244392 0.052134067 -0.004456623 0.024934733 0.050518338
-0.014046305 -0.02675778 0.0379588 0.006285655 0.04898253 0.042666517 0.01887899 -0.028439572
-0.029519007 -0.040444385 -0.00723572 -0.0006734103 -0.007253064 -0.0058778045 0.06460405 -0.009135197
0.005652627 0.03762944 -0.044809956 0.041431107 -0.02424908 0.04912596 -0.032646835 -0.029372405
0.01780387 -0.011123791 0.03712001 -0.0020709953 0.038462207 0.018774979 0.008259012 -0.048427306
-0.016780242 -0.033917077 -0.019295776 0.027270187 -0.057629775 0.015591488 -0.02812327 0.062327076
0.0109866895 -0.05280686 -0.020801442 -0.054091234 -0.017020442 -0.072050385 0.006402142 -0.027273254
0.07947833 -0.0044242665 0.036634732 0.023208937 -0.02124954 -0.017818384 0.039501064 0.0965067
-0.03447676 -0.012679212 0.027997501 -0.040022176 0.053794824 -0.009888174 -0.029196525 -0.022651276
-0.022641553 -0.027387852 -0.031219551 -0.013700359 -0.0064305305 -0.04979126 -0.008076007 -0.019514853
0.038848866 0.043880787 0.021620603 0.012583113 -0.015999332 0.0106514115 0.0041404427 0.014191633
-0.01725841 0.029583786 -0.0018373431 0.018857121 -0.03460495 -0.027816098 -0.019440178 0.010883325
00000000: 6e72 a5bc e1d2 943b 1d5e 31bd 0dc1 13bb
00000010: d2fe 453b 1dab a6bc 5341 1f3a 1897 713d
00000020: 2afe fdbc 579e 6f3d 441c 373c 7c1f ddbc
00000030: 1a01 40bd ca0b 7dbd 9987 edbc 7302 8f3c
00000040: 62fd 33ba ad02 9f3d 34ea f5bc 9a28 0c3d
00000050: 66dc d03b ecd4 aabc 8f60 983c 2b12 21bb
00000060: 4756 223d 1f16 973a e15f 903c ae38 ccbc
00000070: 7d4f a1bb 471e 553c 7c50 e7bc 5d6c 83bc
00000080: cd7e 863d dcdb 98bc 8fec 0e3d 7d13 07bc
00000090: 888a 553d dd08 92bb ed43 cc3c 51ec 4e3d
000000a0: 7922 66bc 2233 dbbc b07a 1b3d e5f7 cd3b
000000b0: e8a1 483d 16c3 2e3d 1da8 9a3c 1bfa e8bc
000000c0: d8d1 f1bc 03a9 25bd 9e19 edbb cd87 30ba
000000d0: 1cab edbb 999a c0bb 214f 843d cbab 15bc
000000e0: ac39 b93b 5421 1a3d a58a 37bd aab3 293d
000000f0: 02a6 c6bc 4d38 493d b0b8 05bd 669e f0bc
00000100: 6cd9 913c 9040 36bc 270b 183d 89b9 07bb
00000110: 8c8a 1d3d fccd 993c cf50 073c b65b 46bd
00000120: b876 89bc a2ec 0abd 2d12 9ebc ba65 df3c
00000130: 330d 6cbd 7173 7f3c c662 e6bc ad4a 7f3d
00000140: 8401 343c 024c 58bd c967 aabc c58e 5dbd
00000150: 746e 8bbc 278f 93bd 0fc9 d13b 296c dfbc
00000160: 89c5 a23d 70f9 90bb 4d0e 163d ab20 be3c
00000170: 8413 aebc dcf7 91bc decb 213d 4ea5 c53d
00000180: 8137 0dbd 78bc 4fbc 045b e53c 4bee 23bd
00000190: f657 5c3d 0202 22bc 8d2d efbc 2b8f b9bc
000001a0: c77a b9bc 7d5c e0bc 25c0 ffbc 7877 60bc
000001b0: 33b7 d2bb ecf1 4bbd 3a51 04bc 9ddd 9fbc
000001c0: fd1f 1f3d 57bc 333d b11d b13c 6729 4e3c
000001d0: 0811 83bc 4283 2e3c 8dac 873b 0684 683c
000001e0: 8261 8dbc b259 f23c 01d3 f0ba 407a 9a3c
000001f0: ecbd 0dbd 96de e3bc 0241 9fbc f94f 323c

action_model._continuous_distribution.log_sigma f4 [1, 2]
-0.22020702 -0.19203146
00000000: f37d 61be e5a3 44be

action_model._continuous_distribution.mu.weight f4 [2, 128]
0.023242913 -0.011532361 0.018730361 -0.023512278 0.008944843 -0.003957392 0.006105284 -0.04254894
0.010756831 -0.08078873 -0.006159526 -0.0014986946 0.004927355 -0.0019419842 0.040541545 -0.0067088488
-0.007717574 -0.08339438 0.03227576 0.012319981 -0.032081872 0.0023068318 -0.07799951 -0.015072569
-0.032385264 -0.021004718 0.0034037882 0.00849422 0.03163643 0.0059831324 -0.0014540262 0.016243853
-0.0261551 -0.01018561 -0.03714243 -0.0017352506 -0.050981432 0.0013675354 -0.05675212 -0.02882589
0.019484116 0.02167527 0.08334966 -0.007952983 -0.026617136 -0.06344305 -0.019803373 0.028362175
0.006769585 0.0048969057 -0.012780877 -0.0072913542 0.015915895 0.0032616486 -0.08505114 -0.003925326
-0.027102131 -0.012303921 0.0022732024 0.080001235 0.003612091 -0.037971865 0.00998037 -0.0011285499
0.0021299832 -0.018246282 -0.05299821 0.06142619 -0.05551113 -0.015300824 0.07408128 0.0044265385
0.05044165 0.0073425365 0.010360608 -0.0564724 0.005105311 -0.029062418 0.008050319 -0.06312077
-0.030745257 0.0037174635 0.020987157 0.0035840613 -0.00639873 -0.00095250126 -0.033032205 -0.005167663
-0.091972835 0.0060514417 -0.019336017 -0.055757627 -0.016244868 -0.02911326 -0.029186035 -0.069006436
0.009372097 0.03867195 0.058515403 -0.0035176575 0.007130168 0.026938213 0.021968465 0.029667167
-0.008154572 0.004264193 0.031644896 0.0013463992 0.049032845 0.0034852782 0.018023688 0.02387446
-0.028662559 0.00765867 0.031518668 0.017166466 0.02208787 0.012105881 -0.015502993 -0.002036092
0.0126273595 -0.039414868 0.039645705 0.010856236 0.0025626575 -0.0081939595 0.013630165 0.002268087
0.019017015 -0.005558487 0.0011437177 -0.043539688 0.014279518 0.0070253657 0.008502418 0.064688265
-0.0012925932 0.019752648 -0.0020164317 0.00042770398 -0.0091835605 -0.0034755697 0.002469968 0.06349121
0.023341624 -0.030076977 -0.03078943 0.07822464 -0.010939662 -0.039472986 0.0017286865 0.008772862
0.007813918 -0.008905853 -0.00096430944 0.023548795 -0.05697401 0.017373983 0.0010674638 -0.025784003
0.10012514 0.001321949 -0.032794226 0.0025350363 -0.0045508626 0.0036112636 -0.053356864 0.05667781
0.0048424453 0.0064912825 0.08414202 0.034629602 0.05390406 0.0398096 -0.05421219 -0.018345471
-0.03838714 -0.016190493 0.006134536 0.014244399 -0.04150923 -0.002058614 -0.06649424 -0.042955823
0.01998554 0.046483114 -0.0013709866 0.095672876 0.009190411 0.057663266 -0.0021220304 0.0015186085
-0.07063444 0.0070323274 0.022677185 -0.00028167103 -0.07745159 0.025489725 0.019192467 0.0011305137
-0.02524449 -0.0030752376 -0.049153678 -0.0076860543 0.008194139 -0.014680857 0.006814654 0.05215616
0.034963697 -0.0067677908 -0.0120374635 0.00272616 0.019411396 -0.0013580412 0.011048864 -0.02045535
0.02631207 0.0060732486 0.025931537 -0.0022014468 -0.00012734406 -0.010935614 -0.06635733 0.015840853
0.003906967 0.014241705 0.061571628 -0.0034063926 0.13016616 0.0020605975 0.007911545 -0.0032918965
-0.024141788 -0.0052622957 -0.00730039 -0.0018163333 0.011036611 0.0011589114 -0.049317196 -0.0044707796
0.035927113 0.10874992 -0.073545426 0.059278246 -0.04297307 0.034341846 -0.023288574 0.0022381707
0.019264828 0.06398382 -0.06957586 0.03800713 0.014881725 0.020770602 -0.009685971 0.021363681
00000000: ec67 be3c 3af2 3cbc 6a70 993c d29c c0bc
00000010: 648d 123c 03ad 81bb d60e c83b cc47 2ebd
00000020: 6b3d 303c 9074 a5bd d9d5 c9bb d96f c4ba
00000030: a675 a13b 2d8a feba e40e 263d e7d5 dbbb
00000040: b4e3 fcbb acca aabd 9633 043d bfd9 493c
00000050: 4868 03bd 372e 173b 35be 9fbd f0f2 76bc
00000060: 69a6 04bd 1612 acbc 1712 5f3b 572b 0b3c
00000070: 3495 013d 270e c43b 0695 beba d411 853c
00000080: 3843 d6bc 8be1 26bc a922 18bd 5971 e3ba
00000090: e8d1 50bd e03e b33a e974 68bd 4624 ecbc
000000a0: 279d 9f3c 5690 b13c 3ab3 aa3d 3a4d 02bc
000000b0: 2e0c dabc 6eee 81bd af3a a2bc cb57 e83c
000000c0: 65d3 dd3b 3976 a03b e266 51bc 50ec eebb
000000d0: 0d62 823c 62c1 553b 4b2f aebd 05a0 80bb
000000e0: 4a05 debc 6396 49bc 02fa 143b b0d7 a33d
000000f0: d5b8 6c3b 6388 1bbd b584 233c daeb 93ba
00000100: 3097 0b3b 3a79 95bc a714 59bd 079a 7b3d
00000110: a35f 63bd 4fb0 7abc edb7 973d 7f0c 913b
00000120: e79b 4e3d a999 f03b 8abf 293c 9a4f 67bd
00000130: 744a a73b 4f14 eebc 7ce5 033c 7645 81bd
00000140: 7add fbbc b0a0 733b 42ed ab3c 92e2 6a3b
00000150: 70ac d1bb 47b1 79ba c74c 07bd 8055 a9bb
00000160: 415c bcbd 2c4b c63b 9166 9ebc 1c62 64bd
00000170: f513 85bc ee7e eebc 8d17 efbc 3f53 8dbd
00000180: 6d8d 193c 7b66 1e3d d9ad 6f3d 8088 66bb
00000190: 2fa4 e93b 87ad dc3c 36f7 b33c 8f08 f33c
000001a0: c19a 05bc a5ba 8b3b 149e 013d a979 b03a
000001b0: aad6 483d 4469 643b 6aa6 933c 5f94 c33c
000001c0: becd eabc 95f5 fa3b b819 013d b0a0 8c3c
000001d0: 9ff1 b43c bf57 463c 4400 7ebc f56f 05bb
000001e0: fce2 4e3c 7c71 21bd 8963 223d 5bde 313c
000001f0: 42f2 273b f53f 06bc 0e51 5f3c 2fa4 143b
00000200: 92c9 9b3c f823 b6bb cce8 953a ac56 32bd
00000210: a4f4 693c 0a35 e63b ba4d 0b3c 487b 843d
00000220: 3b6c a9ba 4ed0 a13c 1c26 04bb 753d e039
00000230: a576 16bc 62c6 63bb 30df 213b ae07 823d
00000240: ef36 bf3c fe63 f6bc 1d3a fcbc 3d34 a03d
00000250: 453c 33bc 6dae 21bd 1895 e23a 0dbc 0f3c
00000260: f305 003c dbe9 11bc b6c9 7cba 67e9 c03c
00000270: 945d 69bd e253 8e3c 24ea 8b3a f938 d3bc
00000280: 690e cd3d 3f45 ad3a 3d53 06bd da22 263b
00000290: 671f 95bb f3aa 6c3b ba8c 5abd fe26 683d
000002a0: 60ad 9e3b d3b4 d43b a752 ac3d c5d7 0d3d
000002b0: 81ca 5c3d 640f 233d 9a0d 5ebd 3e49 96bc
000002c0: d53b 1dbd eda1 84bc 3804 c93b 5761 693c
000002d0: 9505 2abd d0e9 06bb 222e 88bd 72f2 2fbd
000002e0: b7b8 a33c 1465 3e3d adb2 b3ba 24f0 c33d
000002f0: 6193 163c 5130 6c3d c311 0bbb 0c0c c73a
00000300: caa8 90bd 706f e63b 81c5 b93c 3fad 93b9
00000310: f09e 9ebd d4cf d03c 8539 9d3c bf2d 943a
00000320: 88cd cebc ed89 49bb 5e55 49bd 4cdb fbbb
00000330: b640 063c fa87 70bc 764d df3b b3a1 553d
00000340: 1836 0f3d 58c4 ddbb c838 45bc 60a9 323b
00000350: a604 9f3c 4d00 b2ba 4b06 353c fa91 a7bc
00000360: 698c d73c 1a02 c73b 606e d43c 2646 10bb
00000370: a987 05b9 4a2b 33bc 5ae6 87bd adc4 813c
00000380: 0406 803b 0a56 693c 8832 7c3d c93d 5fbb
00000390: 474a 053e 170b 073b 6d9f 013c dcbc 57bb
000003a0: 00c5 c5bc 566f acbb 1c38 efbb 0812 eeba
000003b0: e7d2 343c 9de6 973a d400 4abd 9e7f 92bb
000003c0: 4f28 133d 47b8 de3d fc9e 96bd bfcd 723d
000003d0: 8804 30bd 09aa 0c3d aec7 bebc 46ae 123b
000003e0: 46d1 9d3c f309 833d ca7d 8ebd 5dad 1b3d
000003f0: 7bd2 733c 1c27 aa3c e8b1 1ebc e302 af3c

action_model._continuous_distribution.mu.bias f4 [2]
-0.00847825 0.008070072
00000000: 5ce8 0abc 5638 043c

exp_avg f4 [128, 8]
0.00022384504 0.00041707826 0.00030410284 -5.1268926e-05 -0.0005581142 1.3984802e-05 -0.000102595535 0.0003120458
-0.0009792565 0.00024819357 -0.0015186334 0.0006380351 -5.4441913e-05 9.72321e-05 -0.0023813788 0.0008114823
-0.0012968413 0.0006112706 -0.002565737 0.0015554586 0.0003417267 0.00048572556 -0.002202788 0.0013202097
-0.00027199928 -0.00015465767 -7.5363125e-05 3.2382914e-06 2.5003167e-06 -0.0003015635 -0.00049967 -5.2228556e-06
0.0005639881 0.00015595616 0.00047036156 -0.0001709154 -9.203031e-06 0.00025396442 0.0012868884 -0.00016363463
5.5917953e-05 -8.169536e-05 -5.9409726e-05 6.257196e-05 0.0002636464 -4.0073006e-05 -0.00015957313 -0.00010624933
-2.3132443e-05 0.0001697075 -0.0006047364 0.00011245402 0.00014313977 0.0001533983 -0.00068394915 0.00029445847
0.00054074323 0.00036496343 0.00061678846 -0.00046601225 -0.0005342489 0.0001309887 -5.997582e-05 0.0005785085
-0.0009962042 -0.00024286962 -0.00065762934 0.00046428884 0.00042096927 -0.00019501559 -0.0009996289 -0.00033370606
0.0007821559 0.00011743103 0.0008863674 -0.00013650519 -4.9983606e-05 0.00011035027 0.00050140294 -0.0001456515
-0.0007701361 -0.0006590837 -0.00086655293 0.0009574158 0.0008117039 0.00012523736 -0.00021572888 0.00019026644
0.00011040452 0.00012737703 7.936369e-05 -8.992643e-05 -8.609356e-05 8.379748e-05 0.0001300015 4.6039844e-05
-0.000114310766 -6.0592956e-05 -0.00024156175 0.000522441 -0.0008056806 0.00029870745 -0.0028691646 0.00082639867
0.00033210585 -0.00017418453 0.0012623844 0.00012334721 -0.00042260045 0.0002666552 -0.000106152205 -0.00033549502
0.00026486957 0.0003960202 -0.00019088603 -0.0003907626 -0.00039790283 0.00016635879 0.00064031134 0.00032419618
-0.0007987862 0.00068032456 -0.0017926686 7.377168e-05 0.00042666477 0.00015221519 -0.0004525645 0.000647109
-0.0001226104 -0.0002263997 0.00019318523 -8.0364865e-05 0.0002850143 -0.00026132658 -0.00018645481 -0.0002486302
0.0001731684 -0.00045280883 -2.6146998e-05 -1.0850734e-05 0.0002485508 -7.366318e-05 0.0011867512 -0.000100752644
0.00036961364 5.8449236e-06 0.0007002751 -0.00048544348 -0.0002482741 -0.00011449466 0.00048052138 -0.0005082767
0.00044003956 -0.0015285154 0.0019044484 0.00060795096 0.00089798047 0.0003588519 -2.4198276e-05 -0.001005611
-0.00029054738 -0.0006934721 0.00067802344 0.00043223606 0.0005010586 -0.00014187551 0.0005266017 -0.0005473311
0.00062358833 -0.00011231432 0.0010862551 4.592614e-05 -0.0004016195 4.6317055e-05 0.0002354776 -0.00051979336
-4.684728e-05 0.00019922713 -0.0006067663 0.00029275744 0.00044293812 0.00019023336 0.00011357454 -0.00039723175
-0.0011993715 0.0009823713 -0.0010603663 -0.00015081218 -0.00087674404 -0.0006587422 -0.0019286743 0.0009995429
0.00012590841 -0.00016129503 -0.00040926295 -0.0002812401 -0.0003132749 7.565121e-05 -0.000110784895 2.0738556e-05
-0.0011776435 -0.0009342406 -0.0007113273 -0.00023805695 0.0007537011 -3.6082867e-05 -0.00024391474 -2.33733e-05
0.00038162537 0.0008151796 0.0005956174 -8.929754e-05 -0.0008267092 0.00019153798 2.0695925e-05 0.00041108057
-0.0015165401 0.0003642346 -0.0010004311 -0.00043467636 -0.00032495902 -0.0007885818 -0.0010249896 0.00017771075
-0.00030951708 -0.0012084035 -0.00011549595 0.0006883368 0.0008224653 0.00014230097 0.0003133934 -0.00014234177
0.00079455634 0.00019909492 0.000987266 0.00018111922 -0.00073894067 0.00027274253 0.0002515807 0.00020257763
-0.0006698564 -0.0003150947 -0.0011219389 0.0008832658 0.00023187914 2.2526101e-05 -0.0006926863 0.0003405791
0.00027286934 -8.8780944e-05 -0.00024934523 0.000114393406 0.00025480866 0.00046387568 0.0007343059 -0.00040139782
00000000: f2b7 6a39 4cab da39 fe6f 9f39 9709 57b8
00000010: 694e 12ba 44a0 6a37 8f28 d7b8 149a a339
00000020: 655a 80ba fa1f 8239 e20c c7ba d041 273a
00000030: 8f58 64b8 16e9 cb38 e810 1cbb a8b9 543a
00000040: c6fa a9ba ad3d 203a ed25 28bb 88e0 cb3a
00000050: c829 b339 fba8 fe39 a65c 10bb e30a ad3a
00000060: 209b 8eb9 9a2b 22b9 450c 9eb8 6c51 5936
00000070: 1dcb 2736 2b1b 9eb9 49fc 02ba fd3f afb6
00000080: 9ad8 133a 2a88 2339 dc9a f639 c137 33b9
00000090: b866 1ab7 8726 8539 cfac a83a 5695 2bb9
000000a0: 7289 6a38 dd53 abb8 b52e 79b8 1139 8338
000000b0: 053a 8a39 1014 28b8 1653 27b9 2dd2 deb8
000000c0: 8b0c c2b7 83f3 3139 2c87 1eba 4bd5 eb38
000000d0: ca17 1639 8bd9 2039 0d4b 33ba 8c61 9a39
000000e0: aac0 0d3a 9058 bf39 f9af 213a 1b53 f4b9
000000f0: d60c 0cba 035a 0939 8c8e 7bb8 0ca7 173a
00000100: 1193 82ba d1aa 7eb9 c264 2cba cb6b f339
00000110: 8ab5 dc39 197d 4cb9 fb05 83ba 45f5 aeb9
00000120: 9809 4d3a 4e45 f638 1c5b 683a d522 0fb9
00000130: 7da5 51b8 da6b e738 9570 033a 07ba 18b9
00000140: f5e2 49ba 5cc6 2cba 6229 63ba 16fb 7a3a
00000150: 87c8 543a 2652 0339 4835 62b9 4282 4739
00000160: fa88 e738 8390 0539 0e70 a638 e296 bcb8
00000170: 218d b4b8 6ebc af38 0351 0839 e81a 4138
00000180: 20ba efb8 3125 7eb8 bd4b 7db9 6cf4 083a
00000190: 4f34 53ba d69b 9c39 9808 3cbb ada2 583a
000001a0: 7e1e ae39 4ea5 36b9 9776 a53a c456 0139
000001b0: 7990 ddb9 dbcd 8b39 089e deb8 61e5 afb9
000001c0: 31de 8a39 eea0 cf39 9428 48b9 45df ccb9
000001d0: 9d9d d0b9 9970 2e39 91da 273a e0f8 a939
000001e0: a265 51ba cf57 323a faf7 eaba deb5 9a38
000001f0: fab1 df39 f49b 1f39 2e46 edb9 c0a2 293a
00000200: fb90 00b9 b565 6db9 c491 4a39 8f89 a8b8
00000210: f96d 9539 a902 89b9 1583 43b9 955a 82b9
00000220: 8a94 3539 f966 edb9 4056 dbb7 8c0b 36b7
00000230: ec4f 8239 9e7b 9ab8 c38c 9b3a 2a4b d3b8
00000240: b4c8 c139 831f c436 ab92 373a 1f83 feb9
00000250: c92a 82b9 da1c f0b8 7dee fb39 df3d 05ba
00000260: 1cb5 e639 7758 c8ba af9e f93a e65e 1f3a
00000270: 7366 6b3a 4924 bc39 67fd cab7 b5ce 83ba
00000280: 9c54 98b9 20ca 35ba 62bd 313a be9d e239
00000290: 7959 033a 6bc4 14b9 a40b 0a3a c57a 0fba
000002a0: 4e78 233a 4b8a ebb8 ac60 8e3a d1a0 4038
000002b0: 7590 d2b9 8f44 4238 89ea 7639 be42 08ba
000002c0: e27d 44b8 a0e7 5039 660f 1fba 3d7d 9939
000002d0: 263a e839 6179 4739 de2e ee38 8b43 d0b9
000002e0: 3b34 9dba e9c2 803a fdfb 8aba 5623 1eb9
000002f0: 4cd5 65ba 71af 2cba 92cb fcba 1803 833a
00000300: 4806 0439 4e21 29b9 5892 d6b9 6873 93b9
00000310: 0c3f a4b9 efa6 9e38 3055 e8b8 b6f7 ad37
00000320: 295b 9aba d3e7 74ba 5e78 3aba ed9e 79b9
00000330: 0694 453a af57 17b8 5dc3 7fb9 c811 c4b7
00000340: e414 c839 c7b1 553a 3523 1c3a 4045 bbb8
00000350: 84b7 58ba 96d7 4839 299c ad37 4d86 d739
00000360: a4c6 c6ba bef6 be39 e620 83ba 46e5 e3b9
00000370: 435f aab9 d4b8 4eba f258 86ba de57 3a39
00000380: ae46 a2b9 4b63 9eba 6a36 f2b8 8071 343a
00000390: b69a 573a a036 1539 f34e a439 9441 15b9
000003a0: c649 503a 23c4 5039 2667 813a d2ea 3d39
000003b0: 78b5 41ba e2fe 8e39 97e6 8339 056b 5439
000003c0: 4d99 2fba 4b33 a5b9 060e 93ba f78a 673a
000003d0: 9524 7339 6ff6 bc37 6495 35ba c18f b239
000003e0: e70f 8f39 e82f bab8 8dba 82b9 7ee6 ef38
000003f0: d797 8539 5734 f339 6f7e 403a b472 d2b9

exp_avg_sq f4 [128, 8]
1.2617662e-06 1.4943188e-06 2.7496287e-06 3.4959805e-07 1.8458624e-06 1.2852472e-06 1.6262478e-06 1.1910665e-06
7.7304085e-06 1.24896505e-05 1.2299423e-05 3.2145435e-06 1.5268555e-05 5.307149e-06 3.323949e-05 8.451526e-06
1.3987353e-05 1.6560904e-05 2.1959382e-05 4.888127e-06 2.2048298e-05 9.2008295e-06 1.9069093e-05 1.4986443e-05
1.7777434e-06 2.970276e-06 4.2270694e-06 9.196383e-07 1.0713259e-05 1.7622554e-06 2.8549218e-06 2.4292067e-06
1.2835892e-06 2.2911584e-06 2.0332232e-06 9.693614e-07 2.803224e-06 5.50633e-07 6.196682e-06 7.789288e-07
8.341062e-07 1.2796951e-06 1.2075609e-06 8.8616034e-08 1.592322e-06 8.8313567e-07 4.9831397e-07 1.2165161e-06
1.8826054e-06 2.6026742e-06 3.6681827e-06 2.978989e-07 3.2326402e-06 1.7813276e-06 5.1434663e-06 3.0841934e-06
2.450053e-06 3.1801062e-06 4.6766477e-06 1.3058925e-06 4.7724634e-06 1.5230653e-06 8.3836e-06 2.596429e-06
2.8253223e-06 5.1625684e-06 5.3733397e-06 1.2127507e-06 7.211966e-06 2.5626962e-06 3.4582156e-06 2.5974202e-06
5.0479352e-06 9.247889e-06 5.738938e-06 1.4073e-06 7.785942e-06 3.2713924e-06 2.0698837e-06 5.037867e-06
5.6012277e-06 7.3200695e-06 7.297308e-06 2.3359846e-06 9.7710545e-06 3.3089302e-06 8.120883e-06 6.134395e-06
8.7571135e-07 1.1839783e-06 1.5851685e-06 2.5348004e-07 2.5477768e-06 7.310784e-07 2.5839852e-06 1.6068395e-06
1.157603e-05 1.4426203e-05 1.7348599e-05 8.738738e-06 2.2098357e-05 4.3793093e-06 3.2761516e-05 7.60607e-06
3.010945e-06 3.5265755e-06 7.0454e-06 7.5649365e-07 4.5346355e-06 1.9382148e-06 3.4571335e-06 3.3002054e-06
3.161447e-06 3.5832495e-06 3.0903873e-06 4.3260147e-07 4.5043375e-06 2.2683628e-06 2.0377377e-06 4.602523e-06
8.0526315e-06 1.3621651e-05 2.1502918e-05 1.7438122e-06 2.8125032e-05 8.472276e-06 1.0236759e-05 1.3387309e-05
5.2592713e-07 5.867703e-07 1.1309429e-06 2.050095e-07 2.0138914e-06 7.0427615e-07 1.1296357e-06 9.2434897e-07
1.6899918e-06 4.1735693e-06 2.942839e-06 9.601495e-07 4.744357e-06 9.768161e-07 6.7701203e-06 1.5035066e-06
3.9605634e-06 4.1095236e-06 4.397796e-06 1.1041956e-06 7.681595e-06 2.6044956e-06 2.3301998e-06 4.7955946e-06
8.56299e-06 1.0613274e-05 1.6085998e-05 1.4620867e-06 1.8480116e-05 8.8318e-06 3.7062248e-06 1.3555302e-05
5.6974104e-06 8.354459e-06 8.474051e-06 3.1282952e-06 1.2335643e-05 3.2894504e-06 1.1816173e-05 5.0164253e-06
7.0581877e-06 1.0946709e-05 1.0741943e-05 1.6343997e-06 1.5583144e-05 5.8928e-06 2.752243e-06 9.954644e-06
1.7596996e-06 3.1093466e-06 4.956628e-06 6.347506e-07 3.033942e-06 1.8686227e-06 4.383916e-06 2.2837114e-06
1.527567e-05 1.9559711e-05 3.321386e-05 4.700855e-06 4.909402e-05 1.5792793e-05 1.4491996e-05 1.9788147e-05
1.2477756e-05 1.1668347e-05 1.5736467e-05 7.505155e-06 2.1811473e-05 7.1000504e-06 7.462279e-06 9.408702e-06
9.271802e-06 1.19992865e-05 1.5676194e-05 1.4882826e-06 2.2525895e-05 9.038482e-06 3.8500984e-06 1.0944193e-05
3.2779828e-06 3.5976045e-06 5.943886e-06 9.4968993e-07 4.3233804e-06 1.8543557e-06 4.4204403e-06 2.8497104e-06
7.28262e-06 8.480527e-06 1.4019675e-05 1.0175526e-06 1.6053365e-05 7.874889e-06 4.7066933e-06 9.458786e-06
5.342482e-06 7.035301e-06 7.854185e-06 2.0262987e-06 1.0880399e-05 3.5639323e-06 6.1783508e-06 5.2540045e-06
3.966116e-06 6.15792e-06 6.313066e-06 8.305413e-07 7.5592357e-06 2.6978835e-06 1.7662837e-06 4.686323e-06
3.1021946e-06 3.4746715e-06 5.752149e-06 2.2548063e-06 6.531618e-06 1.6051663e-06 8.3047e-06 1.5793858e-06
1.3926461e-06 2.2592508e-06 3.8280564e-06 4.862449e-07 4.181661e-06 1.5691085e-06 4.3868413e-06 1.7479641e-06
00000000: f559 a935 6790 c835 4386 3836 64b0 bb34
00000010: 59bf f735 c280 ac35 7345 da35 bcdc 9f35
00000020: dab1 0137 a48a 5137 9f59 4e37 70b9 5736
00000030: f914 8037 1014 b236 a16a 0b38 07cb 0d37
00000040: 39ab 6a37 45ec 8a37 6a35 b837 b104 a436
00000050: 5cf4 b837 435d 1a37 91f6 9f37 486e 7b37
00000060: cc9a ee35 f454 4736 40d6 8d36 10dd 7635
00000070: 19bd 3337 a286 ec35 2f97 3f36 7405 2336
00000080: ca47 ac35 cdc1 1936 8272 0836 011b 8235
00000090: 061f 3c36 36cf 1335 18ed cf36 9417 5135
000000a0: 57e7 5f35 fdc1 ab35 7a13 a235 2e4d be33
000000b0: c4b7 d535 9f10 6d35 e0c3 0535 2d47 a335
000000c0: d4ad fc35 9aa9 2e36 e62a 7636 eaee 9f34
000000d0: 56f0 5836 f315 ef35 0a96 ac36 0afa 4e36
000000e0: 976b 2436 cf69 5536 19ec 9c36 2046 af35
000000f0: 2623 a036 206c cc35 4aa7 0c37 503e 2e36
00000100: ab9a 3d36 203a ad36 a34c b436 ccc5 a235
00000110: 51fe f136 c9fa 2b36 b113 6836 574f 2e36
00000120: 6f61 a936 6127 1b37 1a91 c036 76e2 bc35
00000130: 5ea0 0237 188a 5b36 55e8 0a36 f30a a936
00000140: 2ef2 bb36 eb9e f536 66db f436 e9c3 1c36
00000150: 5cee 2337 fd0e 5e36 ed3e 0837 0dd6 cd36
00000160: 6d12 6b35 2fe9 9e35 fac1 d435 0816 8834
00000170: 79fa 2a36 533f 4435 8768 2d36 96aa d735
00000180: ac36 4237 1208 7237 d587 9137 989c 1237
00000190: dc5f b937 fbf1 9236 6969 0938 a537 ff36
000001a0: a40f 4a36 1baa 6c36 8667 ec36 d911 4b35
000001b0: 3928 9836 4712 0236 1a01 6836 1979 5d36
000001c0: 3f29 5436 c277 7036 7364 4f36 4b40 e834
000001d0: f723 9736 2d3a 1836 11c0 0836 5f6f 9a36
000001e0: ca19 0737 8c88 6437 2a61 b437 ee0c ea35
000001f0: 0cee eb37 2624 0e37 8cbe 2b37 0e9a 6037
00000200: 702d 0d35 8c82 1d35 e7ca 9735 9520 5c34
00000210: 6426 0736 7d0d 3d35 fd9d 9735 c720 7835
00000220: add3 e235 b00a 8c36 977d 4536 7cde 8035
00000230: b731 9f36 251b 8335 e42a e336 18cc c935
00000240: fbe4 8436 8ae4 8936 c890 9336 df33 9435
00000250: 33e0 0037 e5c8 2e36 8760 1c36 d8e9 a036
00000260: c3a9 0f37 aa0f 3237 6bf0 8637 eb3c c435
00000270: bf05 9b37 4b2c 1437 75b8 7836 946b 6337
00000280: 622c bf36 212a 0c37 c62b 0e37 b4ef 5136
00000290: 2ff5 4e37 54c0 5c36 143e 4637 c452 a836
000002a0: 5fd5 ec36 c2a7 3737 4b38 3437 8c5d db35
000002b0: 8cb8 8237 c4ba c536 2db3 3836 df02 2737
000002c0: d12e ec35 2baa 5036 1c51 a636 bb63 2a35
000002d0: ba9a 4b36 63cd fa35 8d19 9336 dd41 1936
000002e0: 4024 8037 2914 a437 1c4f 0b38 09bc 9d36
000002f0: 4dea 4d38 c47a 8437 a622 7337 b9fe a537
00000300: 8e57 5137 2bc3 4337 ce01 8437 cad4 fb36
00000310: c8f7 b637 f83c ee36 7d64 fa36 11da 1d37
00000320: 168e 1b37 8b50 4937 5f80 8337 00c1 c735
00000330: fef5 bc37 fca3 1737 1830 8136 f39c 3737
00000340: 51fb 5b36 606e 7136 9871 c736 32ee 7e35
00000350: 8e11 9136 2de3 f835 4b53 9436 a73d 3f36
00000360: 3b5d f436 9647 0e37 0c36 6b37 d792 8835
00000370: 57aa 8637 641e 0437 30ee 9d36 2db1 1e37
00000380: 9243 b336 c710 ec36 78c5 0337 8cfb 0736
00000390: f58a 3637 e42b 6f36 a14f cf36 8e4b b036
000003a0: ad14 8536 21a0 ce36 d3d4 d336 5df2 5e35
000003b0: 57a5 fd36 490d 3536 0c11 ed35 353f 9d36
000003c0: 4c2f 5036 672e 6936 9502 c136 4751 1736
000003d0: 2c2a db36 1871 d735 6a54 0b37 48fb d335
000003e0: f5ea ba35 a29d 1736 c172 8036 7f86 0235
000003f0: 3250 8c36 289a d235 ae32 9336 979b ea35

exp_avg f4 [128]
0.00017826009 0.00019800103 0.00054009486 6.154138e-05 -6.220287e-05 -9.874461e-05 -0.00018390053 -0.00027327405
6.5859094e-05 0.00035713823 0.0005614679 -0.00010775553 0.00078709994 0.0008654918 -0.0003307672 -0.0011163411
-0.00015295389 -0.0001289749 -0.00012348384 0.0012097796 0.0007161543 0.000965215 -0.00013834363 -0.00041906207
8.156975e-05 -0.0010160931 0.00036638443 -0.0007757639 0.00052141893 0.001015152 0.0006185521 -5.0872262e-05
9.6205e-05 -0.00046429725 0.00010630676 -9.3590745e-05 9.259324e-05 -0.00048667783 0.0004938475 0.0008883688
-5.7404206e-05 0.0010079833 -0.00018666797 -0.00017679197 0.00031073784 0.00011311448 -0.00018012425 -0.00035672236
-4.329779e-05 -0.00025140648 0.00039655605 -0.00012130826 0.0005017309 7.198239e-05 0.00025894245 -0.0007204975
-0.00038601476 0.0004289411 -0.0003092836 -0.00015634167 -5.4670894e-05 -0.0008117672 0.00070800335 -0.0002610779
0.0009093493 -0.0005098137 0.00027684 0.0007509122 -0.0003395337 0.0004151049 -0.00027380174 0.00011419926
0.0004249647 -7.1629016e-05 2.3125021e-05 -0.0003224918 -0.0005086961 0.00029199186 0.0006232606 0.00014565812
0.0002572626 -6.604563e-05 0.0006739371 4.563393e-05 5.7739755e-05 -4.602119e-05 9.57796e-05 1.295248e-05
0.00023731145 -0.00042529398 -0.00048420217 -0.0003093722 0.00042761373 2.723223e-05 0.00035498978 -0.00075385696
1.1509319e-06 0.0014863901 0.0003526286 0.00015332941 -0.00037993098 -5.8799753e-05 0.00015109283 0.00011566767
-0.00046330364 0.00023814803 -0.00089239347 -2.0027905e-05 -0.00016730346 -0.00025580064 0.00046718892 -3.0308884e-05
0.00023029983 0.0003993614 -0.00039992225 -0.00073820463 -0.00024205327 -0.00040256968 -7.296182e-05 -3.3404885e-05
0.00018766077 -0.00029474418 -0.0015195104 0.0004070387 0.00020755081 -9.84941e-05 -0.00020187885 9.214422e-05
00000000: 54eb 3a39 7f9e 4f39 2795 0d3a c70f 8138
00000010: e972 82b8 1c15 cfb8 6cd5 40b9 3946 8fb9
00000020: d51d 8a38 483e bb39 792f 133a cffa e1b8
00000030: 6255 4e3a 2ce2 623a d26a adb9 3152 92ba
00000040: 3f62 20b9 703d 07b9 717b 01b9 7891 9e3a
00000050: 4dbc 3b3a 7b06 7d3a 5610 11b9 8fb5 dbb9
00000060: 6d10 ab38 6d2e 85ba 4917 c039 a25c 4bba
00000070: d5af 083a d90e 853a 5426 223a ad5f 55b8
00000080: abc1 c938 ec6c f3b9 02f1 de38 2646 c4b8
00000090: 9e2e c238 cb28 ffb9 8b75 013a 6ce1 683a
000000a0: 4cc5 70b8 4f1e 843a 4dbc 43b9 3c61 39b9
000000b0: 87ea a239 e037 ed38 bcdf 3cb9 7706 bbb9
000000c0: a69a 35b8 35cf 83b9 dae8 cf39 e066 feb8
000000d0: 9786 033a 40f5 9638 abc2 8739 c5df 3cba
000000e0: 0662 cab9 80e3 e039 5827 a2b9 a6ef 23b9
000000f0: 6d4e 65b8 c6cc 54ba 4d99 393a 48e1 88b9
00000100: 6661 6e3a 05a5 05ba d624 9139 ddd8 443a
00000110: 7103 b2b9 70a2 d939 0c8d 8fb9 437e ef38
00000120: cccd de39 8937 96b8 9bfc c137 1e14 a9b9
00000130: 045a 05ba 7c16 9939 5062 233a cebb 1839
00000140: 34e1 8639 fa81 8ab8 27ab 303a 0f67 3f38
00000150: 972d 7238 e006 41b8 48dd c838 7a4e 5937
00000160: cfd6 7839 fef9 deb9 84dc fdb9 3c33 a2b9
00000170: 5831 e039 c570 e437 ec1d ba39 7c9e 45ba
00000180: b879 9a35 fad2 c23a 02e1 b839 0dc7 2039
00000190: 7931 c7b9 c19f 76b8 ac6e 1e39 9c92 f238
000001a0: 90e7 f2b9 60b7 7939 83ef 69ba 9901 a8b7
000001b0: 2e6e 2fb9 fb1c 86b9 09f1 f439 d53f feb7
000001c0: a47c 7139 6161 d139 a8ac d1b9 1384 41ba
000001d0: aecf 7db9 fd0f d3b9 1403 99b8 391c 0cb8
000001e0: cec6 4439 e587 9ab9 4f2a c7ba cf67 d539
000001f0: ffa1 5939 9e8e ceb8 71af 53b9 8d3d c138

exp_avg_sq f4 [128]
1.756331e-06 1.2092906e-05 2.1711143e-05 3.824347e-06 1.632962e-06 1.404324e-06 3.054144e-06 3.4791005e-06
4.8229576e-06 6.4882242e-06 6.983994e-06 1.4756201e-06 1.426224e-05 3.6417994e-06 4.5499532e-06 1.7656075e-05
8.932024e-07 2.5426257e-06 5.643157e-06 1.3860293e-05 6.690832e-06 1.1925311e-05 3.2374996e-06 3.084399e-05
1.49994985e-05 1.4667773e-05 3.5633757e-06 1.3684824e-05 6.8176637e-06 5.6340623e-06 3.853363e-06 2.7058736e-06
9.294493e-07 7.578556e-06 1.0777488e-06 1.4448999e-06 7.629865e-06 3.6343072e-06 1.3286573e-06 1.3160046e-05
6.5611925e-06 1.7073968e-05 6.3176907e-07 3.8189414e-06 8.1941266e-07 2.5926802e-06 2.2702237e-05 1.4942892e-06
1.2634797e-05 9.189508e-06 1.966837e-05 7.5495836e-06 4.9322293e-06 3.6278539e-06 7.808136e-06 6.5150657e-06
9.875396e-06 4.5674046e-06 2.3725167e-06 5.101664e-07 1.2619392e-06 8.224528e-06 5.746388e-06 2.8208656e-06
5.211151e-06 9.973589e-06 4.8550155e-06 1.7391107e-05 1.1274335e-05 3.1463067e-06 1.0169181e-05 1.0875273e-06
4.6617474e-06 8.365001e-07 3.0829758e-06 1.6668583e-06 1.3272646e-05 1.2151619e-06 3.8274984e-06 6.30788e-07
3.976355e-06 1.933454e-06 2.1400213e-06 3.1679788e-06 1.3292502e-05 8.633891e-06 2.841055e-06 6.714596e-07
5.6585645e-06 3.6686401e-06 1.1697547e-06 4.788302e-06 6.659237e-06 1.1166911e-06 6.026461e-06 6.445945e-06
3.4558332e-06 1.9110943e-05 6.4563287e-06 1.6144061e-07 5.687958e-06 2.1042338e-06 9.17644e-06 7.6221255e-07
1.1417753e-05 7.7316105e-07 9.438321e-06 5.671575e-07 1.3096815e-06 7.5925377e-06 3.3913966e-06 6.9211487e-06
3.2639368e-06 1.1507023e-05 4.3865025e-06 8.059024e-06 1.5015236e-06 4.546592e-06 3.325714e-06 6.4891574e-06
2.7052356e-06 3.402406e-06 1.9300183e-05 7.10839e-06 3.4129393e-06 4.0062923e-06 6.200781e-06 1.090869e-06
00000000: 13bb eb35 a3e2 4a37 5320 b637 e452 8036
00000010: 262c db35 357c bc35 cbf5 4c36 7e7a 6936
00000020: e4d4 a136 6cb5 d936 0d58 ea36 ec0d c635
00000030: db47 6f37 a365 7436 cdab 9836 221c 9437
00000040: 67c4 6f35 faa1 2a36 595a bd36 8189 6837
00000050: cf81 e036 d212 4837 d243 5936 7b5e 0138
00000060: 5ba6 7b37 9b15 7637 5422 6f36 df97 6537
00000070: 49c3 e436 3a0c bd36 234c 8136 8e96 3536
00000080: 457f 7935 4d4b fe36 2ba7 9035 62ee c135
00000090: 0502 0037 ece4 7336 5154 b235 f8c9 5c37
000000a0: 3728 dc36 113a 8f37 d796 2935 7524 8036
000000b0: 9cf5 5b35 e8fd 2d36 af70 be37 638f c835
000000c0: 0afa 5337 a32c 1a37 81fd a437 6e52 fd36
000000d0: 877f a536 0e76 7336 b0ff 0237 fd9b da36
000000e0: 81ae 2537 b541 9936 8737 1f36 5ef2 0835
000000f0: e75f a935 14fc 0937 19d1 c036 1a4e 3d36
00000100: 72db ae36 3d54 2737 44e8 a236 1ee3 9137
00000110: e626 3d37 2325 5336 4d9c 2a37 27f7 9135
00000120: 1b6c 9c36 d98b 6035 1fe5 4e36 d1b8 df35
00000130: 95ad 5e37 a518 a335 f66d 8036 6c53 2935
00000140: a16c 8536 7dc0 0136 499d 0f36 7699 5436
00000150: dd02 5f37 48da 1037 f4a8 3e36 5a3e 3435
00000160: b3de bd36 c232 7636 7700 9d35 33ab a036
00000170: 6972 df36 37e1 9535 e836 ca36 3f4a d836
00000180: c3ea 6736 7050 a037 71a3 d836 7558 2d34
00000190: 30db be36 7636 0d36 82f4 1937 d99a 4c35
000001a0: e08e 3f37 398b 4f35 4859 1e37 c43e 1835
000001b0: 50c8 af35 67c3 fe36 c097 6336 373c e836
000001c0: 020a 5b36 4a0e 4137 c52f 9336 3f35 0737
000001d0: f587 c935 ee8e 9836 552f 5f36 70bd d936
000001e0: 988b 3536 e454 6436 d4e6 a137 9b84 ee36
000001f0: da09 6536 ca6d 8636 4e10 d036 f969 9235
