Assets/mlagent/onnx/3DBall.onnx (onnx, 612998 bytes, 25 tensors)

network_body.observation_encoder.processors.0.normalizer.running_mean f4 [8]
0	0xb987b5bf	-0.00025884618
1	0xba3d3b69	-0.00072186306
2	0xbcaa3405	-0.020776758
3	0x40454a5a	3.082663
4	0x3dfe7019	0.12423725
5	0x3c19e93c	0.009393986
6	0xbeb1e7df	-0.34747216
7	0x3ca9b0ce	0.02071419

network_body._body_endoder.seq_layers.0.weight f4 [128, 8]
0	0xbe2522c8	-0.16126549
1	0x3e6bc60a	0.23024765
2	0xbd35700d	-0.044296313
3	0xbde29287	-0.11063104
4	0xbe50e093	-0.20398168
5	0xbece453c	-0.40287197
6	0x3e2c5b82	0.16831782
7	0x3e5f0486	0.2177907
8	0xbe4aa386	-0.19788942
9	0x3eed3f44	0.4633733
10	0xbb5f2770	-0.0034050606
11	0x3eab66f9	0.33477
12	0xbcb3b74d	-0.02193799
13	0x3ec6995e	0.38788885
14	0xbe7f9e6f	-0.24962781
15	0xbda105f2	-0.07862462
16	0x3f1a1053	0.6018116
17	0x3d841148	0.06448609
18	0x3db5d880	0.08879185
19	0xbe2a8ab3	-0.16654472
20	0x3dadb95b	0.084826194
21	0xbd86adce	-0.06576119
22	0x3e9f9121	0.31165412
23	0xbe2d5af3	-0.16929226
24	0x3dc1cc2d	0.094627716
25	0xbe52095a	-0.2051138
26	0x3d29ac6f	0.04142421
27	0xbe5e7d19	-0.21727408
28	0x3e924fd5	0.28576532
29	0x3de488fb	0.111589395
30	0x3d35c3a3	0.044376027
31	0x3f8a3465	1.079724
32	0xbe7f4315	-0.24927934
33	0x3dfaa5fb	0.122386895
34	0xbea2c138	-0.3178804
35	0x3eb69133	0.35657653
36	0xbd9c1077	-0.07620328
37	0xbe703831	-0.23458935
38	0xbebce3b2	-0.36892468
39	0x3f1c5748	0.6107068
40	0xbf46a71b	-0.7759873
41	0x3edb7364	0.42861474
42	0xbe358838	-0.17727745
43	0xbdfcdb85	-0.123465575
44	0xbe407d34	-0.18797761
45	0x3e8e8a3e	0.27839845
46	0x3dba5c7c	0.09099671
47	0xbe83e617	-0.25761482
48	0xbdf72641	-0.12067843
49	0x38ed4e58	0.00011315633
50	0xbe28893b	-0.164586
51	0x3f32c951	0.69838434
52	0xbc73af45	-0.0148733305
53	0xbe702305	-0.23450859
54	0x3eb72a4a	0.35774451
55	0xbeeab2c1	-0.45839503
56	0x3d86f46a	0.06589587
57	0xbcb5e796	-0.022205155
58	0x3f1aef06	0.6052097
59	0x3deb6f0b	0.11495789
60	0xbecd703b	-0.40124688
61	0x3ead0dae	0.337995
62	0x3e1ba251	0.15198638
63	0xbe93c910	-0.28864336
64	0x3eb2f6a6	0.34953803
65	0x3e0baf13	0.13641004
66	0xbea71d0a	-0.32639343
67	0xbd66c658	-0.0563415
68	0x3d04c774	0.032416776
69	0xbeaae848	-0.33380342
70	0xbf06ba59	-0.52628094
71	0xbd712e32	-0.058881946
72	0xbdc83e80	-0.09777546
73	0xbd73055f	-0.059331294
74	0xbee99200	-0.45619202
75	0x3eb01222	0.34388834
76	0x3dd09b5b	0.10185882
77	0x3df42ad9	0.11922235
78	0xbead20a8	-0.33813977
79	0xbe9fb1ec	-0.3119043
80	0x3f501016	0.81274545
81	0xbe32e11f	-0.1746869
82	0xbe892114	-0.2678305
83	0x3e0c0588	0.13673985
84	0xbc8fab56	-0.017537754
85	0xbf2066e0	-0.62656975
86	0xbe9ff3de	-0.31240743
87	0x3de8d57b	0.11368843
88	0xbed86883	-0.42267236
89	0xbe3afca5	-0.18260439
90	0xbe4f34e6	-0.20235023
91	0x3da03108	0.07821852
92	0xbd4d869e	-0.05017721
93	0xbe73b131	-0.23798062
94	0x3f215752	0.63023865
95	0x3e0f9585	0.14021881
96	0xbe7e9fd6	-0.2486566
97	0x3f2b653a	0.66951334
98	0x3e391756	0.18075308
99	0xbf18225a	-0.59427416
100	0xbe809b42	-0.25118452
101	0xbec53c0b	-0.38522372
102	0x3e794c44	0.243455
103	0xbda49575	-0.08036319
104	0xbeffc090	-0.499516
105	0x3f050999	0.5196777
106	0x3e916311	0.28395894
107	0x3f13facd	0.57804567
108	0x3df291f5	0.11844245
109	0xbe35e8d1	-0.17764594
110	0xbe006edd	-0.12542291
111	0xbebfff49	-0.37499455
112	0xbdd18387	-0.10230165
113	0x3e6bbd4a	0.23021427
114	0x3abc2cb3	0.0014356583
115	0x3ed11059	0.40832785
116	0xbf115aab	-0.56778973
117	0xbf1fd1b6	-0.6242937
118	0x3ee7aef3	0.45250663
119	0xbe129c06	-0.1431733
120	0x3ec1f1c1	0.37879756
121	0x3d7dbbd7	0.061946716
122	0x3e95d041	0.29260448
123	0xbefcad27	-0.49350855
124	0x3db9b81b	0.090683185
125	0xbf2c8bd0	-0.67400837
126	0xbeb21fa9	-0.3478978
127	0xbf45e115	-0.7729657
128	0xbd3c523f	-0.045976873
129	0x3eb5663d	0.35429564
130	0xbf737afc	-0.95109534
131	0xbed7600d	-0.42065468
132	0xbf0101f7	-0.50393623
133	0xbdf27e94	-0.11840549
134	0x3d24edca	0.040265836
135	0xbe09088e	-0.1338217
136	0x3f0d2cac	0.5514629
137	0x3c17e144	0.009270016
138	0xbe58b3c9	-0.21162333
139	0xbeaf25d7	-0.34208557
140	0x3e193e84	0.14965254
141	0xbe0784e1	-0.13234283
142	0xbe208652	-0.15676239
143	0x3e8e25ea	0.277633
144	0xbf23d672	-0.6399909
145	0x3e7ef58e	0.24898359
146	0xbc9c49b2	-0.01907811
147	0x3e7fa86f	0.24966596
148	0xbef7ccef	-0.4839854
149	0xbe9f7ff8	-0.3115232
150	0xbdf6ab17	-0.120443515
151	0x3e95c915	0.29254976
152	0xbecb975a	-0.3976391
153	0xbe080573	-0.13283329
154	0xbdbb5830	-0.0914768
155	0xbe0a9f54	-0.13537341
156	0x3e051f10	0.1300013
157	0xbe422f48	-0.18963349
158	0x3e0646cc	0.13112944
159	0x3c8a6169	0.016892152
160	0xbbb284ca	-0.0054479586
161	0x3da23f16	0.07922189
162	0x3df42a14	0.11922088
163	0xbe69409b	-0.22778551
164	0xbe73bc28	-0.23802245
165	0x3da47361	0.08029819
166	0xbe02c293	-0.12769537
167	0xbec70467	-0.38870546
168	0x3d264527	0.040593293
169	0x3f17db2e	0.59318817
170	0x3d96b9dc	0.073596686
171	0x39a1a326	0.00030829868
172	0x3f1f1dc6	0.62154806
173	0xbd65a686	-0.056067012
174	0x3dcb3459	0.09922094
175	0xbcf40bcf	-0.029790787
176	0xbe9b89b6	-0.30378503
177	0xbc91dc6c	-0.0178053
178	0x3ec28bad	0.3799719
179	0xbdf671f6	-0.12033455
180	0xbee2f7c8	-0.44329667
181	0x3eeeb93d	0.466257
182	0xbc0e221f	-0.008675127
183	0xbe161963	-0.14658122
184	0x3eb73224	0.35780442
185	0x3ebaae21	0.36460975
186	0xbe097666	-0.13424072
187	0xbed3319e	-0.41248792
188	0xbeb1c297	-0.34718773
189	0x3dfff418	0.12497729
190	0x3e3ea082	0.18615916
191	0x3e81abdd	0.25326434
192	0xbdbf5a6f	-0.09343421
193	0xbbc3f920	-0.0059806257
194	0x3f256378	0.646049
195	0x3d62f28b	0.05540709
196	0x3ea48329	0.32131317
197	0x3dc8e940	0.09810114
198	0xbd033fca	-0.032043256
199	0x3c9a8753	0.018863356
200	0x3ea96dcc	0.3309158
201	0x3ec060e2	0.37573916
202	0x3d00eada	0.031473972
203	0x3ec58455	0.38577524
204	0xbf22cd71	-0.6359473
205	0x3f295564	0.6614592
206	0x3e317906	0.17331323
207	0xbf1047f1	-0.56359774
208	0xbaecc65e	-0.0018064489
209	0x3ec540c3	0.38525972
210	0x3e7233ae	0.23652527
211	0x3c95d582	0.018290285
212	0x3ee9a964	0.45637047
213	0x3e9930ba	0.29919988
214	0xbf39579a	-0.72399294
215	0xbe09eeaf	-0.13469957
216	0x3e026d47	0.12736998
217	0x3e030cd3	0.12797861
218	0x3efbd5ae	0.49186462
219	0xbdfc7a3f	-0.12328004
220	0xbea7d783	-0.3278161
221	0xbe3be752	-0.1834996
222	0xbd4f4f23	-0.05061258
223	0xbde591d0	-0.11209452
224	0xbec08188	-0.37598825
225	0xbef21581	-0.4728203
226	0xbcae940f	-0.021310834
227	0x3bbba4f3	0.0057264506
228	0x3eb84e64	0.35997307
229	0x3f21ce6f	0.6320562
230	0xbea5cf26	-0.32384604
231	0x3cb8d3d8	0.022561952
232	0xbf4cd1b2	-0.8000747
233	0xbf075a74	-0.52872396
234	0xbe9c897e	-0.30573648
235	0xbdec6b48	-0.115439
236	0xbec61a11	-0.38691762
237	0xbe7cc037	-0.24682699
238	0xbd92764a	-0.07151468
239	0xbd89cccc	-0.06728515
240	0xbc8935ad	-0.016749227
241	0xbe9cbffa	-0.30615216
242	0x3e3e2462	0.18568566
243	0x3ec426e8	0.38310933
244	0x3e1cfb75	0.15330298
245	0xbecffa53	-0.4062067
246	0x3ef6b68e	0.48186153
247	0xbe01be5f	-0.12670277
248	0x3d770a7d	0.060312737
249	0x3cd69ac7	0.02619685
250	0xbe3a1938	-0.18173683
251	0x3dcd4804	0.100235015
252	0xbdcacb7f	-0.09902095
253	0x3dc25585	0.09488968
254	0x3ec45da5	0.38352695
255	0x3e6caf8c	0.23113841

network_body._body_endoder.seq_layers.0.bias f4 [128]
0	0xbd0b3ff8	-0.033996552
1	0xbc86c6e5	-0.016452262
2	0x3c6b3e5f	0.014358132
3	0xbcbc3d5f	-0.022978483
4	0xbd409b44	-0.047023073
5	0x3c22e302	0.009941818
6	0xbba7fa6d	-0.0051262886
7	0xbccb8bb6	-0.024846893
8	0xbd4278f0	-0.047478616
9	0xbc870aec	-0.0164847
10	0x3c74368c	0.014905583
11	0xbc7121d7	-0.014717541
12	0x3b6a1d2c	0.0035722954
13	0xbd0fbb0a	-0.035090484
14	0x3bfbec1f	0.00768806
15	0xbd30c337	-0.04315492
16	0xbc9cfc4a	-0.01916327
17	0xbb8c7d93	-0.0042874306
18	0xbb0e8eb3	-0.0021752536
19	0xbc8f30f8	-0.017479405
20	0xbc24f97c	-0.010069247
21	0x388d311a	6.73255e-05
22	0x3b913da8	0.004432399
23	0xbc4c1b17	-0.012457631
24	0xbd1a42e9	-0.037661467
25	0xbc15ea05	-0.009150033
26	0xbd140130	-0.036133945
27	0xbc5ad979	-0.013357514
28	0x3c0a2319	0.0084312195
29	0x3a49dcb3	0.0007700428
30	0xbadf0e1b	-0.0017017754
31	0xbca1d8f0	-0.019756764
32	0x3c52bbde	0.012862174
33	0x3cc52809	0.024066942
34	0xbcbc0d8a	-0.022955675
35	0xbcb45111	-0.022011312
36	0xbc41a834	-0.011819888
37	0xbcb9aef1	-0.022666426
38	0xbcb4a3da	-0.022050787
39	0xbc99850c	-0.0187402
40	0xbcda33c8	-0.02663602
41	0xbc98e537	-0.018663986
42	0xbbf0c891	-0.007348128
43	0x3c4e5e31	0.012595699
44	0x3c2df377	0.010617129
45	0xbb9364ec	-0.004498115
46	0xbbcc3edb	-0.006233079
47	0x3be3ebe9	0.006955613
48	0xbcd0a94e	-0.025471356
49	0xbcff16b9	-0.031138765
50	0xbcab3a9c	-0.02090197
51	0xbc203967	-0.009779311
52	0x3b354212	0.002765779
53	0xbc019019	-0.007907891
54	0xbc9cbcff	-0.01913309
55	0xbbb3df76	-0.005489285
56	0x3b04b9c2	0.0020252322
57	0xbd0d2747	-0.034461286
58	0xbc13c085	-0.009018068
59	0x3cbb626b	0.022874078
60	0x3c89f989	0.01684262
61	0xbca1e6a4	-0.019763298
62	0x3c1ba15e	0.009498922
63	0xbcfbddc1	-0.030745389
64	0x3b9db8d5	0.0048132935
65	0xbd0ddd75	-0.034635026
66	0xbc3b2ea7	-0.011424697
67	0xb7a9dd4a	-2.0249416e-05
68	0xbc98cd6f	-0.018652646
69	0xbbf6e345	-0.007534417
70	0xbd273677	-0.040823426
71	0xbd3c5edb	-0.0459889
72	0x3c517386	0.012783891
73	0xbb95acfb	-0.00456774
74	0xbc27399f	-0.010206609
75	0xbca680b0	-0.020325035
76	0xbc0779f8	-0.008268826
77	0xbbb4257d	-0.005497633
78	0xbb241527	-0.0025037022
79	0xbd4b7e87	-0.049681213
80	0xbd14cd7a	-0.03632877
81	0x3c30d506	0.010792976
82	0x3bb03c28	0.005378265
83	0xbcbedc23	-0.023298329
84	0x3ae66bdb	0.0017579751
85	0xbd460986	-0.048348926
86	0xba92a030	-0.0011186656
87	0xbcd95061	-0.026527585
88	0x3c84b721	0.016200604
89	0xbc9f26ad	-0.019427622
90	0xbd2e98e4	-0.042626277
91	0xbcafd3c3	-0.02146328
92	0xbcb6e893	-0.022327697
93	0xbc5ec7c9	-0.013597437
94	0xbcc1a1db	-0.023636749
95	0xbcbccf8e	-0.023048189
96	0xbc85f89a	-0.016353894
97	0x3ce76c4d	0.028249884
98	0xbc610278	-0.013733499
99	0x3c117aa1	0.008879335
100	0xbcf21937	-0.029553039
101	0x3d30f21d	0.043199647
102	0xbbbefa94	-0.005828211
103	0x3bf29b59	0.007403773
104	0x3ac9b546	0.0015389107
105	0xbd2d6b0a	-0.04233841
106	0x3d143dc0	0.036191702
107	0xbc1464d9	-0.009057247
108	0xbce5f403	-0.028070455
109	0xbd217fb6	-0.039428435
110	0x3aaadc5a	0.0013035641
111	0x3a3712b7	0.0006983685
112	0xbc370405	-0.011170392
113	0xbd9c5685	-0.0763369
114	0x3be492b6	0.006975497
115	0xbb446a90	-0.0029970743
116	0xbcd743c4	-0.02627743
117	0xbc0665b0	-0.008202955
118	0xbc0b49ad	-0.008501452
119	0xbd0f6ea5	-0.03501763
120	0xbc1484ee	-0.009064896
121	0x3c144b5d	0.009051171
122	0x3ccbf851	0.02489868
123	0xbc0757a1	-0.008260638
124	0x3c3fa93c	0.011698063
125	0xbb4e74b1	-0.003150266
126	0xbcd62409	-0.02614023
127	0x3d18fbad	0.03734939

network_body._body_endoder.seq_layers.2.weight f4 [128, 128]
0	0xbd9a016d	-0.07519803
1	0xbe126b0b	-0.14298646
2	0xbcfd5a4a	-0.030926842
3	0xbe4ba4de	-0.1988711
4	0x3d454228	0.048158795
5	0xbe0d6c76	-0.13810906
6	0x3d503dbf	0.050840136
7	0xbc95be98	-0.018279359
8	0x3d73e874	0.059547856
9	0xbcce41d6	-0.025177877
10	0x3c2e3000	0.010631561
11	0xbe370c76	-0.17875847
12	0xbd94e9e8	-0.072711766
13	0xbd9e61e6	-0.077335164
14	0xbd75483a	-0.059883334
15	0xbcda8438	-0.026674375
16	0x3b3726dc	0.0027946746
17	0xbced941f	-0.029001294
18	0xbd96a701	-0.07356072
19	0x3c9fc7f7	0.01950453
20	0x3e002462	0.12513879
21	0x3ce3b4ca	0.027796168
22	0xbb8ff22b	-0.0043928823
23	0xbdc6edf1	-0.097133525
24	0x3e26c06c	0.1628434
25	0x3e144dbd	0.1448278
26	0xbdb29563	-0.087198995
27	0x3cb4d60b	0.02207472
28	0xbca9e9e4	-0.02074141
29	0x3e1e371c	0.1545071
30	0x3e51dc62	0.20494226
31	0xbd70ad43	-0.058758985
32	0x3d7ce721	0.06174386
33	0xbcb6d832	-0.022319887
34	0x3d81e73f	0.06342935
35	0xbd81dfed	-0.063415386
36	0x3d965a38	0.073414266
37	0x3e276ad6	0.16349348
38	0xbda50043	-0.080566905
39	0x3e1f012f	0.15527795
40	0xbdff9ec9	-0.12481458
41	0xbdb71888	-0.08940226
42	0xbd0179ae	-0.031610183
43	0x3ca84ae8	0.02054353
44	0xbcabd6a2	-0.020976368
45	0xbe5d639f	-0.21620034
46	0xbde04e2f	-0.10952412
47	0xbc8ab290	-0.016930848
48	0xbd9a0dec	-0.07522187
49	0xbd16f7b8	-0.036857337
50	0x3a7b62e8	0.00095896283
51	0x3ce92fcc	0.028465174
52	0x3dfc60b9	0.12323136
53	0x3d1b338e	0.037890963
54	0xbdbbcafd	-0.09169576
55	0xbdd55244	-0.104160815
56	0x3dbc6e73	0.09200754
57	0x3da4a5b0	0.08039415
58	0xbd6e244d	-0.058140088
59	0x3e1dd31d	0.15412565
60	0xbdc4b0d7	-0.09604042
61	0xbd65776a	-0.056022085
62	0xbdd58636	-0.10425989
63	0x3d400141	0.046876196
64	0x3dd4b66d	0.103863575
65	0xbd9f6ef6	-0.07784836
66	0x3d479531	0.048726264
67	0x3d991875	0.07475368
68	0x3c4757cc	0.0121669285
69	0x3d88c2a0	0.06677747
70	0x3dbaa0ee	0.09112726
71	0xbd1d57f3	-0.038413953
72	0xbe1d97eb	-0.15389983
73	0xbc02dc4e	-0.007987095
74	0xbd808931	-0.06276167
75	0xbd3e62d6	-0.046480976
76	0xbd59737f	-0.05308866
77	0xbe1b0591	-0.15138842
78	0x3be219c3	0.0069000437
79	0x3dc40969	0.09572107
80	0x3d8d3698	0.068951786
81	0xbd919e7b	-0.07110306
82	0xbce6a7a2	-0.028156105
83	0x3cf2c470	0.029634684
84	0xbd6e95d2	-0.05824835
85	0x3dde0746	0.10841231
86	0x3db6e2b8	0.08929962
87	0x3cfe539d	0.03104573
88	0xbda75b79	-0.08171744
89	0x3ddddf29	0.1083358
90	0xbd535642	-0.051595934
91	0x3e0a4b02	0.13505176
92	0x3d3cb7c5	0.046073694
93	0x3d846358	0.06464261
94	0x3d41d356	0.047320686
95	0x3d2f10f6	0.042740785
96	0x3cfabf42	0.030608777
97	0xbdb462b4	-0.088078886
98	0x3da35a93	0.0797626
99	0x3d2cfc11	0.042232577
100	0xbc2f6073	-0.010704148
101	0x3e0b694f	0.13614391
102	0x3db08db0	0.08620775
103	0x3e12b4f1	0.14326836
104	0x3d999f39	0.075010724
105	0xbcc9db4d	-0.024640704
106	0x3dd87f34	0.10571137
107	0xbe2437d0	-0.16036916
108	0xbddbfe96	-0.10741918
109	0xbd7dd16e	-0.061967306
110	0xbd24c764	-0.040229216
111	0xbd2b48c3	-0.041817438
112	0xbd9a818f	-0.075442426
113	0x3d161910	0.036644995
114	0xbd316376	-0.043307744
115	0x3cbe8519	0.023256825
116	0x3de3b6a5	0.11118821
117	0x3cdf2dcf	0.027243523
118	0x3d71c343	0.059024107
119	0x3dc6041b	0.09668752
120	0x3d6dd984	0.058068767
121	0x3d859b45	0.06523756
122	0xbe4f9820	-0.20272875
123	0xbe0bb39c	-0.13642734
124	0xbc68433a	-0.014176184
125	0xbd75d9b0	-0.060022056
126	0x3d175b37	0.036952224
127	0xbd0bb216	-0.034105383
128	0x3dbd7229	0.0925029
129	0xbd39b430	-0.045337856
130	0x3e1309d0	0.14359212
131	0xbde909fe	-0.11378859
132	0x3b9d7df3	0.004806274
133	0x3ca95e10	0.020674735
134	0x3d98ff68	0.0747059
135	0x3df75ccd	0.12078247
136	0xbd51d811	-0.051231448
137	0x3cf4e93b	0.02989637
138	0x3d1271fe	0.035753243
139	0x3e360a2a	0.17777315
140	0x3e5c53ca	0.21516338
141	0xbd9301aa	-0.07178052
142	0xbcf4ec2a	-0.029897768
143	0xbd4a0632	-0.049322315
144	0xbe414ad7	-0.18876205
145	0x3d57e8af	0.05271214
146	0xbcbbf088	-0.022941843
147	0x3da22b78	0.07918447
148	0x3c89d874	0.016826846
149	0xbdb1dca4	-0.08684662
150	0xbdaa8f68	-0.08328134
151	0x3da499d5	0.08037154
152	0xbca62b61	-0.020284357
153	0xbd92c8b5	-0.07167188
154	0xbe0f8632	-0.14016035
155	0x3ce84b82	0.028356317
156	0x3cdad7ca	0.026714224
157	0x3def49e2	0.11684014
158	0x3d903b46	0.070425555
159	0xbc2716e6	-0.0101983305
160	0x3e0f5fe5	0.14001425
161	0x3e6af376	0.22944435
162	0x3e6b2cf4	0.22966367
163	0xbd592c63	-0.053020846
164	0x3ccd03ef	0.02502629
165	0x3d756107	0.059906986
166	0xbc5ba5c7	-0.013406224
167	0x3e4d9071	0.20074631
168	0x3cf8c1f8	0.030365929
169	0x3dc4742d	0.09592471
170	0xbc816eca	-0.015799899
171	0x3d137b17	0.03600606
172	0xbd0b8644	-0.034063593
173	0x3d7e93fa	0.06215284
174	0xbd82013f	-0.06347894
175	0x3dcec912	0.10096945
176	0xbdaa1c11	-0.083061345
177	0x3d06650f	0.03281122
178	0xbe06cdaf	-0.131644
179	0xbd118d5a	-0.035535194
180	0xbd8bbbfd	-0.06822965
181	0x3d8cd1d8	0.06875962
182	0x3e094e53	0.13408785
183	0xbd82147a	-0.06351562
184	0x3ca33f0d	0.019927526
185	0xbdba0a98	-0.09084052
186	0xbe1a57b3	-0.15072517
187	0xbd48e6b4	-0.04904814
188	0x3da66c9a	0.08126183
189	0x3d9c031e	0.07617782
190	0x3bc6fe33	0.0060727834
191	0x3e24609a	0.16052476
192	0x3bf8302f	0.0075741033
193	0x3d1336c6	0.035940908
194	0x3da5b1be	0.08090542
195	0xbde42c1d	-0.111412264
196	0x3c662fbf	0.0140494695
197	0xbdce4316	-0.100713894
198	0x3d25c006	0.04046633
199	0xbd611d99	-0.054959867
200	0x3cc123a3	0.023576563
201	0xbd872bfb	-0.066001855
202	0x3dcb73b4	0.09934178
203	0x3c0c7dd6	0.0085749235
204	0xbdd6f811	-0.10496534
205	0xbe0c0d4d	-0.13676949
206	0x3db4a16b	0.088198505
207	0x3b4a1c7d	0.0030839734
208	0x3e399b50	0.18125653
209	0x3e11fe4c	0.14257163
210	0xbcff7388	-0.03118302
211	0xbd8d3979	-0.06895728
212	0xbd6099b3	-0.05483408
213	0xbd29a840	-0.04142022
214	0x3da57c88	0.08080393
215	0xbd89db8d	-0.06731329
216	0xbd5012b0	-0.05079907
217	0x3c897f21	0.016784253
218	0x3c32c8e7	0.010912157
219	0xbe0293a4	-0.12751633
220	0x3ac12f88	0.0014738897
221	0xbcc018e1	-0.023449363
222	0xbdb65197	-0.08902281
223	0xbd94296f	-0.07234465
224	0x3df1794c	0.11790714
225	0xbb8dd4eb	-0.0043283603
226	0xbd82b2de	-0.063817725
227	0xbd467c94	-0.04845865
228	0x3dca916c	0.09891018
229	0xbd8f6fe4	-0.07003763
230	0xbe5ca371	-0.21546723
231	0xbe3b5091	-0.18292452
232	0x3b75e821	0.0037522393
233	0x3d4496f7	0.047995534
234	0x3ddadcaa	0.106866196
235	0xbc4cbfb2	-0.012496876
236	0xbdc07f4c	-0.0939928
237	0x3e40b9bb	0.1882085
238	0x3e3f0656	0.1865476
239	0x3cf8cf00	0.030372143
240	0xbddc3704	-0.10752681
241	0x3c55c59a	0.0130476
242	0x3e013b75	0.12620337
243	0xbdd80764	-0.10548285
244	0xbd7effb8	-0.06225559
245	0x3d17df1a	0.037078
246	0x3e00dad9	0.12583484
247	0xbc390ddf	-0.011294811
248	0xbe0ed9d1	-0.13950278
249	0xbd01c105	-0.03167822
250	0x3e177bb8	0.14793289
251	0x3d694811	0.056953494
252	0x3d96086b	0.07325824
253	0xbe1186ac	-0.1421153
254	0xbd681431	-0.05665988
255	0x3d59d542	0.053181894

network_body._body_endoder.seq_layers.2.bias f4 [128]
0	0xbca1a271	-0.019730778
1	0x3cb60f8b	0.022224208
2	0x3c924cac	0.017858826
3	0xbd4cb5e5	-0.049978156
4	0xbc8a7c0a	-0.01690485
5	0xbd1ff023	-0.03904737
6	0x3cedcdb7	0.029028757
7	0x3c2239a4	0.009901438
8	0xbd84a3ab	-0.0647653
9	0x3c0c17b3	0.008550572
10	0xbc6538dc	-0.013990607
11	0xbd08751d	-0.033314813
12	0x3c4848e0	0.012224406
13	0xbd08f458	-0.03343615
14	0x3c2f17b1	0.010686801
15	0xbd7fd15b	-0.062455516
16	0xbc02f088	-0.007991917
17	0xbd89d746	-0.06730513
18	0xbb061f6f	-0.0020465513
19	0x3c308547	0.010773963
20	0x3cdc964d	0.026927138
21	0xbbfb12b2	-0.0076621408
22	0xbca1e149	-0.019760745
23	0x3bdaa9e9	0.006673087
24	0xbc661b50	-0.014044598
25	0xbc93570b	-0.017985841
26	0xbc720ffa	-0.014774317
27	0xbd2fc46d	-0.042911936
28	0xbd47e2d4	-0.048800305
29	0xbc97ace5	-0.01851506
30	0x3c2c741f	0.010525732
31	0x3d1aa214	0.037752226
32	0xbd27d8d4	-0.040978268
33	0xbd2a24ec	-0.041539118
34	0xbb070732	-0.0020603654
35	0x3c4652f1	0.012104736
36	0xbbda5a40	-0.0066635907
37	0xbd9aae1c	-0.0755274
38	0xbcc0b20a	-0.023522396
39	0x3caa393f	0.02077925
40	0x3c7007db	0.01465031
41	0x3c9ded4a	0.019278187
42	0xbc928aed	-0.01788851
43	0x3b99bfac	0.0046920385
44	0x3acb3ad1	0.00155052
45	0xbc0f5772	-0.008748876
46	0xb99b3466	-0.00029602944
47	0x3bd1e70a	0.006405716
48	0xbc98e2f6	-0.01866291
49	0xbd349fba	-0.04409764
50	0xbbbdac22	-0.005788342
51	0xbd27479f	-0.040839788
52	0xbd0f59f2	-0.034997888
53	0xb99a1e31	-0.00029395663
54	0xbc829ee7	-0.015944911
55	0xbd0d85ef	-0.034551557
56	0xbb353b62	-0.0027653803
57	0x3bb0528f	0.0053809355
58	0x3d5e7906	0.054314636
59	0xbbd808bf	-0.0065928395
60	0xbc715235	-0.014729072
61	0xbd1eb29b	-0.03874455
62	0x3c44b233	0.012005377
63	0xbd5c6e60	-0.0538162
64	0x3c09dfd0	0.008415177
65	0xbd04dfd7	-0.032440033
66	0x3cda1bad	0.026624525
67	0x3bd8bd78	0.0066143833
68	0xbd1e7d1a	-0.038693525
69	0x3a4b2b00	0.0007750243
70	0x3c7dd276	0.015492072
71	0x3c206c11	0.00979139
72	0xbce9e1c5	-0.028550038
73	0xbb111b86	-0.002214165
74	0xbd1c4515	-0.03815182
75	0xbc03dd38	-0.008048348
76	0xbcec4aa3	-0.028844183
77	0x3bc8c6a0	0.0061271936
78	0x3c7f5b2a	0.0155857
79	0xbd028b46	-0.031871103
80	0xbc39d85a	-0.011343086
81	0xbd20dfdf	-0.039276
82	0x383d99d9	4.5204393e-05
83	0xbc65338e	-0.013989342
84	0x3a91db71	0.0011128021
85	0xbccee6f5	-0.025256613
86	0xbc6bfc77	-0.014403454
87	0xbd27a6a1	-0.040930394
88	0xbb803511	-0.003912576
89	0xbc896c7c	-0.016775362
90	0xbbf4c182	-0.007469357
91	0xbc9999f1	-0.018750163
92	0xbc010eec	-0.007877093
93	0xbc167875	-0.009183993
94	0xbcc57ee5	-0.02410836
95	0x3c714131	0.0147250155
96	0x3cccfb77	0.025022252
97	0xbd7a4390	-0.06109959
98	0xbc369f08	-0.011146314
99	0x3c7c1131	0.015384958
100	0xbc6c754f	-0.014432265
101	0xbb441091	-0.00299171
102	0xbccea075	-0.025222996
103	0xbc5b54f2	-0.013386952
104	0xbaaa1809	-0.0012977134
105	0xbc886d34	-0.016653635
106	0xbc3d913f	-0.011570274
107	0x3c130015	0.0089721875
108	0xbc9cd954	-0.019146599
109	0xbc337dd3	-0.010955292
110	0x39d86051	0.00041270492
111	0x3b248daf	0.0025108864
112	0xbd01c0e5	-0.0316781
113	0xbcd98f0c	-0.026557468
114	0xbd4dfce9	-0.050290022
115	0xbc140d71	-0.009036408
116	0x3cf1d0b4	0.029518463
117	0x3b2e7cf4	0.002662477
118	0xbc853a29	-0.016263084
119	0xbcf862f2	-0.030320618
120	0xbcc38b65	-0.02387018
121	0x3c98acec	0.018637143
122	0xbca87f27	-0.020568443
123	0xbbe4fc86	-0.006988111
124	0x3c1fda7e	0.009756682
125	0xbd048532	-0.032353587
126	0x3c9fe0ed	0.019516433
127	0xbc81e15b	-0.015854528

network_body._body_endoder.seq_layers.4.weight f4 [128, 128]
0	0x3d2ea717	0.042639818
1	0xbe30f116	-0.17279467
2	0xbcb56c09	-0.022146242
3	0xbe0d5df7	-0.13805376
4	0xbd38deb0	-0.045134246
5	0xbd80ecaa	-0.0629514
6	0xbe11e5e4	-0.14247853
7	0xbda8f529	-0.082498856
8	0xbddedce1	-0.10881973
9	0x3ccaf3d0	0.024774462
10	0xbdeff2b2	-0.11716212
11	0x3bf7a4e8	0.0075575
12	0xbd15546d	-0.036457468
13	0xbe2786f4	-0.16360074
14	0x3d365c70	0.04452175
15	0xbd960097	-0.07324331
16	0xbda7d059	-0.08194036
17	0xbe0470a2	-0.12933591
18	0xbcfe2906	-0.03102542
19	0xbe1e2584	-0.15443999
20	0x3d4e98dc	0.050438747
21	0x3cd72aad	0.026265467
22	0xbdb641fb	-0.088993035
23	0xbd3d1c7b	-0.04616974
24	0x3d74bc8f	0.059750136
25	0x3e011cf6	0.12608704
26	0x3deb418e	0.11487113
27	0xbbd37135	-0.0064527043
28	0x3e37079b	0.17873995
29	0xbd47388e	-0.04863792
30	0xbd1de93c	-0.038552508
31	0x3e2fa3e6	0.17152366
32	0x3d381f5e	0.04495179
33	0xbd60c04c	-0.05487089
34	0xbda9d8f2	-0.08293332
35	0xbc91defa	-0.017806519
36	0x3d6ad5f5	0.05733295
37	0xbd44c4a2	-0.048039086
38	0x3b329f4e	0.0027255598
39	0xbd54b60e	-0.051931433
40	0xbc03c39e	-0.008042244
41	0x3e6b43ee	0.22975132
42	0xbd5f0884	-0.05445148
43	0xbd9814ee	-0.07425867
44	0xbdb11234	-0.0864605
45	0x3e4b5a1d	0.19858594
46	0xbe2afe71	-0.16698624
47	0x3d936ecb	0.071988665
48	0xbe570a1f	-0.20999955
49	0xbb12cb04	-0.0022398839
50	0x3d5375e3	0.051626097
51	0x3cfdd366	0.030984592
52	0x3d556710	0.05210024
53	0x3d9b6d8b	0.07589253
54	0xbd0cb391	-0.034350935
55	0xbd860bb4	-0.06545201
56	0x3d20fafa	0.03930185
57	0x3b09c650	0.0021022744
58	0x3e062001	0.13098146
59	0xbd93af6c	-0.072111934
60	0xbdd02d6f	-0.10164916
61	0xbe04ced5	-0.12969525
62	0x3d6f66d0	0.05844766
63	0xbce6b9ed	-0.028164828
64	0x3dc5ad0c	0.09652147
65	0xbdc4cbce	-0.09609185
66	0x3e36082e	0.17776558
67	0xbd445902	-0.047936447
68	0x3dc96384	0.09833434
69	0xbda6f45d	-0.08152077
70	0x3d5d85d8	0.05408272
71	0xbe1f616f	-0.15564512
72	0x3d6e2db4	0.058149055
73	0xbcc7f947	-0.024410857
74	0xbd1e0619	-0.038580034
75	0xbdac9db0	-0.08428514
76	0xbd1b7357	-0.037951794
77	0xbd1b6eae	-0.03794735
78	0x3c27d37f	0.010243296
79	0x3dd3b386	0.10336976
80	0x3d95d4df	0.073159926
81	0xbe0a48a9	-0.1350428
82	0x3c8acd2c	0.016943537
83	0xbe235c20	-0.15953112
84	0xbe0e895c	-0.13919586
85	0xbe171cf5	-0.1475714
86	0xbd4087b0	-0.0470044
87	0x3d161fa3	0.036651265
88	0xbcdfe6b6	-0.027331691
89	0x3db0209c	0.0859997
90	0xbdfda15a	-0.12384291
91	0xbc969ee1	-0.018386306
92	0xbd45a322	-0.04825128
93	0xbd7aa677	-0.06119391
94	0xbd9f2884	-0.077713996
95	0x3cae896c	0.021305762
96	0xbcfa8b86	-0.030584108
97	0x3de492b6	0.111607954
98	0x3db60f72	0.08889665
99	0xbc05431f	-0.008133679
100	0x3cd0714b	0.025444647
101	0x3dbe34b0	0.09287393
102	0x3d49a760	0.049231887
103	0x3cb9a3e1	0.022661151
104	0x3d172ee0	0.036909938
105	0xbccfa0f5	-0.025345305
106	0xbd1d6717	-0.038428392
107	0xbe23787a	-0.15963927
108	0xbe3dcf33	-0.18536071
109	0xbd977e3f	-0.073971264
110	0xbd6202fb	-0.055178624
111	0xbd4ed8ef	-0.050499853
112	0x3c6b1e7c	0.01435053
113	0x3de2a0e8	0.11065847
114	0xbdaba65c	-0.0838134
115	0xbc3149ab	-0.0108207865
116	0x3cccdbc4	0.025007136
117	0x3e2628c3	0.16226487
118	0xbd7c6523	-0.06161989
119	0xbaf73c86	-0.0018862642
120	0xbdaec165	-0.08532981
121	0x3d3fa7cb	0.04679088
122	0x3d36a6fb	0.04459284
123	0x3df42b6e	0.11922346
124	0x3bd7a00f	0.00658036
125	0x3bc66153	0.0060540824
126	0x3cc2fece	0.023803141
127	0x3e3a4e36	0.18193898
128	0x3d2d314a	0.042283334
129	0xbd861959	-0.065478034
130	0xbd33d129	-0.043900643
131	0x3c7c1282	0.015385272
132	0xbca44ec7	-0.020057095
133	0x3c501dc2	0.012702407
134	0x3ce568be	0.028004047
135	0x3c43dffe	0.011955259
136	0xbd9aab05	-0.07552151
137	0xbd2faeb7	-0.04289123
138	0x3d85e56b	0.06537899
139	0x3dee2c21	0.11629511
140	0x3ba243d9	0.0049519357
141	0x3c141a82	0.009039523
142	0x3cbc083b	0.022953143
143	0xbbab8e0d	-0.0052354396
144	0xbda30fcb	-0.07961997
145	0xbdda4c78	-0.106591165
146	0xbd56831c	-0.05237113
147	0x3da76ff3	0.081756495
148	0x3d214208	0.039369613
149	0x3da6c870	0.08143699
150	0x3df67441	0.120338924
151	0xbdc4a028	-0.0960086
152	0xbd584d5c	-0.05280815
153	0x3dc4fab9	0.09618134
154	0xbd3a065c	-0.04541622
155	0x3d457a64	0.048212424
156	0xbdc7685b	-0.09736701
157	0x3dcdc1a1	0.100466974
158	0x3d9377de	0.07200597
159	0xbd578697	-0.05261859
160	0x3d44a50f	0.048008975
161	0x3ca5d38d	0.020242477
162	0xbdac113c	-0.08401725
163	0x3ad96e8c	0.0016588732
164	0xbd87503a	-0.06607099
165	0x3df812ec	0.12112984
166	0xbdbb31fe	-0.09140395
167	0x3d8bae8e	0.06820403
168	0xb8e7468f	-0.00011028081
169	0x3c959ee1	0.018264236
170	0xbe080398	-0.13282621
171	0x3dda3e23	0.10656383
172	0xbd9e6c2c	-0.07735476
173	0x3e0edea5	0.1395212
174	0xbcb57a61	-0.022153081
175	0xbc958952	-0.018253956
176	0xbd4a8a05	-0.049448032
177	0xbc036280	-0.00801909
178	0xbb8cab16	-0.004292856
179	0x3d38aafa	0.04508493
180	0xbc8103b8	-0.015748844
181	0x3d147ba7	0.036250737
182	0x3e22223b	0.1583337
183	0x3d600f6c	0.054702207
184	0x3d87e249	0.06634957
185	0x3a7ad078	0.00095678074
186	0x3b9a279c	0.004704429
187	0x3e00739f	0.12544106
188	0xbca00d63	-0.019537633
189	0xbdd59cfe	-0.104303345
190	0x3e402fb7	0.18768202
191	0x3db2e26d	0.087345935
192	0x3d4084c5	0.04700162
193	0xbb5bf494	-0.0033562528
194	0x3cf206fd	0.029544348
195	0xbdba06d0	-0.09083331
196	0x3b778619	0.0037769137
197	0xbda100e4	-0.07861498
198	0xbd1bdaee	-0.038050584
199	0xbd5b374c	-0.053519532
200	0x3d1728f0	0.036904275
201	0xbdd15a8a	-0.10222347
202	0x3e2c68c1	0.16836835
203	0x3d0a9cbe	0.033840887
204	0x3c80c10b	0.01571705
205	0x3ccb50e5	0.024818847
206	0xbc1f3fd4	-0.009719808
207	0x3d61b396	0.055102907
208	0x3dfd7281	0.123753555
209	0x3ccbbe4e	0.024871018
210	0xbd82c498	-0.063851535
211	0xbd68e2a8	-0.05685678
212	0x3e6b07dc	0.22952217
213	0x3ddd85b2	0.10816516
214	0x3d26366a	0.040579237
215	0xbce48ac8	-0.027898207
216	0x3db79632	0.08964194
217	0x3d96f7f9	0.07371516
218	0xbe016bbd	-0.12638755
219	0xbbf9182a	-0.0076017575
220	0xbce0639f	-0.027391253
221	0x3e3d3cb0	0.18480182
222	0x3cde6f4c	0.02715268
223	0xbe1c2d2b	-0.15251605
224	0xbd5ebf7f	-0.054381844
225	0x3d642a8a	0.05570463
226	0x3cd3e862	0.025867645
227	0xbe047fec	-0.12939423
228	0x3c84fcd6	0.016233843
229	0x3cb690b4	0.022285797
230	0x3d3611a6	0.044450425
231	0x3d1f2328	0.038851887
232	0xbd0e0708	-0.034674674
233	0x3d54ff89	0.05200151
234	0x3d340cd0	0.04395753
235	0x3cfbc6d6	0.03073446
236	0x3ab5e159	0.0013876363
237	0xbde77790	-0.113021016
238	0xbd7eb677	-0.06218573
239	0xbc265b10	-0.010153547
240	0x3e291f75	0.16515906
241	0x3d21f81e	0.039543264
242	0xbe6048d2	-0.21902779
243	0x3ac10d76	0.0014728743
244	0xbd1fdbb6	-0.039027892
245	0x3c022957	0.0079444265
246	0x3d37b0bc	0.04484628
247	0x3d21dab4	0.039515212
248	0xbd4ec908	-0.050484687
249	0x3e60d229	0.2195517
250	0xbc5bee66	-0.013423538
251	0x3c599200	0.013279438
252	0x3dd88630	0.10572469
253	0xbd6735ce	-0.056447797
254	0x3e30ccff	0.172657
255	0xbe296989	-0.16544165

network_body._body_endoder.seq_layers.4.bias f4 [128]
0	0x3d1c391a	0.038140394
1	0xbca5669a	-0.020190526
2	0xbd0e60b5	-0.034760196
3	0x3d12cc9b	0.03583966
4	0xbbbb25d4	-0.0057112966
5	0x3c936e58	0.017996952
6	0x3cb33176	0.02187417
7	0x39f8e12f	0.0004747002
8	0xbb897a84	-0.004195513
9	0xbb964907	-0.0045863423
10	0xbab3ac4b	-0.0013707964
11	0xbbf12806	-0.0073595075
12	0xbb899d75	-0.0041996785
13	0x3bf01b36	0.0073274625
14	0xbd1ebbdb	-0.03875337
15	0xbc1ab9aa	-0.00944368
16	0xbcf0d58e	-0.029398706
17	0xbb0c9b27	-0.0021454783
18	0xbd7ca185	-0.061677475
19	0x3cfdb618	0.030970618
20	0x3c70f261	0.014706225
21	0x3c915bac	0.017743908
22	0x3ba9ee34	0.0051858667
23	0x3c4966ff	0.012292623
24	0xbc111990	-0.008856192
25	0x3c1707a6	0.009218132
26	0x3a42515c	0.0007412636
27	0xbbcdffc3	-0.0062865927
28	0xbc67fcdc	-0.0141594075
29	0xbb4936c2	-0.0030702804
30	0x3d0a0875	0.03369947
31	0xbc93c9b2	-0.018040512
32	0x3a8307dc	0.0009996849
33	0x3d09426a	0.033510603
34	0xbc51426a	-0.012772182
35	0x3c39b79d	0.011335281
36	0xbd231c11	-0.039821688
37	0xbd173b22	-0.036921628
38	0x3c23dbeb	0.010001163
39	0x3c597785	0.013273125
40	0x3bbabd93	0.0056988685
41	0xbc5fffa4	-0.013671789
42	0x3c4f3a78	0.012648217
43	0xbcb6b1da	-0.022301603
44	0x3c44055d	0.011964169
45	0xbccbb3a2	-0.024865929
46	0xbcaff296	-0.021477979
47	0x3b2d4929	0.0026441312
48	0xbd053e2a	-0.032529987
49	0xbc3a88bf	-0.011385142
50	0x3cb4072e	0.02197608
51	0x3cc88822	0.024478976
52	0xbbeb1f5c	-0.007175369
53	0xbb49d002	-0.0030794148
54	0xb8fcea52	-0.00012059942
55	0xbd1b59b9	-0.037927363
56	0x3b6e389b	0.0036349657
57	0x3cbf3484	0.023340471
58	0x3a6ed090	0.0009110058
59	0xbce3b872	-0.027797911
60	0x3ca7d119	0.020485448
61	0xbadf19f2	-0.0017021282
62	0xbc28bbe7	-0.010298706
63	0xbcf39726	-0.02973516
64	0xbaa4a97c	-0.0012562717
65	0x3c1d9a81	0.009619356
66	0xbd52008a	-0.051270045
67	0xbc242af6	-0.010020008
68	0xbcd4bad6	-0.025967997
69	0xbca94c82	-0.020666365
70	0xbc63d072	-0.013904678
71	0xbc79d8f4	-0.01524948
72	0x3c1116e1	0.008855552
73	0xbc339db0	-0.010962889
74	0xbb47a78f	-0.0030464863
75	0xbcc373ff	-0.023859022
76	0xbc3a0b0a	-0.011355171
77	0xbc5e2eaa	-0.01356093
78	0xbbf08435	-0.007339979
79	0xbbe47b56	-0.0069727106
80	0xbb0143e0	-0.0019724295
81	0x3d08a91d	0.033364404
82	0xbbf8b03b	-0.0075893677
83	0xbbca47be	-0.006173103
84	0xbccbf937	-0.024899108
85	0x3cdb56cf	0.026774792
86	0xbd147a9e	-0.03624975
87	0xbd16b818	-0.03679666
88	0xbc8c425f	-0.017121492
89	0xbbd1bf55	-0.0064009824
90	0xbbde1497	-0.006777357
91	0x3d005d24	0.031338826
92	0x3caf1a56	0.021374863
93	0xbc8b06ca	-0.01697101
94	0xbd141232	-0.036150165
95	0xbc9970bb	-0.018730512
96	0xbb934647	-0.0044944617
97	0xba393d84	-0.00070663565
98	0x3ba54f31	0.0050448407
99	0xbc38592e	-0.011251731
100	0x3b9734af	0.0046144347
101	0x3b08cadc	0.0020872867
102	0xbc87b74a	-0.016566891
103	0x3d0518f7	0.03249451
104	0x3c9295eb	0.017893752
105	0x3cd66e6f	0.026175706
106	0xbcf487cb	-0.029849907
107	0x3bf4cdf5	0.007470841
108	0x3bc9458d	0.0061423243
109	0xbcdb1bb2	-0.026746605
110	0xbc9981e0	-0.018738687
111	0x3c5a6dfe	0.013331888
112	0x3bc1fa02	0.005919696
113	0x3bfe3a87	0.007758442
114	0xbca4d385	-0.020120392
115	0xbd7b6cbd	-0.061382998
116	0xbd31f159	-0.043443058
117	0x3c8868b3	0.016651487
118	0x3cf896c8	0.030345336
119	0x3c6198d7	0.01376935
120	0xbd02b37a	-0.031909443
121	0xbc88d61a	-0.016703654
122	0x3a829525	0.0009962661
123	0xbcd59ef9	-0.02607678
124	0x3ca3a05e	0.01997393
125	0xbb55aa77	-0.0032602826
126	0xbcb203cb	-0.021730324
127	0x3cb726bf	0.022357343

network_body._body_endoder.seq_layers.6.weight f4 [128, 128]
0	0xbdb94c83	-0.090477966
1	0x3ca0ea7a	0.019643057
2	0xbdc7f11a	-0.09762783
3	0xbd7dd36a	-0.0619692
4	0xbdd5f173	-0.104464434
5	0xbd7f4d92	-0.062329836
6	0xbc97aa6e	-0.018513884
7	0xbe1492e3	-0.14509158
8	0x3def844e	0.11695157
9	0xbd6cb806	-0.057792686
10	0x3e6d3134	0.23163301
11	0xbe6cfda3	-0.2314363
12	0x3e0c7042	0.13714698
13	0xbd49b6f6	-0.04924675
14	0xbdc99545	-0.09842924
15	0x3d0bf5bb	0.034169894
16	0x3b874865	0.004128503
17	0xbe36fea7	-0.1787058
18	0x3bf1d755	0.007380406
19	0x3d282ab0	0.041056335
20	0xbd1c215e	-0.03811776
21	0xbd1ac06f	-0.037781175
22	0x3ce87f4f	0.028381018
23	0x3e0c0980	0.13675499
24	0xbd5f391d	-0.054497827
25	0x3da572db	0.080785476
26	0x3b89884f	0.0041971575
27	0xbca50d3d	-0.020147914
28	0xbd96a4d8	-0.0735566
29	0x3df4e57b	0.119578324
30	0xbcdc8ada	-0.026921678
31	0x3daeb3cc	0.08530387
32	0xbcaa7d81	-0.020811798
33	0xbc9ef091	-0.01940182
34	0xbe6fb1cb	-0.23407666
35	0xbc39a4e5	-0.011330818
36	0xbc9aab2b	-0.018880447
37	0x3c12edcc	0.008967828
38	0xbdb683f1	-0.089118846
39	0xbe00f23a	-0.12592402
40	0x3e2c27eb	0.16812102
41	0x3d12be02	0.035825737
42	0x3c93683e	0.017994042
43	0x3d8a5eba	0.06756349
44	0x3d1ea8b9	0.038735125
45	0xbdd1dbf6	-0.10247032
46	0x3dd04aea	0.10170539
47	0x3cff2f35	0.03115044
48	0xbdf92ad1	-0.1216637
49	0x3d7cd827	0.061729576
50	0x3d87e928	0.06636268
51	0x3d82bbe1	0.06383491
52	0xbd8c2a1d	-0.0684397
53	0x3ceafa12	0.028683696
54	0x3db78062	0.08960034
55	0xbe12018d	-0.14258404
56	0xbe433274	-0.19062215
57	0x3dc00ccf	0.09377443
58	0xbe1c2e78	-0.15252101
59	0x3da0ca17	0.078510456
60	0x3d1aec90	0.03782326
61	0x3dcce9f5	0.10005561
62	0x3d0a613a	0.03378413
63	0x3e32b315	0.17451127
64	0xbd2adaee	-0.041712694
65	0xbd598bd6	-0.053111874
66	0xbd1188a1	-0.03553069
67	0xbdf14788	-0.11781222
68	0x3cab417d	0.02090525
69	0xbde46af2	-0.11153211
70	0x3cd99769	0.026561456
71	0x3be24946	0.0069057075
72	0x3c5cbe8f	0.013473167
73	0xbd68c356	-0.056826912
74	0xbd4ccf35	-0.050002296
75	0xbd4114ce	-0.04713898
76	0xbdad832b	-0.08472284
77	0x3e0bdc01	0.13658144
78	0xbd547803	-0.051872265
79	0x3acf26e7	0.001580444
80	0xbddbd92b	-0.10734781
81	0x3de5d153	0.11221566
82	0xbcbc0866	-0.022953223
83	0xbd1b81f7	-0.03796574
84	0xbc8cf6cd	-0.017207528
85	0xbc54611e	-0.012962608
86	0x3c5b2412	0.013375299
87	0xbdb996d7	-0.090619735
88	0x3df5adfb	0.11996075
89	0xbe2be295	-0.16785653
90	0x3e78fc3e	0.24314973
91	0xbc91ec38	-0.017812833
92	0x3e3a417b	0.18189041
93	0xbde1747b	-0.11008545
94	0x3d777403	0.06041337
95	0xbd018bf9	-0.03162763
96	0xbd538feb	-0.051650923
97	0x3e42643b	0.18983547
98	0xbdbceafa	-0.09224506
99	0x3e04c07d	0.12964053
100	0x3da2e5bf	0.07953977
101	0xbe46e317	-0.19422565
102	0x3d86793e	0.06566094
103	0x3ced8892	0.028995786
104	0x3c109dd6	0.0088266935
105	0x3d97f8ca	0.074204996
106	0x3d046be1	0.032329444
107	0xbe095220	-0.13410234
108	0x3ac5c18d	0.001508759
109	0x3d590b3d	0.052989233
110	0xbcc42547	-0.023943556
111	0xbd5507e7	-0.05200949
112	0x3d86f4ac	0.06589636
113	0xbc5a05e1	-0.013307066
114	0xbca07cf8	-0.01959084
115	0x3d890d4b	0.066919886
116	0x3e11878f	0.14211868
117	0xbbb93135	-0.005651618
118	0xbdae0b25	-0.084982194
119	0xbc6af1dc	-0.01433989
120	0xbd6ad4d6	-0.057331882
121	0x3c509a3b	0.012732084
122	0xbcfc8b98	-0.030828282
123	0xbe2497c0	-0.16073513
124	0xbc551fd3	-0.013008076
125	0x3d350b41	0.044200186
126	0x3d7653c9	0.060138498
127	0x3dc47cc9	0.095941134
128	0x3d01ebc9	0.031719003
129	0xbcc9a1ed	-0.024613345
130	0x3c809dfe	0.015700337
131	0xbe11dbb0	-0.1424396
132	0xbdc5bb34	-0.09654847
133	0xbd7b9553	-0.061421704
134	0xbda9b41c	-0.08286306
135	0x3d8c6fb6	0.06857245
136	0xbd2cc20d	-0.04217725
137	0xbdf411b5	-0.1191744
138	0x3e373bd3	0.17893915
139	0xbdae8e59	-0.085232444
140	0x3e267260	0.16254568
141	0x3da3497b	0.07973
142	0xbd59963a	-0.053121783
143	0xbe14d39d	-0.14533849
144	0x3c851764	0.016246505
145	0x3d1a43cf	0.037662324
146	0x3d956adc	0.072957724
147	0x3d8f93e3	0.07010629
148	0x3c9b2ce5	0.018942306
149	0xbd553f1a	-0.05206213
150	0x3dd8ce0d	0.10586176
151	0x3e039bb8	0.1285237
152	0x3d69dae9	0.057093535
153	0x3bb5437f	0.005531728
154	0xbd923dd8	-0.07140702
155	0xbdc71619	-0.09721012
156	0x3da5a816	0.080887005
157	0xbd170be1	-0.036876563
158	0xbdce1765	-0.10063056
159	0xbad4a9e5	-0.0016224949
160	0x3d382696	0.044958673
161	0x3dfa1e55	0.122128166
162	0x3c5dbf53	0.013534385
163	0xbdf62d8c	-0.12020406
164	0xbe85eca6	-0.2615711
165	0xbc9d4ec3	-0.019202596
166	0xbd4c4c45	-0.049877424
167	0x3ca85259	0.020547079
168	0xba9c57a0	-0.001192797
169	0x3dd00d72	0.101588145
170	0x3d20171c	0.03908454
171	0xba8dabff	-0.0010808705
172	0x3dd58373	0.104254626
173	0xbd531c9b	-0.051540952
174	0xbba6147a	-0.005068359
175	0x3c8265a7	0.015917612
176	0x3d76d890	0.060265124
177	0xbe165823	-0.14682059
178	0xbc078cbc	-0.0082733
179	0x3cead1a1	0.028664412
180	0xbbe4d50c	-0.006983405
181	0xbcd76046	-0.026291024
182	0x3e27077a	0.16311446
183	0xbe1330f4	-0.14374143
184	0xbd1c4fae	-0.038161926
185	0xbd73606b	-0.059418123
186	0x3d4239a0	0.047418237
187	0x3cd03c6c	0.025419436
188	0xbe8a02f9	-0.26955393
189	0xbdd49e1d	-0.1038172
190	0x3d3bc9b0	0.04584664
191	0x3db063e3	0.08612802
192	0x3d8feae1	0.070272215
193	0xbd04a067	-0.032379534
194	0x3bac8559	0.0052649197
195	0x3cd4d35e	0.025979694
196	0x3e8ad787	0.2711756
197	0x3dae1566	0.08500175
198	0xbd35b305	-0.04436018
199	0xbd2b677e	-0.041846745
200	0xbd8dd667	-0.069256596
201	0x3dbde0ea	0.092714146
202	0xbceee86d	-0.029163564
203	0xbd5d4687	-0.05402234
204	0x3c8a58b0	0.016887993
205	0xbe08beca	-0.1335403
206	0xbc315724	-0.010823999
207	0xbe3a4c8b	-0.18193261
208	0xbdd5468a	-0.10413845
209	0xbe0e255f	-0.13881443
210	0x3cc749eb	0.024327239
211	0x3d224c22	0.039623387
212	0xbb87425f	-0.004127785
213	0x3c2a766e	0.010404212
214	0xbdd759e7	-0.105151944
215	0x3caab1bb	0.020836702
216	0xbdd78047	-0.10522514
217	0xbd75edd0	-0.06004125
218	0xbdd5fd93	-0.10448756
219	0x3bc6e93a	0.0060702832
220	0xbd350210	-0.04419142
221	0xbe4af817	-0.19821201
222	0x3d8ca22d	0.0686687
223	0x3d931f61	0.071837194
224	0xbda48e22	-0.08034922
225	0xbdc07f7e	-0.09399317
226	0xbe6cf5f9	-0.23140706
227	0x3d9bb963	0.07603719
228	0xbd43a11a	-0.04776106
229	0xbdd5660d	-0.10419855
230	0xbd32fdeb	-0.043699186
231	0x3c7108ea	0.014711598
232	0x3e580b2d	0.21098013
233	0x3e26cb15	0.16288407
234	0x3c903a59	0.017605947
235	0x3d786747	0.060645368
236	0x3e6763bf	0.22596644
237	0x3d2d91c9	0.04237536
238	0x3c103490	0.008801594
239	0xbcb38066	-0.021911811
240	0x3e07c7b3	0.13259773
241	0x3ca4d39d	0.020120436
242	0x3dcc4bc0	0.09975386
243	0xbce2474b	-0.027621886
244	0xbe3dbdfc	-0.18529505
245	0xbda5d6bc	-0.08097598
246	0x3cd33937	0.025784118
247	0xbd32669c	-0.043554887
248	0xbd5d3656	-0.054006897
249	0x3d9c23ca	0.07624014
250	0x3e04191d	0.12900205
251	0xbd878470	-0.06617057
252	0xbcb5ecad	-0.022207582
253	0x3e092bed	0.13395663
254	0xbdd4e111	-0.103944905
255	0x3d73f420	0.059558988

network_body._body_endoder.seq_layers.6.bias f4 [128]
0	0xbc45d276	-0.012074104
1	0xbbbd10aa	-0.005769809
2	0x3a851d36	0.00101558
3	0x3c081ddf	0.008307903
4	0xbc1a04a0	-0.009400517
5	0xbc568f7b	-0.013095732
6	0xbc18670a	-0.00930191
7	0xbc40fd2b	-0.01177911
8	0x3c56f03e	0.013118802
9	0x3b792b40	0.0038020164
10	0xbbdc3be7	-0.006721008
11	0x3b84f3d7	0.0040573883
12	0x3cc046f8	0.02347134
13	0x3bed7fa7	0.0072478834
14	0x3c586302	0.013207199
15	0xbc6ce88b	-0.014459739
16	0xbd2715c7	-0.040792253
17	0xbc3ffdf2	-0.01171826
18	0x3c698ab0	0.014254257
19	0x3b85ddc3	0.004085274
20	0xbcfb1b52	-0.030652676
21	0x3c3957c4	0.011312429
22	0xbd05544b	-0.03255109
23	0xbc514bda	-0.012774432
24	0xbc0c6f90	-0.00857152
25	0xbc57cfef	-0.013172134
26	0xbcf9cdc4	-0.030493625
27	0x3ba4967e	0.005022823
28	0xbbfb8367	-0.0076755765
29	0x3cfed292	0.031106267
30	0xbc02f673	-0.007993328
31	0xbad55cfc	-0.0016278322
32	0x3bf4825a	0.007461828
33	0xbb350194	-0.002761935
34	0x3ba3bcf7	0.0049968916
35	0x3c75b0e7	0.01499579
36	0xbb363858	-0.002780458
37	0xbc17b8e5	-0.009260391
38	0x3cac742b	0.021051487
39	0xbc75efaa	-0.015010754
40	0x3c48f910	0.012266412
41	0xbc80f9eb	-0.01574417
42	0xbc3651ab	-0.01112787
43	0xbc108dd3	-0.008822876
44	0xbc92e558	-0.017931625
45	0xbbb41ceb	-0.0054966114
46	0x3bfd8ab0	0.00773748
47	0x3c731ed0	0.014838889
48	0x3bb2174a	0.005434905
49	0x3ba6fe44	0.005096229
50	0x3c12708c	0.008937966
51	0x3c827ca6	0.015928578
52	0x3bec8de8	0.007219065
53	0xba1b5767	-0.0005925805
54	0xbbb180ac	-0.00541695
55	0xbbd86be4	-0.0066046584
56	0xbc4a5f6a	-0.01235185
57	0xbaaa49f9	-0.0012992016
58	0xbbe31c1e	-0.006930842
59	0xbccd0bd6	-0.025030058
60	0x3c00bf3f	0.007858097
61	0x3cc1e067	0.023666574
62	0xbbe8f692	-0.0071094716
63	0xbc08e824	-0.008356128
64	0x3b516142	0.003194884
65	0x3be3252b	0.006931921
66	0x3b159aaa	0.0022827783
67	0xbb94431e	-0.0045246026
68	0xbc7963b0	-0.015221521
69	0x3a4f686e	0.00079119846
70	0x3ce4c192	0.027924333
71	0x3b6fe535	0.0036605124
72	0xbbcbe0c3	-0.006221862
73	0xbbccfe77	-0.0062559205
74	0x3a693c39	0.00088972185
75	0xbb9aaefe	-0.0047205677
76	0x3b8428ee	0.0040331995
77	0xbbb5982c	-0.005541822
78	0x3c11b4b2	0.008893179
79	0xbaf4a073	-0.001866354
80	0xbbaa16e4	-0.005190717
81	0x3a44a937	0.00075020216
82	0x3c5df43f	0.013547002
83	0x3cce49f6	0.025181752
84	0x3b7ed33b	0.0038883227
85	0xbc4e1f98	-0.012580775
86	0x3c2f451a	0.010697627
87	0xbc17ba1d	-0.009260681
88	0x3bfe2a02	0.0077564726
89	0xbc2b06da	-0.010438645
90	0xbbc3ef94	-0.0059794877
91	0x3c06bb10	0.00822331
92	0x3a77635b	0.00094371074
93	0x3b282909	0.0025659224
94	0xbc00d48e	-0.007863177
95	0x3bd17b22	0.0063928524
96	0x3c7e00e4	0.015503142
97	0xbb818120	-0.0039521605
98	0x3a32166a	0.0006793501
99	0xbc35129c	-0.0110518
100	0x3932a7c2	0.00017037897
101	0x3bd5298c	0.006505197
102	0x3bccb33b	0.006246952
103	0x3ae3a9c9	0.0017369326
104	0x3ba03fc1	0.0048904126
105	0xbd0af8ac	-0.03392856
106	0xbc8ad982	-0.016949419
107	0x3c834d7e	0.016028162
108	0xbb1ee291	-0.002424393
109	0xbcacccc4	-0.021093734
110	0xbd11845b	-0.035526615
111	0xbaa343a0	-0.0012456067
112	0xbb2634f9	-0.0025361164
113	0xba306d7a	-0.00067301805
114	0x3cbf8edc	0.02338355
115	0x3a65d8fd	0.00087679905
116	0x3c984753	0.018588698
117	0x3b85c58b	0.004082387
118	0xbc99099b	-0.018681338
119	0x3bb7ba2d	0.0056069107
120	0xbc05a09f	-0.008155971
121	0xbc845e4a	-0.016158242
122	0x3bdd4fe2	0.0067539075
123	0xbb8a0651	-0.0042121788
124	0x3c9de100	0.019272327
125	0xbc5455f1	-0.012959943
126	0xbcf26435	-0.029588798
127	0xbc0ce0d7	-0.008598528

network_body._body_endoder.seq_layers.8.weight f4 [128, 128]
0	0xbcd720c6	-0.026260745
1	0xbc3cc9fd	-0.011522767
2	0x3d78b620	0.060720563
3	0x3d051ff4	0.032501176
4	0x3dd6b707	0.104841284
5	0xbccbde42	-0.024886254
6	0x3d36005b	0.044433933
7	0xbd2b9a5a	-0.041895248
8	0x3c02f166	0.007992124
9	0x3d919e77	0.07110303
10	0xbdd041ea	-0.10168822
11	0x3e573265	0.21015318
12	0xbc5c5ac9	-0.013449379
13	0x3db23371	0.08701218
14	0x3ca878f7	0.020565493
15	0x3db4f013	0.08834853
16	0xbd9fc9e9	-0.07802183
17	0x3ddc529f	0.10757946
18	0x3e3bd360	0.18342352
19	0x3b8ea1ac	0.004352769
20	0xbd2329b3	-0.03983469
21	0xbe4b279b	-0.19839327
22	0xbe220c37	-0.15824972
23	0x3db67ebc	0.089108914
24	0x3c978f17	0.018500848
25	0xbd0184ed	-0.03162091
26	0x3cb62d84	0.0222385
27	0x3d622311	0.055209223
28	0x3c0bd1e0	0.008533925
29	0x3c875b30	0.016522974
30	0xbdfed320	-0.12442613
31	0xbd4921f5	-0.04910465
32	0x3cb807b2	0.022464607
33	0xbcd372f7	-0.025811655
34	0x3d900313	0.07031836
35	0xbbcc1228	-0.0062277503
36	0xbdcf2667	-0.101147465
37	0xbe4a5d92	-0.19762257
38	0xbdc14193	-0.094363354
39	0x3ab2ecea	0.0013650928
40	0xbd177e47	-0.03698566
41	0xbc963bff	-0.018339155
42	0xbe42c015	-0.19018586
43	0xbdc3dcbd	-0.09563587
44	0xbe45177c	-0.1924724
45	0x3d3aaeff	0.045577046
46	0xbdb870ac	-0.090058655
47	0xbd08d9f9	-0.033411
48	0xbdc547d6	-0.09632842
49	0x3e442d9d	0.19158025
50	0x3e35fbcc	0.17771834
51	0x3e1c2ead	0.1525218
52	0x3d523d67	0.05132809
53	0xbc7b397b	-0.015333529
54	0xbdf37f97	-0.1188957
55	0xbd490d51	-0.049084965
56	0xbe19b54e	-0.15010568
57	0x3c16fee6	0.009216046
58	0x3d4ffc6c	0.050777838
59	0x3d942310	0.0723325
60	0xbde5db73	-0.11223497
61	0xbd6c076d	-0.05762427
62	0x3c798ab4	0.015230823
63	0x3b16e24b	0.0023023065
64	0xbc8fb75c	-0.017543487
65	0x3d843c7c	0.06456849
66	0x3d960498	0.07325095
67	0x3da2aa16	0.079425976
68	0xbdd5d279	-0.10440535
69	0xbd9adf70	-0.075621486
70	0xbd668860	-0.0562824
71	0xbb367ce7	-0.0027845444
72	0x3e3cc921	0.184361
73	0xbd873215	-0.06601349
74	0x3d8410fc	0.06448552
75	0x3d09e8e1	0.033669356
76	0x3c215c20	0.0098486245
77	0x3d311e99	0.04324207
78	0xbdeab7d7	-0.11460846
79	0xbd70733f	-0.058703657
80	0xbd7fd300	-0.062457085
81	0xbe26332d	-0.1623046
82	0xbd267cfd	-0.040646542
83	0x3d1e90c4	0.038712278
84	0x3e21e0a6	0.15808353
85	0x3d291a24	0.041284695
86	0xbcfa225a	-0.030533958
87	0xbdd88626	-0.10572462
88	0xbdc34381	-0.0953436
89	0x3d9a9734	0.07548371
90	0x3e83e8a1	0.2576342
91	0xbdccb19c	-0.09994814
92	0x3cc5f0ed	0.024162734
93	0xbcb6a6de	-0.022296365
94	0xbd573d78	-0.052548856
95	0xbd585b32	-0.052821346
96	0x3d1420d6	0.036164127
97	0x3dd14b34	0.10219422
98	0x3d54e3d0	0.05197507
99	0xbcf9774d	-0.030452395
100	0x3e08cb37	0.1335877
101	0xbd4fa4a5	-0.050694127
102	0x3d214d99	0.039380644
103	0x3e20db6e	0.15708706
104	0xb991cc37	-0.00027808707
105	0x3c0a6ffc	0.008449551
106	0x3d31b9ca	0.043390073
107	0xbe189c73	-0.1490343
108	0x3e36076c	0.17776269
109	0xbd0c5353	-0.03425915
110	0x3c4a2dd1	0.012340025
111	0xbdab1ce0	-0.08355117
112	0xbe029581	-0.12752344
113	0x3d44a51a	0.048009016
114	0x3cea1941	0.028576495
115	0x373c0e4d	1.1209003e-05
116	0x3e01f6ff	0.12691878
117	0xbd4f5670	-0.050619543
118	0x3dd4f440	0.103981495
119	0xbdaa1713	-0.08305182
120	0xbe29d0ad	-0.1658351
121	0xbe67c693	-0.22634344
122	0xbd85f4c2	-0.065408245
123	0x3cca513f	0.024696944
124	0x3d695fac	0.056976005
125	0xbd13ba42	-0.0360663
126	0xbc694a3b	-0.014238889
127	0xbe0ccfb6	-0.1375111
128	0x3cf040fc	0.029327862
129	0xbd1f9f6b	-0.038970392
130	0x3d8aea5b	0.06782981
131	0xbe1266f6	-0.14297089
132	0xbda0a73d	-0.07844398
133	0x3e3218d1	0.17392279
134	0x3d901ed8	0.07037133
135	0xbcebb229	-0.028771477
136	0xbd430037	-0.047607627
137	0xbd22312c	-0.039597675
138	0xbe00371c	-0.12521023
139	0xbd7374f6	-0.059437715
140	0x3d9db0d2	0.076997414
141	0x3de530c0	0.11190939
142	0xbd94c519	-0.07264156
143	0x3cbffef6	0.023437005
144	0xbd25a92c	-0.040444538
145	0xbd61dfc8	-0.055145055
146	0xbdcabfbd	-0.098998524
147	0xbe0f0675	-0.13967307
148	0xbb1a5a2f	-0.0023552289
149	0xbe0aeed1	-0.13567664
150	0xbd854788	-0.06507784
151	0x3d816fc0	0.06320143
152	0xbd47301e	-0.048629873
153	0xbd17eae9	-0.037089262
154	0xbd2b328d	-0.041796256
155	0xbcac584c	-0.021038197
156	0x3e22eb50	0.15910077
157	0x3de452e1	0.111486204
158	0xbb8bc3dc	-0.0042652916
159	0xbde1d531	-0.11026991
160	0x3dc5247d	0.096261
161	0x3dc7bae5	0.09752444
162	0x3d4e124d	0.05031042
163	0x3d82a62c	0.06379351
164	0x3c2bc143	0.010483089
165	0x3d70b663	0.058767688
166	0x3e18ab5b	0.14909117
167	0x3e05ab3a	0.13053599
168	0x3db3e38d	0.08783636
169	0x3e24a7af	0.16079591
170	0x3b882733	0.0041550635
171	0xbdd608a4	-0.10450867
172	0x3d985001	0.074371345
173	0xbdf57455	-0.11985079
174	0xbdd64cfa	-0.10463901
175	0x3d4a2e72	0.0493607
176	0x3d3dbd0d	0.04632287
177	0xbc0311c5	-0.007999842
178	0x3d63fc8d	0.055660773
179	0xbd14d0fd	-0.03633212
180	0xbd7f6942	-0.06235624
181	0xbae78574	-0.0017663673
182	0xbd003cd1	-0.031308
183	0x3b3512a0	0.002762951
184	0x3d5cc611	0.05389983
185	0x3e26919e	0.16266486
186	0xbbc8e082	-0.006130279
187	0x3a0be22f	0.0005336133
188	0x3e00c0b4	0.1257351
189	0x3ddaac49	0.10677392
190	0x3cca325e	0.02468222
191	0xbd3196d5	-0.043356735
192	0x3e041958	0.12900293
193	0x3d7acb84	0.061229244
194	0x3e11f248	0.14252579
195	0xbdabdfa2	-0.08392264
196	0x3c21bd64	0.009871814
197	0xbe4ec76d	-0.20193262
198	0xbc943a4a	-0.0180942
199	0x3e2549a2	0.1614137
200	0x3c95c42d	0.01828202
201	0xbc97c98b	-0.01852872
202	0x3d390d5c	0.045178756
203	0x3db50942	0.088396564
204	0x3e837428	0.25674558
205	0xbdcf2a7d	-0.10115526
206	0xbcb86b4d	-0.022512102
207	0xbd8a322f	-0.06747853
208	0xbb020761	-0.0019840824
209	0x3db65c7c	0.08904359
210	0x3e55ac1a	0.20866433
211	0x3d13f0b6	0.03611823
212	0x3d282263	0.04104842
213	0x3d24b17c	0.040208325
214	0x3df16fdd	0.11788914
215	0x3e216b3a	0.1576356
216	0xbddf44c0	-0.10901785
217	0xbdf75b46	-0.12077956
218	0xbd7f6c93	-0.062359404
219	0xbe21d41b	-0.15803568
220	0xbcdbab23	-0.026815003
221	0x3d8f6c09	0.07003028
222	0xbd9ddbd3	-0.07707944
223	0xbd433dbf	-0.047666308
224	0xbd80f9ff	-0.06297683
225	0xbd40b90a	-0.047051467
226	0xbd2e5d57	-0.042569485
227	0xbda3df1c	-0.08001539
228	0xbd83d26e	-0.06436621
229	0xbc8a4186	-0.016876947
230	0xbde93695	-0.11387364
231	0x3d76f55b	0.060292583
232	0xbcfb801a	-0.030700732
233	0xbdcc0a04	-0.09962848
234	0xbdc2d28b	-0.09512814
235	0xbe31b9f6	-0.17356095
236	0xbddddfdd	-0.10833714
237	0x3bc42567	0.005985904
238	0xbbe6c2dd	-0.0070422725
239	0xbd50079f	-0.050788518
240	0xbdb47513	-0.08811393
241	0x3d62bd21	0.05535615
242	0x3e00d9cf	0.12583087
243	0xbcbc711a	-0.02300315
244	0x3e11f412	0.14253262
245	0xbd831ff6	-0.064025804
246	0xbd3d6fbc	-0.046249136
247	0x3b918225	0.0044405633
248	0x3e11748f	0.1420462
249	0x3ce0ca98	0.027440354
250	0x3d974e47	0.07387977
251	0x3d984dd6	0.07436721
252	0xbde0bf6e	-0.10974012
253	0xbdbb1244	-0.09134343
254	0x3da944f6	0.082651064
255	0x3d5b75f4	0.053579286
