Assets/mlagent/onnx/Basic-50018.onnx (onnx, 6795 bytes, 7 tensors)

network_body._body_endoder.seq_layers.0.weight f4 [20, 6]
00000000: 2775 503f 573d 523f d2e2 003d c8db 843e
00000010: 6bcc 813e 9951 86be bb52 2bbf e046 653f
00000020: 098f bdbe ee61 d03e 5abd c73d 11ff 553f
00000030: 4f73 f9be 9be6 0f3f f88e 1fbf 6c2d c83e
00000040: 43dc 23bf c853 c93e e1a7 843e 91a7 003f
00000050: af3b 0c3f 614c c2be ce1c dc3e 604a 82be
00000060: 51ca 1cbe 1b88 903e 6154 123d 837a 203f
00000070: d6b4 223e 7e2f d13e 25f2 8f3e 47c3 053f
00000080: 39f7 27bf de78 d23e ae2e 733e 7ab3 0c3f
00000090: aa90 a8bf fcb7 683d 6e78 dcbe 626a 2d3e
000000a0: 8c09 22be 520c e43d 397b 90bf e86d 543e
000000b0: 390f a3be ae09 113f 2a83 693e 9b12 50be
000000c0: bb68 fcbe a299 063e 59ae 353e 41b4 d6be
000000d0: 41ac 733e f555 c2be 7ec8 173f bc36 f2be
000000e0: 3ffc 8bbe d87f 2bbf 87ef 0dbe e191 debd
000000f0: 2a23 debe 41b6 423e 5881 4d3f ad23 a1be
00000100: b085 b63d 80eb 5f3d 07de f13e c55e a13e
00000110: 9538 81bf a93f 753d 0f67 833e 428f 3d3f
00000120: 57a9 c6bd 7671 683e d6da 9dbe 34ae c1bd
00000130: a36e 01bf 6366 ea3e b36a 183f ae2c 833e
00000140: 73e8 acbe e753 38be 4528 463f e967 063f
00000150: 1b63 313f 24c5 f7bd 5d7a 8b3e 780b 2cbf
00000160: 17ab 193f 399f 623e 48b6 23bf 8892 dbb9
00000170: 4d9e ed3e 7601 ae3d 9d8b 453f ba9e 4d3d
00000180: 9c42 45bf 3d7f 8bbd afe9 00bf 45ab 44bf
00000190: 72d6 33bf 64ec 893f bfb5 173d df2f 30bf
000001a0: 48a3 bf3e 6967 103f 605e 133f 559b f2be
000001b0: 640d 13bf c51a 3fbe 7a1b 273f 7e29 563e
000001c0: a3d9 f7be 1c24 ff3e ded1 aabe b78b 363d
000001d0: a847 d43e a615 343f edd0 b0bb 3502 17be
0.8142876 0.8212485 0.031466313 0.2594893 0.2535127 -0.2623413 -0.6692311 0.8956127
-0.3702319 0.40699714 0.09752913 0.83592325 -0.48720786 0.5621125 -0.6232753 0.39097154
-0.6400797 0.39321733 0.2590933 0.50255686 0.5477857 -0.37948897 0.42990726 -0.2544737
-0.15311553 0.2822884 0.035725 0.6268694 0.15889296 0.40856546 0.2811443 0.52251095
-0.65611607 0.4110784 0.23748276 0.5496136 -1.3169148 0.056816086 -0.4306063 0.16935113
-0.15823954 0.111351624 -1.1287605 0.20745051 -0.3184755 0.56655395 0.22803941 -0.20319597
-0.49298653 0.13144544 0.1774229 -0.41934398 0.23796178 -0.37956205 0.592903 -0.47307384
-0.27340886 -0.6699195 -0.13860904 -0.10867668 -0.43386203 0.19014837 0.8027549 -0.3147253
0.089122176 0.05466795 0.47239706 0.31517616 -1.0095392 0.059875164 0.25664565 0.7404672
-0.09700268 0.22699532 -0.3083102 -0.09457055 -0.50559443 0.4578124 0.5953781 0.25620025
-0.33771095 -0.18000756 0.77405196 0.52502304 0.6929185 -0.120981485 0.27241793 -0.67205
0.6002669 0.22131051 -0.63950014 -0.0004188011 0.46409836 0.084963724 0.7716616 0.0502002
-0.7705476 -0.06811378 -0.5035657 -0.76823837 -0.7024909 1.0775266 0.03703856 -0.68823045
0.3742926 0.5640779 0.5756588 -0.47384134 -0.5744231 -0.18662556 0.652763 0.20914266
-0.4840823 0.49832237 -0.3336324 0.044566836 0.4146092 0.7034553 -0.0053959996 -0.14746936

network_body._body_endoder.seq_layers.0.bias f4 [20]
00000000: 4afa 143e e608 ee3d e370 363e 1e24 193e
00000010: 91dc d33d 9e93 823d 3e3a 7c3d e42f 1d3e
00000020: d708 423e 15fe 1c3e 6621 fa3d 53fd 193e
00000030: 17eb 56bb ca0a bb3d a019 5c3e f91a 503e
00000040: d9e1 213e ae76 ca3d d308 0c3d 5985 5c3e
0.14548603 0.11622791 0.178165 0.14955184 0.10344804 0.06375812 0.06157898 0.153503
0.18948685 0.153313 0.122134015 0.15038042 -0.0032793933 0.09132917 0.2149415 0.20322789
0.1580881 0.098859176 0.034188103 0.21535243

network_body._body_endoder.seq_layers.2.weight f4 [20, 20]
00000000: b0df ad3e 49cf 443d cdac 23bf 4da4 9c3d
00000010: 0498 aebe 34a5 b23d 8e0a 45be 5ad6 873d
00000020: 2cbf 0ebe ca08 01bf 5221 cc3d 5786 c9be
00000030: c339 02be e21b a2be 33f0 473e 9c7e b63e
00000040: abd4 d93c 8785 ba3d c093 823e 65ff 2a3e
00000050: 21af 29bd 7cf1 9e3e 218e 2cbe 95db ac3e
00000060: 9bc5 1fbf fddb be3e ad59 b7be 74cf fc3d
00000070: f9b4 2c3e 0d9e 3dbd 5208 953d f232 fc3e
00000080: bc75 c53d f84a e23e 7d4f b93e 9bc7 d7bd
00000090: c4c1 ab3e 1096 56bf 5178 cd3d 22cd 4cbf
000000a0: efec 8c3e 3b52 e4be b1e8 c9be f421 1b3f
000000b0: 0dc5 313e 5163 4dbe b8cb 80be 317b c03e
000000c0: 43db fa3e 3630 aabe da09 c83d f6d4 debe
000000d0: 4741 b4be 54c7 1bbb 6f58 983e 0e85 b83d
000000e0: 56c3 05bf e30a d43e 96f3 1cbd fa4f a73d
000000f0: 45ca c53e fa09 c0be 7dcb 44be f680 be3e
00000100: a818 d03d 23d6 a0be 791b b2bd b0d2 45bc
00000110: d5cd 593e 3ed0 6bbd 977c 8c3c cdd6 03bf
00000120: e15a ffbe ee80 e43d 939c 003f 9000 53bd
00000130: a931 63bd b44c dcba ca01 ffbd a7de c63d
00000140: de9b 23be b85a a13e 3903 d83e 3c02 6e3d
00000150: 6c32 443f 7a40 833e b77f a93e bdeb cc3e
00000160: 051e c5bd ec08 0ebf b116 a2bd 1068 ec3e
00000170: 9587 97bd c40c 903c f10d c5be f67e aa3e
00000180: ae3b 15be 1af0 c53e cd20 7ebe 2233 293f
00000190: c7dc 1b3e 951f 4f3f 36ae b23e 335d 01be
000001a0: 18c0 c43e 951a aa3e 391a 80bd 7761 2e3f
000001b0: 239a b43d 436f 10bf 0abe a43e 0b8b 33be
000001c0: a624 2cbe 596c a4bc bdd4 cdbe a359 343e
000001d0: e630 35be be8f 27bc ebcf cfbc 7273 fb3e
000001e0: e70e cabe 4265 1b3e f97d 98be 4ba3 c43d
000001f0: c6ed f6bd 669f 193e 7768 54be 0bb3 cabe
00000200: ab02 cbbd 2985 01be 1a89 a73e b446 6c3d
00000210: 32a5 8a3d 558a c03e 8677 f53e b5e2 443e
00000220: ec16 ff3d 9fd5 83be 5b18 32bb 85dd 54be
00000230: a0be 37bc 9215 7a3d 774c 61be 8129 c53e
00000240: 9966 a6be d7e8 8d3e 5204 76be 5dec a6be
00000250: 2330 e6be 710b 043e bbac a9be 739c 5c3d
00000260: da36 ad3d 4d1f cb3d 4fd6 7e3e 6f83 3bbe
00000270: 40fc 01bf 46c3 bbbe 5aa0 15be 3d27 f8be
00000280: 1f81 883c 4f51 ba3e 5a26 0b3f de17 7dbe
00000290: c684 663d 0a06 4f3e 670b cc3e bfd2 f7bd
000002a0: e9be 633e 8712 303e 4137 d3bd 2f93 9e3e
000002b0: c67f 233f d80d e53e ab77 123e 3046 fbbd
000002c0: 2a92 bc3e ed25 89be f84b 74be b9c8 b4be
000002d0: a8c3 f6bc 6793 153f 662d 703e 5358 26be
000002e0: 699f 8e3e 62b5 9b3e 35ea 7c3e e3dc 083e
000002f0: d80f 17be 3521 663c b76c fbbd 3b81 93bd
00000300: fbb5 753c edb3 0e3e 904b 05bf dca6 933e
00000310: bd0e b7be 61d6 e23d 406c 16bc 2292 063f
00000320: 1127 8bbe ffcc d53e 690d 143f cfc9 57be
00000330: d16a 2f3f c4c6 c43c 2f71 833e c06b 853d
00000340: a928 12be 2583 923b b593 03be 1c63 943e
00000350: 1a67 b43d 40e0 643e bd77 ea3d 0762 41bd
00000360: 7e61 bb3d 8f3d 1bbf 3433 43be be35 bfbe
00000370: 2dd1 0abc 0ae7 30be 01b0 91be 5b45 003f
00000380: 140e 9fbd bb36 133e ca4f a5be 71b2 d1be
00000390: 8760 883e dad3 d73b 686f bc3e b538 b7bd
000003a0: 8143 53be 68fe 183e b8e3 0d3f ca30 793e
000003b0: cdf4 f7be 15ac c73e f387 40bd 926b 213e
000003c0: 6006 093d 272c 253d 6470 433e eb2f 503d
000003d0: 3395 003c e8c1 343f 8afc d6be 64e4 a5be
000003e0: bf16 67bd f1e4 1f3f 917b 62bd 6f1a 033e
000003f0: 39dc 513e 3e4b fb3e c3bf a43d 0371 5c3d
0.33959723 0.048049245 -0.6393555 0.076485254 -0.34100354 0.08722916 -0.19242308 0.06632681
-0.13940114 -0.50404036 0.09967293 -0.39360306 -0.12717347 -0.31661898 0.19525222 0.3564347
0.026590666 0.091074996 0.2550335 0.16698988 -0.04142678 0.31043613 -0.16851093 0.33761278
-0.62410897 0.37277213 -0.35810605 0.12344256 0.1686591 -0.046293307 0.072769776 0.49257618
0.09641597 0.44197822 0.36193457 -0.105361186 0.3354627 -0.8382273 0.10032714 -0.8000051
0.27524516 -0.44593987 -0.39435342 0.60598683 0.17360325 -0.20057417 -0.25155425 0.37593988
0.48995408 -0.33239907 0.09767504 -0.4352185 -0.35206053 -0.0023769932 0.2975497 0.09009753
-0.52251184 0.41414556 -0.03831824 0.08169551 0.38630882 -0.37507612 -0.1921825 0.37207764
0.10160953 -0.31413373 -0.08696646 -0.012074158 0.21269925 -0.057571642 0.017149253 -0.51499635
-0.49874023 0.11157404 0.50238913 -0.05151421 -0.05546728 -0.0016807527 -0.12451513 0.09710436
-0.15977427 0.31514525 0.4218996 0.0581076 0.7663944 0.2563513 0.3310525 0.40023604
-0.096248664 -0.55482364 -0.07914484 0.46173143 -0.07398907 0.017584212 -0.384872 0.33299989
-0.14573547 0.38659745 -0.248172 0.6609365 0.15220939 0.80907565 0.34898537 -0.12633209
0.38427806 0.33223405 -0.062550016 0.6811747 0.08818462 -0.5641977 0.32176238 -0.1753351
-0.16810855 -0.020071195 -0.4020137 0.17612319 -0.17694435 -0.010227142 -0.025367698 0.49111515
-0.39464495 0.15175346 -0.2978361 0.09601458 -0.120570704 0.15002212 -0.20742975 -0.39589724
-0.09912618 -0.12648453 0.32721788 0.057684615 0.0676979 0.3760554 0.47942752 0.19227107
0.12455544 -0.25748917 -0.0027175162 -0.20787628 -0.011214882 0.061055727 -0.22001825 0.38508227
-0.3250015 0.27716705 -0.24025086 -0.32602206 -0.449586 0.1289499 -0.33139595 0.05386014
0.08457728 0.099180795 0.2488644 -0.18311857 -0.5077553 -0.3667242 -0.1461195 -0.48467436
0.016663132 0.3639016 0.54355395 -0.24716136 0.056278966 0.20217147 0.3985245 -0.121007435
0.22240795 0.17194568 -0.10313273 0.30971667 0.6386684 0.44737124 0.14303462 -0.122692466
0.36830264 -0.26786748 -0.23857105 -0.3530939 -0.030122593 0.58428043 0.23454818 -0.1624463
0.27855995 0.30411822 0.24698718 0.13365512 -0.14752138 0.014046003 -0.12276595 -0.07202383
0.014997001 0.13935824 -0.52068424 0.2883824 -0.35753432 0.11076046 -0.009181082 0.5256673
-0.27178243 0.41757962 0.5783296 -0.21073078 0.68522364 0.02402056 0.2567229 0.06514692
-0.14273323 0.0044712 -0.12849315 0.28981864 0.088087276 0.2235117 0.114486195 -0.047212627
0.091494545 -0.60640806 -0.19062501 -0.3734569 -0.008472723 -0.17275634 -0.28454593 0.5010583
-0.07766357 0.14376347 -0.32287437 -0.40956452 0.26636145 0.006586534 0.36803746 -0.08946363
-0.2063122 0.14940798 0.55425596 0.24335018 -0.48428956 0.38998476 -0.04700465 0.15763691
0.033453345 0.04032531 0.19085842 0.050826948 0.007848072 0.7060838 -0.41989547 -0.3240081
-0.056418177 0.6245871 -0.055293623 0.12803052 0.20494165 0.49080843 0.08044388 0.053818714

network_body._body_endoder.seq_layers.2.bias f4 [20]
00000000: ebf4 ff3d 61e5 ee3d 983e 5b3e 4526 5f3e
00000010: 93ca ef3d f9e9 fa3d e659 1b3c 4291 6b3d
00000020: aa9d ee3d b969 143e 53a5 f33d bc7c d73d
00000030: 945f 993d c5b0 683e 7281 f33d 1f0c c03d
00000040: a9d2 c73d 26e4 073e af34 df3d b6ca e33d
0.12497886 0.11664844 0.21410596 0.21791942 0.1170856 0.12251658 0.009481883 0.057511576
0.11651166 0.14493455 0.118967675 0.10521838 0.07488933 0.22723682 0.11889924 0.09377312
0.09756977 0.13270625 0.108987205 0.111226484

action_model._continuous_distribution.log_sigma f4 [1, 2]
00000000: 5141 4abd aa52 cfbc
-0.049378697 -0.025307972

action_model._continuous_distribution.mu.weight f4 [2, 20]
00000000: 3df2 893e 3453 6abe abfc d53e 8f0f c93e
00000010: 9d6a afbd 2624 e6bc 66f5 37bd eb56 95bd
00000020: 69a3 d6be 58be c8bd 90d9 d7be bae5 6d3e
00000030: f60f 99be aa72 e43e 8467 a13e b193 47be
00000040: 9b28 79be 020a a83e 4c1e 14be 3d09 2abc
00000050: b1b7 e6bc 1273 8b3e ce44 2b3c 8ee7 513e
00000060: d29d 9cbe 1c52 9ebe 5037 ff3d ecb1 803e
00000070: dd1e cf3d f8fa d0be cd3e 4cbd 186b 273e
00000080: 9181 4d3e b129 303d 9c0d 1f3e 2d7d a3be
00000090: fd71 8c3e e563 7b3e 490c 9c3e 1f21 9d3e
0.26942626 -0.22883302 0.41794333 0.39269683 -0.08565257 -0.028093409 -0.044911765 -0.07291969
-0.41921547 -0.0980193 -0.42158175 0.23232165 -0.2989499 0.44618732 0.3152429 -0.19489934
-0.24331896 0.32820135 -0.14464682 -0.010378179 -0.028163763 0.2723623 0.010453416 0.20498487
-0.30589157 -0.3092202 0.12461722 0.25135744 0.101133086 -0.40816474 -0.04986458 0.16349447
0.20068957 0.04300851 0.15532535 -0.3193144 0.27430716 0.24549825 0.30478123 0.30689332

action_model._continuous_distribution.mu.bias f4 [2]
00000000: 6019 293d 19b5 bebb
0.041283965 -0.0058199284
