results/3DBall_run01/3DBall/3DBall-409216.onnx (onnx, 77016 bytes, 9 tensors)

network_body.observation_encoder.processors.0.normalizer.running_mean f4 [8]
00000000: 0000 0000 0000 0000 0000 0000 0000 0000
00000010: 0000 0000 0000 0000 0000 0000 0000 0000
0.0 0.0 0.0 0.0 0.0 0.0 0.0 0.0

network_body._body_endoder.seq_layers.0.weight f4 [128, 8]
00000000: 7f77 f3bd 9057 a5be a0ce 933e 179a a43e
00000010: b86e 993d 0ede 8e3e 54cc c03e bbdf 193f
00000020: 80b7 653e a0c9 e33e 74fa 87bf a71e c03e
00000030: f79d 193e 402b cabe daf5 c93e fb69 34be
00000040: f6b6 093f 79d3 9cbe b3aa 313e 82d2 c63d
00000050: 853f 8f3d 88c4 f7bc 0cb1 153f 385e 9c3e
00000060: 2412 b3be 815b bd3e a4cd 213e 8af5 403e
00000070: 01e0 86bd 8760 5fbe bdb1 5ebe bd7b 5ebf
00000080: c1c1 043f 63b1 543e d21f 0abd 106d 863e
00000090: 28e0 023e df50 2dbe 71a9 5fbd 9c84 59be
000000a0: 89ff 80be 9b55 a83c 2de9 593e 61bd 12be
000000b0: 8bf5 aa3e a3df 023f fab9 9abe a3fa c9be
000000c0: 46cc d5be 358b 273f 2d17 f5be fbbb a1bf
000000d0: 5945 85bd 37a6 4c3e 8595 b7be 9028 863e
000000e0: f7c1 d83e 7d8c 8abe 15bf b4bd 16bd 113e
000000f0: 3f0f 7fbe d26e c4be 8ed3 25bf 1567 a83c
00000100: 42a4 e13e 45b0 3abf 752d f03d cca2 663d
00000110: 84d8 413c 8fa6 523e 59f6 3e3f e768 0d3e
00000120: 19b3 c0be 2835 cd3d 5aed a2bb 0d3d 88be
00000130: 755d 2b3e 0b9b c13c 6872 ca3d 7bbf 8cbe
00000140: 0ffb 24bf 9c9b 303e fc56 5cbe 4935 093f
00000150: 6bf9 0bbf 6245 9dbe 43cc 3cbc ad9f eebd
00000160: 7c3f b8bd a085 9ebe d95c 693f cd61 39bd
00000170: 5a30 5c3f 0a35 1a3e 79e6 71be f254 9bbe
00000180: 47f7 10bf b9e3 f93e 0989 1fbe 5ab7 b53e
00000190: a94e 89be 37ac bbbe 0370 68be be29 d4be
000001a0: 0ca0 0cbf a001 7b3d eec1 623e 4c9a e8bd
000001b0: 8724 f43d 5c62 453e 645f 99bd 6da2 613e
000001c0: 560f 40be 5d96 d53d 8d28 c3be 9e49 40be
000001d0: e636 583e 85ca 0b3e 24f0 2a3d 2520 14bf
000001e0: 9e49 f6bc f7c5 983d 5e40 efbe 8a05 11bf
000001f0: 4df2 3f3e a33a a6be ed7e 8b3e c72f a0be
00000200: cb76 c13d e3d0 93bd 50ae 063e d4a9 c83e
00000210: 9b90 44bd f080 773f 5c1d b4be 9810 d6be
00000220: 668a 2a3e 863b b83e 319f b53d b299 95bc
00000230: ee19 e9bd 20ae aa3e ae11 cf3d 0bd7 593e
00000240: f116 ee3c 1f6d 78bd 2e05 a2be 802d 1d3f
00000250: 1306 20be 4e6a 09bf 2f1f 90be 0b62 dcbd
00000260: 0da4 0dbf a3e5 84be 665c 0e3e 4cf0 32be
00000270: ee6a 4d3e 449f f73e e286 7d3e da13 523e
00000280: 2b6e 443d cd9c f0bd a842 a4be 42d5 703e
00000290: 7e75 bdbc 66bf b73d 0927 633b c914 aa3e
000002a0: 7c03 69be 6488 393e bc0e a53e 4322 3abf
000002b0: d34e 1c3e 4b0a 7ebc 609c 4bbe 1674 233e
000002c0: 7d72 07be 3c97 883e fd72 08bf 4e54 22be
000002d0: a3e1 06bf fe3e 8cbe 507d 173d d957 cbbe
000002e0: 6ec7 3ebe 8213 953e 6057 7cbd e574 e2be
000002f0: 119a 6e3f 1be8 3e3e c65f b2be e7d3 e3bd
00000300: 6563 cc3e 660a 753e c287 9bbe 7ac4 60be
00000310: d299 8e3e 7ab2 d3be f955 033f f812 adbe
00000320: 5dd8 e4bd c396 843e b879 043f 51aa 663e
00000330: c397 25be f5f6 95be 03eb a6be f86f 6e3e
00000340: 0d5f f8bd 7fd1 1abd 9d9f c83e a655 2b3d
00000350: 1ae2 863e b3d1 703d 339f 943d 167f 01bf
00000360: d272 ebbb cde5 7c3d 649f e23e 7d3e fdbd
00000370: 37c0 c23d affb d83c 2bd3 32be b57c 223e
00000380: 8786 fabd 8708 01bf 5979 3b3f 92d6 313d
00000390: 120e 34be 282d 203d 364e cabe 0fb7 30bf
000003a0: ccbe f6be d197 5c3f 153b e3be dabe 453e
000003b0: 58bf 0fbe d163 9abe ceff 963e a734 e63d
000003c0: f81e 493e 0d5a 88be 2718 d03e a6eb 61be
000003d0: fa3f b33e 72bf 653e 1d5b cbbd 975b 813c
000003e0: 6562 f7bd 45b8 af3d 004c 783e 00e3 ff3d
000003f0: 19ee b3be 72b6 2a3f 4fe9 4dbd 01c1 ec3e
-0.118880264 -0.32293367 0.2886858 0.3214881 0.07491821 0.2790379 0.3765589 0.6010701
0.22433281 0.44489765 -1.0623307 0.37523386 0.15001665 -0.39486122 0.39445382 -0.17618553
0.537948 -0.3063009 0.17350273 0.0970812 0.06994537 -0.03024508 0.5847328 0.30540633
-0.34974778 0.36983874 0.15801102 0.18843666 -0.06585694 -0.21814166 -0.2174749 -0.8690756
0.51858145 0.20770793 -0.033721752 0.26255083 0.12780821 -0.16925381 -0.05460495 -0.21241993
-0.25194958 0.020548632 0.21280356 -0.14330055 0.3339046 0.5112249 -0.30220014 -0.39449033
-0.4175741 0.6544679 -0.47869244 -1.2635492 -0.06507368 0.19985281 -0.35856262 0.26202822
0.42335483 -0.2706031 -0.088255085 0.14232287 -0.2490816 -0.383658 -0.6477593 0.020556966
0.4407063 -0.72925216 0.1172742 0.0563076 0.0118314065 0.2057135 0.74594647 0.13809548
-0.3763664 0.100199044 -0.004972142 -0.26609078 0.1673487 0.0236335 0.098851025 -0.27489838
-0.64445585 0.1724686 -0.21517557 0.5359693 -0.54677457 -0.30716997 -0.011523309 -0.116515495
-0.08996484 -0.30961323 0.911573 -0.045259286 0.8601128 0.15059295 -0.23623075 -0.30338246
-0.56627315 0.4880655 -0.15579619 0.3549145 -0.26817825 -0.36654827 -0.22698979 -0.41438097
-0.5493171 0.061280847 0.22144291 -0.11357555 0.119210295 0.19275802 -0.074888974 0.22034617
-0.1875585 0.1042907 -0.38116875 -0.18778083 0.21114692 0.13651474 0.041732922 -0.5786155
-0.0300644 0.07459634 -0.46728796 -0.56649077 0.18744774 -0.3246661 0.27245274 -0.3128645
0.09446486 -0.07217576 0.13152432 0.3919207 -0.04798947 0.9668112 -0.3517865 -0.41809535
0.16654357 0.35982913 0.08868254 -0.018261764 -0.11381899 0.33335972 0.10110794 0.21273439
0.029063674 -0.06065094 -0.31644577 0.6139755 -0.15627317 -0.53677833 -0.2814879 -0.10760888
-0.55328447 -0.2595645 0.13902435 -0.17474478 0.20060322 0.48363698 0.24758485 0.20515385
0.047956627 -0.117486574 -0.32082105 0.23518851 -0.023127314 0.08972053 0.0034660718 0.33218983
-0.22755235 0.18118435 0.32237804 -0.7270853 0.15264444 -0.015505384 -0.19883871 0.15962252
-0.13227268 0.26677883 -0.5330046 -0.15852472 -0.52688044 -0.2739181 0.03698474 -0.3971546
-0.18630764 0.29116446 -0.061606765 -0.44229808 0.93203837 0.18643229 -0.34838694 -0.111244015
0.39919582 0.23929748 -0.30377012 -0.2194995 0.2785173 -0.41347104 0.5130306 -0.33803535
-0.111740805 0.25896272 0.5174823 0.22525908 -0.16171174 -0.29289976 -0.32601175 0.232849
-0.121275045 -0.037797447 0.39184275 0.041829728 0.26344377 0.058793735 0.07256927 -0.5058454
-0.0071853185 0.061742593 0.4426223 -0.12365434 0.09509318 0.0264872 -0.17463367 0.15867884
-0.1223269 -0.50403637 0.73232037 0.04341752 -0.17583492 0.039105564 -0.39512795 -0.69029325
-0.4819244 0.86169153 -0.44381014 0.19311085 -0.14037836 -0.3015428 0.29492038 0.112405114
0.1964072 -0.26631203 0.40643427 -0.22062549 0.35009748 0.22436312 -0.09929488 0.015790744
-0.12079314 0.085800685 0.24247742 0.12494469 -0.35142592 0.6668464 -0.05027133 0.46241

network_body._body_endoder.seq_layers.0.bias f4 [128]
00000000: 1d8b fc3b 7c53 f0ba b402 10ba 420b 01bb
00000010: ec58 113c 7878 bdbb a076 80bc 7212 1a3c
00000020: c199 5b3b 627b e03b 35e0 adbc 1ab0 72bc
00000030: 9ecc 243c c29a 88bc f929 dbbb a9ea 303b
00000040: 52ab cbbb b012 2abb 46df 88bc 0d7f 7e3c
00000050: aee6 df3a f622 ca3c 3b1b ba3b eb4a 7abc
00000060: 5b0c d3bc 89e2 ad3c 14bb a13a 9bef 9d39
00000070: be47 dfbc 2733 21bc 5b8f 67bc 4783 b2bb
00000080: a4cc 4fbc fbf4 a3bb f0a0 c9bc fa7c 66bb
00000090: b949 ab3c a05a 393c de72 72bc 22af 3f3b
000000a0: 983e cdbc 8470 a03b 661b fe3b e26c 66bc
000000b0: 8d46 0e3c 191a 273a 569b b6bc 657c 1ebc
000000c0: 0962 c33a 66e9 2bbc 1ce5 71ba 8166 5abc
000000d0: 1fa9 adbc d677 a03c e658 86bb a647 0a3c
000000e0: 1882 32bc 96e3 f83a dd2e 133c ff1a a83b
000000f0: d015 a9bb 8dd5 4d3c 3698 5b3b cba2 77bb
00000100: 25a0 14bb 74ba dbba 1c9f a63b 7926 e03b
00000110: 6154 89bc 569f 673b 8b39 96bc d993 e73b
00000120: 59f7 e0ba 6f3f f6bb ffd5 973c a8df 13bb
00000130: f344 0f3c bd69 3a3b 3ffd 05bc 7a79 27bb
00000140: e5cf ce3b f803 9bbb a20c 3c3c 8775 9abc
00000150: cbb3 c2bb 5439 1b3c 6c08 9bb8 71ad b33c
00000160: 6253 3cbc 4dc8 083c a060 54bc 0fba 113c
00000170: 2aa1 00bc 240c c23c 842e 1b3b 688c e33c
00000180: e816 94bb ad27 0ebc 8542 80bb 9046 893b
00000190: e19c c53a 0ed0 b0bc ba8a 48ba 10ee d4bb
000001a0: 52de f03b 32fb 743c fc14 ff3a a5b3 6bbb
000001b0: cbf7 96bc bfa5 a93b bfc8 b1bb 6931 693b
000001c0: 5201 1d3b fd4c 1e3c c3e0 943b 73b2 abbc
000001d0: 2989 ffba c87a b1bc 2d5e 133b 2664 62bb
000001e0: d492 56bc f79f 27bc 6e1d ae3b 4345 103b
000001f0: 4553 6dbc 5a2f 153c 303c 383a 10d7 8f3b
0.0077070133 -0.0018335427 -0.0005493567 -0.0019690548 0.008871298 -0.0057821833 -0.015681565 0.009403812
0.0033508393 0.006850646 -0.021225074 -0.014812494 0.01005855 -0.016675357 -0.006688353 0.0026995337
-0.0062154913 -0.002595108 -0.016708028 0.015533221 0.0017082298 0.024674874 0.0056795157 -0.015276651
-0.025762727 0.021226184 0.0012339079 0.00030123894 -0.027255889 -0.009838856 -0.0141333 -0.0054477784
-0.0126830675 -0.005003569 -0.024612874 -0.0035169707 0.020909177 0.011313111 -0.014797894 0.0029248674
-0.025054261 0.0048962254 0.007754731 -0.014064046 0.008683813 0.0006374433 -0.022290867 -0.009673213
0.0014906536 -0.010492658 -0.00092275604 -0.013330103 -0.021198807 0.019588392 -0.004099953 0.008439934
-0.010895275 0.0018988724 0.008983341 0.0051301713 -0.005160071 0.0125631215 0.0033507473 -0.003778624
-0.0022678461 -0.0016763941 0.0050848853 0.006840524 -0.016763868 0.0035342774 -0.018337986 0.0070671854
-0.0017163559 -0.007514886 0.018534658 -0.002256373 0.008744466 0.0028444373 -0.008178054 -0.0025554583
0.006311404 -0.0047306977 0.011477621 -0.01885487 -0.005941843 0.009474117 -7.392545e-05 0.02193329
-0.011494489 0.008348537 -0.01296249 0.0088944575 -0.0078509245 0.02368743 0.0023678849 0.027776912
-0.004519332 -0.008676452 -0.0039141797 0.00418932 0.0015076661 -0.021583583 -0.00076500664 -0.006498106
0.0073507214 0.014952468 0.001946121 -0.003596523 -0.018428704 0.005177229 -0.005425542 0.003558243
0.0023957086 0.00966191 0.0045433952 -0.020959115 -0.0019495833 -0.021664992 0.0022486553 -0.0034544556
-0.01309653 -0.01023101 0.005313567 0.002201394 -0.014485185 0.009105528 0.00070280116 0.004389651

network_body._body_endoder.seq_layers.2.weight f4 [128, 128]
00000000: 8a8a 29bd 5097 ae3c a070 bcbd 1c0b 2ebe
00000010: faf6 f9bd 9dfd 333e d0f1 203d 50f6 d83a
00000020: 0c94 12be 50d9 f2bc e13d 02be b1ba 81bd
00000030: a625 ffbc 1c84 0c3e 8e13 3a3d 459d e83b
00000040: aeb8 c83d ca7b 66be ebd5 843d 294d 7e3d
00000050: 15eb 213e b332 c9bd 6721 f03d 027b 4b3c
00000060: 1455 a0bd 2aad 7bbc 12e8 a5bc 1c2f c53c
00000070: db38 283e ae0d 08be cb0a 143e 1e84 82be
00000080: 26c0 c8bd af11 6e3d af26 653d 45b2 853c
00000090: c55f a1bd 27ea 32be d744 25be e3e8 ad3b
000000a0: 8297 3e3d 387f 56bd 0c3b b73d 18e8 64bd
000000b0: 2175 1cbc c375 513d 7af1 9a3d bf81 f53d
000000c0: 926d e33d e4e4 6a3c 59df a83d 98d1 0cbd
000000d0: ddbc cfbd e1de 27be 8c4a 09bd da63 e03d
000000e0: bcee 4f3e f71c ddbd 8262 0ebe dbc3 0c3d
000000f0: e6d0 5d3d 33c1 df3d 510f 14be d683 23bc
00000100: 7160 9ebd e481 33bd 4535 02be 0bb7 cebd
00000110: 0a3c 9b3c 7d22 823d 887e 61bd b1d9 09be
00000120: 0532 93bd 33c5 5d3d 0404 313d 82a9 7b3d
00000130: 680e 1abd 8bc9 aabd f63a 073e a2a3 52bd
00000140: 81b8 1e3d 5244 afbb 66cc cf3d e7f5 24be
00000150: 74f8 643d 3b1e e33d 90b8 643d 1f50 37be
00000160: a5f3 bc3d 4e7e c8bd 1fcb a6bd a4c8 00be
00000170: 3a3a 4d3d e7c7 153e d72f 1fbe e4da aeba
00000180: 1125 0f3e 9c03 c93d 21d8 f6bc 1fd9 ccbc
00000190: e6b8 6dbc 7d32 0d3e b29f f93c 6638 c53d
000001a0: 17ca 5a3e 2a91 16bd 76ad 2f3e 3f5b 31be
000001b0: e64f 343e 75c8 6e3b 5060 0ebb 350d 9a3d
000001c0: 99f1 cabd fab8 03be 45de 21bd 75db 2d3e
000001d0: 76ac 513c f123 253b 5517 563d bdfd 9dbd
000001e0: 8135 183e 9b05 6a3d fb36 81bd 1d24 0bbc
000001f0: 2c1c 9cbc 7f6a f53c 95e9 4abd 1fde c7bc
00000200: a501 e7bb 9916 91bc 5058 06be b50f 193d
00000210: 243b 1c3e 09ae 54bd 6af1 1c3d 8c0a 0b3e
00000220: 566c fabc d923 ebbd faa6 393d 8822 943d
00000230: ea1e 17be 8707 a43d 60d6 ea3d 4843 49bd
00000240: 4d2b 71bb e190 37be 5a60 f03d 8875 323c
00000250: 309c c53d cc44 23bc a879 a9bd 1071 873d
00000260: ed5c 0bbe 309a c2bc af08 423d 8dc5 063e
00000270: 2893 6a3e c770 4c3e 9141 823e 1f99 073e
00000280: 717b 0c3d 32f5 2c3c a554 aa3d 6e69 953b
00000290: 215b e93c 3cd0 4dbd 4a02 68bd 7eac 383e
000002a0: 3adc 7c3d 590c 44be a816 e6bc 550c 7d3d
000002b0: 5b6c 423e 3954 9fbd d166 8a3c ca3e e13d
000002c0: eda0 c3bd a0ba b73d 3739 6b3d 57a4 85bb
000002d0: 7687 c53d 657b da3d 7bab 80bd c22c a23d
000002e0: 5df3 06bd a94f 4b3c d6d0 2ebd c91c a1bd
000002f0: ccf3 203e cc8b c6bd 8d62 4dbe 594f cdbd
00000300: 106a 88bd 1eb6 0bbc 29ad 8c3d f7ba e73c
00000310: aecf 9cbd c0a7 4ebd a579 bc3c eeb7 983c
00000320: c3c5 d03c a795 d1bd abd6 d7bc 2e7b 703d
00000330: 95c7 cb3d 0ae9 0ebe cb8f aabd 2944 e7bc
00000340: b5eb 833d bb2d 55bd f07d 00bc f4d8 723d
00000350: a2fa ceb9 952c 87bd 24e2 50bd a42b bf3d
00000360: b485 3d3d 538c f63c 2b9b b7ba 0b9e 0f3d
00000370: 2aae 0ebc 560d 96bd 6f37 f43d e081 a5bc
00000380: a166 d73c f4fb eb3c c478 653e ee9c 60be
00000390: 8cd1 d3bc 559c e63d ad68 5dbd aafd 3c3e
000003a0: dbe2 5bbe cee3 313d d3a5 c73d a17f 12be
000003b0: 1435 1bbe 2d05 003d 29ff 983d 0684 9dbc
000003c0: ad84 9abd 12a8 cabb bea7 8fbd aeaa 65bd
000003d0: d41b 853d 6840 183e 3275 10bd 3639 023e
000003e0: 8962 583d 45b7 b7bc ada6 a6bc c27f 1cbd
000003f0: 5379 233d 625b 3eba 0c61 3ebe 80f1 b2bc
-0.041391887 0.021312386 -0.09201169 -0.16996425 -0.1220531 0.17577215 0.03929311 0.0016552899
-0.14314288 -0.029644638 -0.12718917 -0.06334437 -0.031145882 0.1372227 0.045428805 0.007098826
0.0980085 -0.2250816 0.06486114 0.062085304 0.15812333 -0.09824123 0.11725121 0.012419464
-0.07828727 -0.01536111 -0.020252261 0.024070315 0.16427939 -0.13286468 0.14457242 -0.25491422
-0.098022744 0.058122333 0.055945095 0.016320357 -0.07879595 -0.17472135 -0.16139542 0.0053073033
0.046531208 -0.05236742 0.08946809 -0.055885404 -0.00954941 0.051137697 0.07565589 0.11987638
0.11104883 0.014336798 0.08245725 -0.03437957 -0.10143445 -0.16393615 -0.03351836 0.10956545
0.20305914 -0.1079654 -0.13904765 0.03436647 0.0541543 0.10925522 -0.14458968 -0.009980163
-0.077332385 -0.043825045 -0.12715633 -0.100935064 0.018949527 0.06354234 -0.05505231 -0.13461949
-0.07187275 0.054143142 0.04321672 0.061440952 -0.037611395 -0.083392225 0.13206086 -0.051425584
0.038750175 -0.0053487206 0.10146408 -0.1610943 0.055901006 0.110897504 0.055840075 -0.17901658
0.09226159 -0.09789716 -0.08144211 -0.12576538 0.050104357 0.14627038 -0.15545593 -0.0013340381
0.13978983 0.098151416 -0.030132355 -0.025005875 -0.014509415 0.13788791 0.030471656 0.09629898
0.21366154 -0.036759533 0.17156014 -0.17319964 0.17608604 0.00364354 -0.0021724887 0.0752205
-0.09909362 -0.12863532 -0.039518613 0.16978247 0.012797466 0.0025198425 0.052268345 -0.07714412
0.1486416 0.057134252 -0.06309315 -0.008492497 -0.019056402 0.029958008 -0.049539167 -0.024397908
-0.0070497566 -0.01771097 -0.13119626 0.037368495 0.15256935 -0.051923785 0.038316168 0.13578242
-0.030569237 -0.11481447 0.045325257 0.07233149 -0.14757887 0.08009248 0.1146667 -0.04913643
-0.003679949 -0.1792636 0.117371276 0.010892279 0.09648931 -0.009965133 -0.08275157 0.06613362
-0.13609667 -0.023755163 0.047371563 0.13161297 0.22907698 0.19964896 0.25440648 0.13242005
0.03429741 0.010556506 0.08316926 0.0045596873 0.028485836 -0.050247416 -0.056642808 0.1803455
0.061733462 -0.19145335 -0.028086975 0.06177934 0.18986647 -0.07779736 0.01689473 0.10998304
-0.095521785 0.08971143 0.05742761 -0.0040784287 0.09644978 0.10668067 -0.06282707 0.07918693
-0.032946933 0.012409129 -0.04267963 -0.078668185 0.15718001 -0.09694633 -0.20057125 -0.100249
-0.06660855 -0.008527307 0.06868965 0.028287394 -0.07656799 -0.050452948 0.023007223 0.018642392
0.025484925 -0.10233622 -0.026347479 0.058711223 0.099501766 -0.13956085 -0.083282076 -0.028230743
0.06441442 -0.052045565 -0.007842526 0.059288934 -0.00039478118 -0.066003 -0.050996915 0.09334496
0.046270087 0.030096209 -0.0014008036 0.03506283 -0.008708516 -0.073267624 0.119246356 -0.02020353
0.026294054 0.028806664 0.2240935 -0.21934864 -0.025856756 0.11260287 -0.054054905 0.1845614
-0.21473257 0.043430142 0.09748425 -0.14306499 -0.15156966 0.031254936 0.07470543 -0.019227993
-0.07544837 -0.0061845863 -0.07014416 -0.056070976 0.064994484 0.14868319 -0.035268016 0.12717137
0.052828345 -0.022426257 -0.02034315 -0.038207777 0.039910626 -0.0007261542 -0.18591708 -0.021843672

network_body._body_endoder.seq_layers.2.bias f4 [128]
00000000: 0397 47bc dd53 f7bb a30a 5abc a82c 9fbc
00000010: 3aaa 543b d364 41bc ae85 223c aada 37bc
00000020: 714a 2a3b 27f6 b039 eeb7 2fbc ec8a 6c3b
00000030: 267d f1bb e8f2 2e3c a029 413c 3cd6 86bb
00000040: 829b e6bb 6c9e 593c cca6 d1bb 5530 c4bc
00000050: 25cc bf3b a13d 83bb 5df2 1ebc 7908 023c
00000060: fa36 1ebc 825f 253a 4f4e 2d3c 2538 603c
00000070: 0672 24bc 40bd 803b 9446 b739 2129 2abb
00000080: 2941 313c abd2 29bc 7fac adbc b585 e7bb
00000090: 96ce deba e4e2 80bc 0ac1 333c 86c1 f4bb
000000a0: 5a0c 683c c6f4 febb b7a7 bbbc 89d3 f5b7
000000b0: 9725 aebb 1a9a 003c 3e7d 123b 295e 28bc
000000c0: 8f10 fe3b 9fc8 59bb 44e2 43bc a75e c0bb
000000d0: 8a4c d6bb 8f76 103c e53c a43b 9f94 c7bc
000000e0: 6673 a7bc 7a29 8c3b 5462 cd3c b074 bb3b
000000f0: 1826 12bc 4e85 1cbc 9e8d 053c ce65 5d3c
00000100: 45a3 213b e238 28bc b6e5 153b 0efb ddbb
00000110: 3051 9b3b 182c 9ebb 256e 203b 8290 753b
00000120: 4398 aebc fcaa 2e3c 5166 d9bb 337b 603c
00000130: 4ec7 46bc 2486 0c3c c358 79bb 7645 953c
00000140: 1417 293c e691 013a 8d77 42bc 3a14 c3bb
00000150: 0845 da3b 75c0 a3bb 9c1f 4fbc 7be2 143c
00000160: 0746 493a 996c 573c 85f3 213c f8ea 803c
00000170: 0b8c 87bc fad9 7bbc 88cd 093b a405 77bc
00000180: 98f3 bd3b 9810 393c f6bd 863b fd9d 22bc
00000190: 9112 d43a e3fd 053c 2454 e1b9 067d 4d3c
000001a0: 8969 3abc 8d37 283c 641f 263c 4c5f 7038
000001b0: cc76 6d3b 5a60 58bc f76b 043c c20a f2bb
000001c0: 353c fb3b ed97 f63b 1f9d 713b 1323 51bc
000001d0: 280f 503c 6fc0 b73b 7193 59bc 2c72 f1bb
000001e0: e215 84bc b11e 4c3c 52f7 d33b 746a 00bc
000001f0: a890 06bc 1c90 1b3c f253 dbba 1bc4 40bc
-0.012182 -0.007547839 -0.0133082 -0.019430473 0.0032450096 -0.0118038235 0.009919567 -0.011221567
0.0025984312 0.00033752734 -0.010725005 0.0036093546 -0.007369655 0.010678031 0.011789709 -0.004114894
-0.007037581 0.0132824 -0.0063980576 -0.023948828 0.0058531933 -0.0040051495 -0.009701339 0.00793659
-0.009656662 0.0006308482 0.010577752 0.013685261 -0.010036951 0.0039288104 0.00034957065 -0.0025964456
0.010818758 -0.010365169 -0.021200417 -0.0070654997 -0.0016998823 -0.01573319 0.010971317 -0.007469359
0.014163101 -0.007780644 -0.022907121 -2.930478e-05 -0.0053145397 0.007849241 0.0022352482 -0.010276356
0.007753439 -0.0033231152 -0.011955801 -0.0058706584 -0.006539886 0.008817329 0.005012142 -0.02436286
-0.020440768 0.0042774053 0.0250713 0.0057206973 -0.008920215 -0.009553267 0.00815144 0.013513042
0.0024663967 -0.010267468 0.0022872514 -0.006774313 0.004739903 -0.0048270337 0.0024479714 0.0037470167
-0.021312838 0.010660883 -0.0066345115 0.013701248 -0.012132479 0.0085769035 -0.003804729 0.018221598
0.010320444 0.00049427 -0.011869323 -0.005953339 0.006661061 -0.004997308 -0.012641814 0.0090872
0.00076779764 0.01314845 0.00988472 0.015737042 -0.01654627 -0.015371794 0.0021027047 -0.015077028
0.005796861 0.01129546 0.0041120006 -0.009925363 0.001617985 0.008178207 -0.00042978034 0.012542015
-0.011377701 0.010267151 0.01013932 5.730921e-05 0.0036234139 -0.013206566 0.008082381 -0.0073865363
0.0076670893 0.007525435 0.0036867333 -0.01276471 0.012698926 0.0056076567 -0.013279782 -0.0073683467
-0.016123716 0.012458489 0.006468692 -0.00783788 -0.0082132 0.009494808 -0.0016733392 -0.011765505

action_model._continuous_distribution.log_sigma f4 [1, 2]
00000000: df2c 22be 6e6c 69be
-0.1583743 -0.22795269

action_model._continuous_distribution.mu.weight f4 [2, 128]
00000000: d607 9dbc ae87 afbc fabe 62bc 92b3 acbc
00000010: 9dcf ffb9 604f 54bc d826 6b3c f093 c3bc
00000020: 203c cfbb ef3c 543c b778 a7bc bb8a 343c
00000030: 889e a1bc 07e8 973b 2748 993c a5f8 a2bc
00000040: 5096 59bc 94dd 9f3c c70f f4ba d638 0bbd
00000050: 6c82 d03c 33ea 91bc fa02 7dbc d00c 913c
00000060: 2233 5cbc af31 a8bc b5f7 e5bc 9fa6 883c
00000070: 5f7f 96bc ce93 9d3c 3a9f 913c cb86 aebc
00000080: e42d 133c 5e9e efbb be8a 96bc 42e6 5dbc
00000090: 7deb a5bc eeca 87bc bca2 833c bf9e 27bb
000000a0: de54 8b3c 9f92 eeba aa6a b1bc b61f b0bc
000000b0: a797 9d3c 8f90 cf3c b50f 923c 01d5 89bc
000000c0: 91b3 823c 6edd 87bc 154e 40bc 7dd1 aebc
000000d0: bbdb fbbc 19e1 b43c 1d54 aa3c 1b2f 93bc
000000e0: 0265 a9bc 81b0 903c a4ba a53c 42e8 483b
000000f0: e53c 23bc 789d 9a3c 1171 d93c bfd0 763c
00000100: 356c a43c 6442 46bc ad96 a03c 2594 b6bb
00000110: 5212 993c 2a7c a4bc 69b2 9cbc f064 b33c
00000120: 508a 99bc c163 b93c d18e b8bc 89fd 593c
00000130: 1746 9bbc a5d0 1e3c 2f1a 86bc 9c3b 863c
00000140: b02d 503c 2bd0 aa3c 7230 6ebc b124 c4bc
00000150: c1a1 f23c 9679 913b bd9b a5bc e7bd 053c
00000160: 61e9 80bc 2f50 8e3c 2f47 3d3c 951e 933c
00000170: 83a1 c4bc 0414 a5bc bf96 b23c 29d6 8abc
00000180: 95e3 1d3d f525 673c 4cfb afbc 1aa5 7abc
00000190: 8f85 babc 0b07 a63c b340 65bc afc1 a93c
000001a0: 257c cdbb c4c4 3b3c b164 263c 8bce c13c
000001b0: 555b 9d3c 853a 25bc 1c9e a93c e13d 95bc
000001c0: 1cfd 8f3c 5bba f13b 8d7b 6b3c 93d2 5fbc
000001d0: d323 373c 502d b23a b183 7dbc 8de4 37bc
000001e0: ff2a 91bc 8909 7d3c 028e 943c a0e6 c7bc
000001f0: b1cb a1bb 0a98 1a3c 377a 84bc 8621 d5ba
00000200: d0b3 25bc 6503 943b 32a2 5abc 0aa5 76bc
00000210: 0681 8b3c 120e a1bc 95c4 b83c 8f59 47bc
00000220: a27c 2a3c 2488 c23b 763c 78bb 4f9b 44bb
00000230: ce28 8abc 6e7e 963c 43a6 2d3c 5294 febb
00000240: 2c99 a5bc db5c 173c f9de fcbc 530d cdbb
00000250: 6d92 533c b90f 98bc acc5 97bc 28c6 843c
00000260: 09c5 1abd 7436 55bc ab56 6fbc d1e9 8c3c
00000270: 395b 1fbc 2d9b e23b 7d96 813b b933 aabc
00000280: 6647 a03c 9999 9abc 3441 8bbc 0833 eabb
00000290: 7721 8abc 511e 80bc b70c 853c d351 1fbc
000002a0: 9c4f ae3c c660 e8bc 876d 8bbc 4626 84bc
000002b0: e4ba 97b8 d6de 043c a2b9 023c 93ef 1abc
000002c0: 3cd3 eb3b 3a33 5cbc 8e8b 79bc 3c42 4fbb
000002d0: 7eb9 4abc b30b 223c 7452 853c b977 6dbc
000002e0: addf 8ebc 431d 783c 52d6 8a3c bc99 cc3c
000002f0: f692 a8bc b5b1 0c3c dbab 213b d056 b83c
00000300: 385b 383c 9efb 08bd 865d 3a3c 8cbc 25bc
00000310: eaad d9ba 34d6 8fbc 430d 04bc 24d3 9e3c
00000320: 32dd 91bc 54da 993c 25ea a6bb 5ab9 3b3c
00000330: cb67 17bc 1e25 953c 2dc4 69bc 94c1 793c
00000340: 0efe cd3c faee cb3b 2081 83bc 7dd0 5ebc
00000350: 2dd7 9e3c 8b52 d6bc 597a 05bd 698f d43c
00000360: da84 8ebb 1d73 7d3c 8db3 863c 1004 173c
00000370: 7eb2 faba 00be 50bc 7658 823c bc57 86bc
00000380: d353 633c 06a5 553c e029 5abc def0 b3bb
00000390: 7788 8bbc 4792 343c fd4a 6b3b 7eb4 963c
000003a0: 8c2d 33bc 5f33 ed3c 8b37 d63c de82 943b
000003b0: 0c01 8e3c 7051 90bc 4b07 043c afd0 81bc
000003c0: 1d41 5f3c 502c dc3c 67b0 88bb 56df bebc
000003d0: 5c98 583c 0349 d63c 7532 febb 55a9 d7bc
000003e0: 80b1 1ebc bbd0 b93c 69d0 993b fada 10bc
000003f0: 4435 d3bc c22b c73c d1e3 25bc ea8e 5ebc
-0.019168776 -0.021427002 -0.013839478 -0.02108172 -0.00048792074 -0.012958378 0.014352523 -0.023874253
-0.006324306 0.012953981 -0.020443304 0.011019404 -0.019728914 0.004635814 0.018711163 -0.019893954
-0.013280466 0.019514836 -0.0018620425 -0.03398975 0.025452815 -0.01781187 -0.015442604 0.017706305
-0.013439925 -0.020531503 -0.028072217 0.016681014 -0.018371282 0.019235518 0.01777612 -0.021304509
0.008983109 -0.00731258 -0.018376704 -0.013543667 -0.020253891 -0.016576257 0.016068809 -0.0025576798
0.017008241 -0.0018201655 -0.021657307 -0.021499496 0.019237353 0.025337486 0.017829755 -0.016825201
0.015954765 -0.016585078 -0.011737366 -0.021340126 -0.030744424 0.022079991 0.020792061 -0.017966798
-0.020678047 0.017662289 0.020230599 0.0030656015 -0.009963249 0.018873915 0.026543172 0.015064417
0.020071128 -0.01210079 0.019603098 -0.0055718594 0.018685494 -0.020078737 -0.019128041 0.021898717
-0.01874271 0.022630574 -0.022529038 0.013305076 -0.01895432 0.009693299 -0.016369907 0.016385846
0.012706205 0.020851215 -0.014537917 -0.023943277 0.029618146 0.004439543 -0.020215863 0.008162952
-0.015736284 0.017372219 0.011552616 0.017958919 -0.024002796 -0.020151146 0.021800397 -0.016947823
0.038547117 0.014108171 -0.021482132 -0.015298152 -0.022768764 0.02026703 -0.013992476 0.020722238
-0.0062709027 0.011460487 0.010155843 0.023658058 0.01920859 -0.010084753 0.020705275 -0.018217983
0.017576747 0.0073769516 0.0143727185 -0.013661045 0.011177975 0.0013593826 -0.015473292 -0.011223924
-0.017720697 0.015444168 0.01813412 -0.024401963 -0.004937612 0.009435663 -0.016171558 -0.0016260601
-0.010113671 0.004517006 -0.013344334 -0.015053997 0.017029297 -0.01966003 0.022554675 -0.0121673485
0.010405691 0.0059366394 -0.0037877834 -0.0029999798 -0.01686516 0.018370833 0.010598722 -0.007769146
-0.02021464 0.009238447 -0.03086804 -0.006257692 0.012913329 -0.018562185 -0.018526874 0.01620777
-0.037785564 -0.013013471 -0.014608066 0.017201336 -0.009726339 0.006915471 0.003954707 -0.020776616
0.019565295 -0.01887207 -0.016998865 -0.0071471967 -0.01686166 -0.015639456 0.016241414 -0.009724098
0.021278195 -0.028366458 -0.01702 -0.016131531 -7.235052e-05 0.008109769 0.007978829 -0.009456533
0.007196812 -0.013439948 -0.015231026 -0.0031625172 -0.012373326 0.009890485 0.016274668 -0.014493876
-0.017440641 0.015143695 0.016947899 0.02497565 -0.020577889 0.0085872905 0.0024669084 0.022502333
0.011252217 -0.033443086 0.011374837 -0.010115754 -0.0016607617 -0.017558195 -0.008059802 0.01938779
-0.01780567 0.018780865 -0.00509383 0.0114577655 -0.009241055 0.018206175 -0.014267963 0.0152439065
0.025145557 0.0062235566 -0.016052783 -0.013599512 0.019389713 -0.026162406 -0.032587383 0.02594729
-0.0043493332 0.01546934 0.016443038 0.009217277 -0.0019126681 -0.012740612 0.015911322 -0.016399257
0.013874966 0.013039833 -0.013315648 -0.00549136 -0.017032845 0.011021203 0.003590285 0.018396612
-0.010936152 0.02895516 0.026149532 0.004532202 0.017334484 -0.017616957 0.008058379 -0.015846578
0.013626364 0.026876599 -0.0041714194 -0.023299854 0.013219919 0.026157862 -0.00775748 -0.026325861
-0.009685874 0.022682538 0.004694034 -0.008841271 -0.025782235 0.024312858 -0.010125116 -0.013583878

action_model._continuous_distribution.mu.bias f4 [2]
00000000: 513f ec3b 12cd 9a3b
0.0072096963 0.0047241533

onnx::Div_51 f4 [8]
00000000: 54e5 cc3a 54e5 cc3a 54e5 cc3a 54e5 cc3a
00000010: 54e5 cc3a 54e5 cc3a 54e5 cc3a 54e5 cc3a
0.001563231 0.001563231 0.001563231 0.001563231 0.001563231 0.001563231 0.001563231 0.001563231
