results/3DBall_run01/3DBall/3DBall-378153.pt (torch, 451761 bytes, 44 tensors)

network_body.observation_encoder.processors.0.normalizer.running_mean f4 [8]
0	0x00000000	0.0
1	0x00000000	0.0
2	0x00000000	0.0
3	0x00000000	0.0
4	0x00000000	0.0
5	0x00000000	0.0
6	0x00000000	0.0
7	0x00000000	0.0

network_body.observation_encoder.processors.0.normalizer.running_variance f4 [8]
0	0x3f800000	1.0
1	0x3f800000	1.0
2	0x3f800000	1.0
3	0x3f800000	1.0
4	0x3f800000	1.0
5	0x3f800000	1.0
6	0x3f800000	1.0
7	0x3f800000	1.0

network_body.processors.0.normalizer.running_mean f4 [8]
0	0x00000000	0.0
1	0x00000000	0.0
2	0x00000000	0.0
3	0x00000000	0.0
4	0x00000000	0.0
5	0x00000000	0.0
6	0x00000000	0.0
7	0x00000000	0.0

network_body.processors.0.normalizer.running_variance f4 [8]
0	0x3f800000	1.0
1	0x3f800000	1.0
2	0x3f800000	1.0
3	0x3f800000	1.0
4	0x3f800000	1.0
5	0x3f800000	1.0
6	0x3f800000	1.0
7	0x3f800000	1.0

network_body._body_endoder.seq_layers.0.weight f4 [128, 8]
0	0xbdf3777f	-0.118880264
1	0xbea55790	-0.32293367
2	0x3e93cea0	0.2886858
3	0x3ea49a17	0.3214881
4	0x3d996eb8	0.07491821
5	0x3e8ede0e	0.2790379
6	0x3ec0cc54	0.3765589
7	0x3f19dfbb	0.6010701
8	0x3e65b780	0.22433281
9	0x3ee3c9a0	0.44489765
10	0xbf87fa74	-1.0623307
11	0x3ec01ea7	0.37523386
12	0x3e199df7	0.15001665
13	0xbeca2b40	-0.39486122
14	0x3ec9f5da	0.39445382
15	0xbe3469fb	-0.17618553
16	0x3f09b6f6	0.537948
17	0xbe9cd379	-0.3063009
18	0x3e31aab3	0.17350273
19	0x3dc6d282	0.0970812
20	0x3d8f3f85	0.06994537
21	0xbcf7c488	-0.03024508
22	0x3f15b10c	0.5847328
23	0x3e9c5e38	0.30540633
24	0xbeb31224	-0.34974778
25	0x3ebd5b81	0.36983874
26	0x3e21cda4	0.15801102
27	0x3e40f58a	0.18843666
28	0xbd86e001	-0.06585694
29	0xbe5f6087	-0.21814166
30	0xbe5eb1bd	-0.2174749
31	0xbf5e7bbd	-0.8690756
32	0x3f04c1c1	0.51858145
33	0x3e54b163	0.20770793
34	0xbd0a1fd2	-0.033721752
35	0x3e866d10	0.26255083
36	0x3e02e028	0.12780821
37	0xbe2d50df	-0.16925381
38	0xbd5fa971	-0.05460495
39	0xbe59849c	-0.21241993
40	0xbe80ff89	-0.25194958
41	0x3ca8559b	0.020548632
42	0x3e59e92d	0.21280356
43	0xbe12bd61	-0.14330055
44	0x3eaaf58b	0.3339046
45	0x3f02dfa3	0.5112249
46	0xbe9ab9fa	-0.30220014
47	0xbec9faa3	-0.39449033
48	0xbed5cc46	-0.4175741
49	0x3f278b35	0.6544679
50	0xbef5172d	-0.47869244
51	0xbfa1bbfb	-1.2635492
52	0xbd854559	-0.06507368
53	0x3e4ca637	0.19985281
54	0xbeb79585	-0.35856262
55	0x3e862890	0.26202822
56	0x3ed8c1f7	0.42335483
57	0xbe8a8c7d	-0.2706031
58	0xbdb4bf15	-0.088255085
59	0x3e11bd16	0.14232287
60	0xbe7f0f3f	-0.2490816
61	0xbec46ed2	-0.383658
62	0xbf25d38e	-0.6477593
63	0x3ca86715	0.020556966
64	0x3ee1a442	0.4407063
65	0xbf3ab045	-0.72925216
66	0x3df02d75	0.1172742
67	0x3d66a2cc	0.0563076
68	0x3c41d884	0.0118314065
69	0x3e52a68f	0.2057135
70	0x3f3ef659	0.74594647
71	0x3e0d68e7	0.13809548
72	0xbec0b319	-0.3763664
73	0x3dcd3528	0.100199044
74	0xbba2ed5a	-0.004972142
75	0xbe883d0d	-0.26609078
76	0x3e2b5d75	0.1673487
77	0x3cc19b0b	0.0236335
78	0x3dca7268	0.098851025
79	0xbe8cbf7b	-0.27489838
80	0xbf24fb0f	-0.64445585
81	0x3e309b9c	0.1724686
82	0xbe5c56fc	-0.21517557
83	0x3f093549	0.5359693
84	0xbf0bf96b	-0.54677457
85	0xbe9d4562	-0.30716997
86	0xbc3ccc43	-0.011523309
87	0xbdee9fad	-0.116515495
88	0xbdb83f7c	-0.08996484
89	0xbe9e85a0	-0.30961323
90	0x3f695cd9	0.911573
91	0xbd3961cd	-0.045259286
92	0x3f5c305a	0.8601128
93	0x3e1a350a	0.15059295
94	0xbe71e679	-0.23623075
95	0xbe9b54f2	-0.30338246
96	0xbf10f747	-0.56627315
97	0x3ef9e3b9	0.4880655
98	0xbe1f8909	-0.15579619
99	0x3eb5b75a	0.3549145
100	0xbe894ea9	-0.26817825
101	0xbebbac37	-0.36654827
102	0xbe687003	-0.22698979
103	0xbed429be	-0.41438097
104	0xbf0ca00c	-0.5493171
105	0x3d7b01a0	0.061280847
106	0x3e62c1ee	0.22144291
107	0xbde89a4c	-0.11357555
108	0x3df42487	0.119210295
109	0x3e45625c	0.19275802
110	0xbd995f64	-0.074888974
111	0x3e61a26d	0.22034617
112	0xbe400f56	-0.1875585
113	0x3dd5965d	0.1042907
114	0xbec3288d	-0.38116875
115	0xbe40499e	-0.18778083
116	0x3e5836e6	0.21114692
117	0x3e0bca85	0.13651474
118	0x3d2af024	0.041732922
119	0xbf142025	-0.5786155
120	0xbcf6499e	-0.0300644
121	0x3d98c5f7	0.07459634
122	0xbeef405e	-0.46728796
123	0xbf11058a	-0.56649077
124	0x3e3ff24d	0.18744774
125	0xbea63aa3	-0.3246661
126	0x3e8b7eed	0.27245274
127	0xbea02fc7	-0.3128645
128	0x3dc176cb	0.09446486
129	0xbd93d0e3	-0.07217576
130	0x3e06ae50	0.13152432
131	0x3ec8a9d4	0.3919207
132	0xbd44909b	-0.04798947
133	0x3f7780f0	0.9668112
134	0xbeb41d5c	-0.3517865
135	0xbed61098	-0.41809535
136	0x3e2a8a66	0.16654357
137	0x3eb83b86	0.35982913
138	0x3db59f31	0.08868254
139	0xbc9599b2	-0.018261764
140	0xbde919ee	-0.11381899
141	0x3eaaae20	0.33335972
142	0x3dcf11ae	0.10110794
143	0x3e59d70b	0.21273439
144	0x3cee16f1	0.029063674
145	0xbd786d1f	-0.06065094
146	0xbea2052e	-0.31644577
147	0x3f1d2d80	0.6139755
148	0xbe200613	-0.15627317
149	0xbf096a4e	-0.53677833
150	0xbe901f2f	-0.2814879
151	0xbddc620b	-0.10760888
152	0xbf0da40d	-0.55328447
153	0xbe84e5a3	-0.2595645
154	0x3e0e5c66	0.13902435
155	0xbe32f04c	-0.17474478
156	0x3e4d6aee	0.20060322
157	0x3ef79f44	0.48363698
158	0x3e7d86e2	0.24758485
159	0x3e5213da	0.20515385
160	0x3d446e2b	0.047956627
161	0xbdf09ccd	-0.117486574
162	0xbea442a8	-0.32082105
163	0x3e70d542	0.23518851
164	0xbcbd757e	-0.023127314
165	0x3db7bf66	0.08972053
166	0x3b632709	0.0034660718
167	0x3eaa14c9	0.33218983
168	0xbe69037c	-0.22755235
169	0x3e398864	0.18118435
170	0x3ea50ebc	0.32237804
171	0xbf3a2243	-0.7270853
172	0x3e1c4ed3	0.15264444
173	0xbc7e0a4b	-0.015505384
174	0xbe4b9c60	-0.19883871
175	0x3e237416	0.15962252
176	0xbe07727d	-0.13227268
177	0x3e88973c	0.26677883
178	0xbf0872fd	-0.5330046
179	0xbe22544e	-0.15852472
180	0xbf06e1a3	-0.52688044
181	0xbe8c3efe	-0.2739181
182	0x3d177d50	0.03698474
183	0xbecb57d9	-0.3971546
184	0xbe3ec76e	-0.18630764
185	0x3e951382	0.29116446
186	0xbd7c5760	-0.061606765
187	0xbee274e5	-0.44229808
188	0x3f6e9a11	0.93203837
189	0x3e3ee81b	0.18643229
190	0xbeb25fc6	-0.34838694
191	0xbde3d3e7	-0.111244015
192	0x3ecc6365	0.39919582
193	0x3e750a66	0.23929748
194	0xbe9b87c2	-0.30377012
195	0xbe60c47a	-0.2194995
196	0x3e8e99d2	0.2785173
197	0xbed3b27a	-0.41347104
198	0x3f0355f9	0.5130306
199	0xbead12f8	-0.33803535
200	0xbde4d85d	-0.111740805
201	0x3e8496c3	0.25896272
202	0x3f0479b8	0.5174823
203	0x3e66aa51	0.22525908
204	0xbe2597c3	-0.16171174
205	0xbe95f6f5	-0.29289976
206	0xbea6eb03	-0.32601175
207	0x3e6e6ff8	0.232849
208	0xbdf85f0d	-0.121275045
209	0xbd1ad17f	-0.037797447
210	0x3ec89f9d	0.39184275
211	0x3d2b55a6	0.041829728
212	0x3e86e21a	0.26344377
213	0x3d70d1b3	0.058793735
214	0x3d949f33	0.07256927
215	0xbf017f16	-0.5058454
216	0xbbeb72d2	-0.0071853185
217	0x3d7ce5cd	0.061742593
218	0x3ee29f64	0.4426223
219	0xbdfd3e7d	-0.12365434
220	0x3dc2c037	0.09509318
221	0x3cd8fbaf	0.0264872
222	0xbe32d32b	-0.17463367
223	0x3e227cb5	0.15867884
224	0xbdfa8687	-0.1223269
225	0xbf010887	-0.50403637
226	0x3f3b7959	0.73232037
227	0x3d31d692	0.04341752
228	0xbe340e12	-0.17583492
229	0x3d202d28	0.039105564
230	0xbeca4e36	-0.39512795
231	0xbf30b70f	-0.69029325
232	0xbef6becc	-0.4819244
233	0x3f5c97d1	0.86169153
234	0xbee33b15	-0.44381014
235	0x3e45beda	0.19311085
236	0xbe0fbf58	-0.14037836
237	0xbe9a63d1	-0.3015428
238	0x3e96ffce	0.29492038
239	0x3de634a7	0.112405114
240	0x3e491ef8	0.1964072
241	0xbe885a0d	-0.26631203
242	0x3ed01827	0.40643427
243	0xbe61eba6	-0.22062549
244	0x3eb33ffa	0.35009748
245	0x3e65bf72	0.22436312
246	0xbdcb5b1d	-0.09929488
247	0x3c815b97	0.015790744
248	0xbdf76265	-0.12079314
249	0x3dafb845	0.085800685
250	0x3e784c00	0.24247742
251	0x3dffe300	0.12494469
252	0xbeb3ee19	-0.35142592
253	0x3f2ab672	0.6668464
254	0xbd4de94f	-0.05027133
255	0x3eecc101	0.46241

network_body._body_endoder.seq_layers.0.bias f4 [128]
0	0x3b67e98a	0.0035387003
1	0x3b24eb8a	0.0025164806
2	0x3b88e42f	0.004177592
3	0xbbbee9b6	-0.0058262004
4	0x3b5cd9a6	0.0033699065
5	0xbc16a3f3	-0.009194362
6	0xbc1ec1d9	-0.009689772
7	0x3c590a08	0.013247021
8	0xbad9aeb1	-0.0016607848
9	0x3aecb2c2	0.0018058645
10	0xbc6fa22f	-0.01462607
11	0xbc062589	-0.00818766
12	0x3bc2c840	0.005944282
13	0xbc30dee2	-0.010795327
14	0xbc1b1f45	-0.009467904
15	0x3bd53c58	0.0065074377
16	0xbb25724a	-0.0025245124
17	0xbbcc3a57	-0.0062325406
18	0xbc2c854c	-0.010529827
19	0x3c18437e	0.009293435
20	0x3bb821f4	0.005619282
21	0x3c943082	0.018089537
22	0x3aa116fb	0.0012290174
23	0xbc74ed93	-0.01494922
24	0xbcfb5839	-0.030681716
25	0x3c6ee955	0.014581998
26	0xbb3759ab	-0.002797703
27	0xba90116d	-0.0010991521
28	0xbca7845c	-0.020448856
29	0xbb50a1b3	-0.0031834661
30	0xbbfdde35	-0.0077474364
31	0xb950482e	-0.00019863315
32	0xbba2891a	-0.0049601914
33	0xbc08c3da	-0.008347476
34	0xbc95227e	-0.018204924
35	0xbbbeac8b	-0.0058189086
36	0x3c6a6d09	0.014308223
37	0x3bac1482	0.005251468
38	0xbc1bf9be	-0.009519992
39	0x3b1eec5d	0.002424977
40	0xbc93b29b	-0.018029502
41	0x39379cd5	0.00017510664
42	0x3b137f66	0.0022506355
43	0xbbd3040b	-0.006439691
44	0x3c43872b	0.011934082
45	0xbb926da6	-0.0044686375
46	0xbc7e149a	-0.0155078415
47	0xbb33d5e3	-0.002744072
48	0xbb6f6d73	-0.0036533743
49	0xbb70cbaf	-0.0036742499
50	0x3b69e494	0.0035689222
51	0xbbd9b3e2	-0.006643758
52	0xbc7630d2	-0.015026288
53	0x3c5a87ff	0.013338088
54	0xbb0b5cfe	-0.0021265144
55	0x3b44bba9	0.003001908
56	0xbb866e8d	-0.004102534
57	0xbb47ca5d	-0.0030485608
58	0x3b4d66df	0.0031341834
59	0xb7ac1939	-2.0515743e-05
60	0xb98eb5f2	-0.0002721991
61	0x3bcc320e	0.006231553
62	0x3ba2707b	0.0049572564
63	0xbc0690e4	-0.008213256
64	0xbbdf77f2	-0.0068197185
65	0x39f91093	0.0004750533
66	0x3824c180	3.9280858e-05
67	0x3c11071d	0.008851794
68	0xbc257a46	-0.010099953
69	0x3bd164f4	0.0063902084
70	0xbc3c555e	-0.0114949625
71	0x3ab1e3fb	0.0013571972
72	0xbba8e1af	-0.0051538567
73	0xbb0cabfb	-0.0021464813
74	0x3c3f1b7a	0.011664266
75	0x3b04dd21	0.0020273405
76	0x3b49cbf9	0.0030791743
77	0x3bc75c11	0.006083973
78	0xbb3ea6cd	-0.002909112
79	0x3aa2f7ab	0.001243343
80	0x3c281f48	0.010261364
81	0xb9f09b66	-0.00045892148
82	0x3bea740c	0.007154947
83	0xbc3e1bf6	-0.011603346
84	0xb9c4d2dd	-0.0003754114
85	0x3af02c70	0.001832379
86	0xbb803ed9	-0.003913742
87	0x3c7b2bc8	0.0153302625
88	0xbbae0a5c	-0.0053112935
89	0x3b85f0d5	0.0040875473
90	0xbbd4b63d	-0.006491451
91	0x3b5c5e9b	0.0033625725
92	0xbb16056a	-0.002289141
93	0x3c904df5	0.017615298
94	0x3be77d0e	0.007064468
95	0x3cac3d58	0.021025345
96	0x3a631d76	0.0008663753
97	0xbb440630	-0.0029910915
98	0xbbc45b3d	-0.0059923218
99	0xb90a3975	-0.0001318211
100	0xba4e09ef	-0.00078597566
101	0xbc734247	-0.014847345
102	0xbb95f460	-0.004576251
103	0xbaa7628c	-0.0012770458
104	0x3aee41c3	0.0018177558
105	0x3c094089	0.008377203
106	0x3b32d546	0.0027287765
107	0xb9d24777	-0.00040107567
108	0xbc3d953e	-0.011571227
109	0x3a9606af	0.0011446084
110	0xb8a30fd7	-7.775396e-05
111	0xba3f8548	-0.0007305932
112	0xbb084752	-0.0020794463
113	0x3b75984c	0.003747481
114	0x3c0541eb	0.008133392
115	0xbc6ca157	-0.014442763
116	0xbbb473e2	-0.0055069784
117	0xbc734500	-0.014847994
118	0xbafc8427	-0.0019265459
119	0x3a97f42d	0.0011593156
120	0xbbe37647	-0.00694159
121	0xbb6f638e	-0.0036527845
122	0x3a23cbff	0.00062483543
123	0x3bd61347	0.0065330598
124	0xbc0504d6	-0.008118829
125	0x3b83f5f0	0.004027121
126	0x3b9e3c4d	0.0048289658
127	0xb986b068	-0.00025689905

network_body._body_endoder.seq_layers.2.weight f4 [128, 128]
0	0xbd168f05	-0.036757488
1	0x3cafc1ce	0.021454718
2	0xbdb8dc66	-0.09026413
3	0xbe30d829	-0.17269959
4	0xbdee5050	-0.11636412
5	0x3e2ff13b	0.17181866
6	0x3d017ec3	0.03161503
7	0x3bc79d57	0.0060917544
8	0xbe11efdd	-0.14251657
9	0xbccbba95	-0.024869243
10	0xbe09f92e	-0.13473961
11	0xbd91c27b	-0.07117172
12	0xbcd38f85	-0.025825271
13	0x3e04b7c1	0.12960722
14	0x3d2946bf	0.041327234
15	0x3c2ab8e4	0.010420058
16	0x3dbe2faa	0.09286435
17	0xbe698727	-0.22805463
18	0x3d6a3597	0.057180014
19	0x3d8f0f31	0.069853194
20	0x3e24e001	0.16101076
21	0xbdba1330	-0.09085691
22	0x3dfb54ff	0.12272071
23	0x3bf11bad	0.0073580355
24	0xbdab02c7	-0.08350139
25	0xbbfe73cc	-0.007765269
26	0xbcae3892	-0.02126721
27	0x3cc2f76b	0.023799619
28	0x3e209c67	0.15684663
29	0xbe0faf21	-0.1403165
30	0x3e0c1cbd	0.13682838
31	0xbe83ec50	-0.2576623
32	0xbdd91c11	-0.10601056
33	0x3d5eb8d6	0.054375492
34	0x3d474a07	0.048654582
35	0x3c584bfb	0.013201709
36	0xbd91da10	-0.0712167
37	0xbe2b708e	-0.16742155
38	0xbe2ccb41	-0.1687441
39	0x3bfb8438	0.007675674
40	0x3d1fd85d	0.0390247
41	0xbd4bfa17	-0.04979905
42	0x3dc5b0e8	0.09652883
43	0xbd82e6ac	-0.063916534
44	0xbba9ba97	-0.005179714
45	0x3d4ad125	0.049515862
46	0x3d8b7615	0.06809632
47	0x3de60ced	0.11232934
48	0x3de13599	0.10996551
49	0x3be60e4c	0.0070207473
50	0x3dabe1cf	0.08392679
51	0xbd2cc56a	-0.042180456
52	0xbddee345	-0.10883192
53	0xbe20232c	-0.15638417
54	0xbd176249	-0.036958966
55	0x3deca412	0.115547314
56	0x3e481d9a	0.19542542
57	0xbddee6a0	-0.10883832
58	0xbe0788fc	-0.13235849
59	0x3d186ad9	0.037211273
60	0x3d4ac7db	0.049507003
61	0x3def8aa1	0.11696363
62	0xbe110dc8	-0.14165413
63	0xbc5c7501	-0.01345563
64	0xbda4a746	-0.080397174
65	0xbd36d7a9	-0.044639263
66	0xbdfdd428	-0.12393981
67	0xbdc6311b	-0.09677335
68	0x3c3771e6	0.011196589
69	0x3d8932fb	0.06699177
70	0xbd80ae24	-0.06283215
71	0xbe048e66	-0.12944946
72	0xbd98dfc8	-0.07464558
73	0x3d478d83	0.04871894
74	0x3d50c1c1	0.050966028
75	0x3d7928e1	0.06083
76	0xbd00e92c	-0.03147237
77	0xbda43629	-0.08018143
78	0x3e012052	0.12609985
79	0xbd570e34	-0.05250378
80	0x3d2f3614	0.042776182
81	0xbc1d7d00	-0.009612322
82	0x3dda99a1	0.10673834
83	0xbe2cf5c3	-0.16890626
84	0x3d4a88c0	0.04944682
85	0x3df30d73	0.118677996
86	0x3d5da6d7	0.05411419
87	0xbe2f9c1b	-0.17149393
88	0x3dad94e6	0.08475666
89	0xbdbaf285	-0.09128288
90	0xbdb6a238	-0.089176595
91	0xbdf41917	-0.11918848
92	0x3d36dbd3	0.044643234
93	0x3e1d313e	0.15350816
94	0xbe1c03fc	-0.15235895
95	0x3bc82c0d	0.006108767
96	0x3e0cd486	0.13752946
97	0x3dbcbddd	0.09215901
98	0xbd093cf3	-0.03350539
99	0xbcb9a364	-0.022660919
100	0xbc36b16b	-0.011150698
101	0x3e056dcf	0.1303017
102	0x3ce3700a	0.027763385
103	0x3dbcaae7	0.092122845
104	0x3e602d6b	0.21892326
105	0xbcec9a60	-0.028882205
106	0x3e314888	0.17312825
107	0xbe35ce6a	-0.17754522
108	0x3e2c5f32	0.16833189
109	0x3c18206f	0.0092850765
110	0xbba8d1a1	-0.005151943
111	0x3d9d22b6	0.07672636
112	0xbdcaec8c	-0.09908399
113	0xbdf911cd	-0.12161598
114	0xbd12d519	-0.035847757
115	0x3e262b46	0.16227445
116	0x3c20a1a3	0.009804162
117	0xbba67671	-0.0050800373
118	0x3d58895c	0.05286537
119	0xbda1d495	-0.07901875
120	0x3e10589f	0.14096306
121	0x3d4cd47b	0.050007325
122	0xbd7068c2	-0.058693655
123	0xbbb2ada8	-0.0054528303
124	0xbcdbade4	-0.026816316
125	0x3d16a9e6	0.03678312
126	0xbd40fda3	-0.047116887
127	0xbcb2fe2c	-0.021849714
128	0xbb96e3ab	-0.004604777
129	0xbc894c9f	-0.016760169
130	0xbe04997b	-0.12949173
131	0x3d0fbc6a	0.035091795
132	0x3e1f803e	0.15576264
133	0xbd606574	-0.054784253
134	0x3d031af1	0.032008115
135	0x3e0e4f66	0.13897476
136	0xbcff3cdf	-0.031156955
137	0xbde67250	-0.11252272
138	0x3d203493	0.03911264
139	0x3d870556	0.065928146
140	0xbe13c579	-0.14430799
141	0x3d973842	0.07383777
142	0x3de4e02c	0.1117557
143	0xbd3f3c99	-0.04668865
144	0xbbd423cf	-0.0064739953
145	0xbe39e35d	-0.18153138
146	0x3de374ec	0.111062855
147	0x3c8db8d6	0.01730005
148	0x3dca2e49	0.098721094
149	0xbb814c74	-0.0039458815
150	0xbda39b4a	-0.079886034
151	0x3d804656	0.062634155
152	0xbe0f3a84	-0.13987166
153	0xbc8f3027	-0.017479016
154	0x3d3caeab	0.046065014
155	0x3e063f77	0.13110147
156	0x3e64499a	0.22293702
157	0x3e46e683	0.1942387
158	0x3e7e1380	0.24812126
159	0x3e06f71d	0.13180204
160	0x3ce52a8c	0.02797439
161	0x3c00254c	0.007821392
162	0x3d9e45fb	0.077281915
163	0x3b160335	0.0022890095
164	0x3d0e3f61	0.03472841
165	0xbd37765b	-0.044790607
166	0xbd7fd0b5	-0.062454898
167	0x3e3a6d93	0.18205862
168	0x3d637cb2	0.05553884
169	0xbe4382a2	-0.19092801
170	0xbcbee4ee	-0.023302522
171	0x3d622ce2	0.055218585
172	0x3e459b48	0.19297516
173	0xbda2cdc3	-0.07949402
174	0x3c2e81e7	0.010651088
175	0x3dd603b2	0.104499236
176	0xbdc6afc8	-0.09701496
177	0x3dacfbad	0.08446441
178	0x3d719f52	0.05898983
179	0xbc29d6de	-0.01036617
180	0x3db93a5c	0.09044334
181	0x3de72bac	0.112876266
182	0xbd84a50b	-0.06476792
183	0x3da98684	0.0827761
184	0xbd1e7a3b	-0.038690787
185	0x3c35aaae	0.0110880565
186	0xbd1cc04b	-0.038269322
187	0xbd9fe994	-0.07808223
188	0x3e1f1642	0.15535834
189	0xbdba02b3	-0.09082546
190	0xbe4b362d	-0.19844885
191	0xbdd2c7f1	-0.10292042
192	0xbd8d5393	-0.06900706
193	0xbc0ae990	-0.008478537
194	0x3d8e5d21	0.06951357
195	0x3cff7dae	0.031187858
196	0xbda9e35e	-0.0829532
197	0xbd449672	-0.04799504
198	0x3c877fb2	0.016540382
199	0x3caca629	0.021075325
200	0x3cbf0320	0.02331692
201	0xbdd77ff5	-0.10522453
202	0xbca35d8c	-0.019942068
203	0x3d7386f9	0.05945489
204	0x3dd37473	0.10324945
205	0xbe0c770e	-0.13717291
206	0xbdb1df81	-0.08685208
207	0xbce4f606	-0.027949344
208	0x3d89dc73	0.067315005
209	0xbd5c2ea8	-0.053755432
210	0xbb95d59f	-0.0045725848
211	0x3d5851bd	0.052812327
212	0xbb804ea0	-0.003915623
213	0xbd77933c	-0.060443148
214	0xbd579901	-0.05263615
215	0x3dcbd148	0.099520266
216	0x3d25eacc	0.040507123
217	0x3d0e7cc6	0.034786962
218	0xbbf8fea2	-0.007598714
219	0x3d21542f	0.039386924
220	0xbc3e6e43	-0.011622968
221	0xbd8a2a18	-0.0674631
222	0x3df92981	0.12166119
223	0xbc660099	-0.014038228
224	0x3cd6e22d	0.026230896
225	0x3ccec427	0.025240017
226	0x3e62f728	0.22164595
227	0xbe6033ea	-0.21894804
228	0xbccd8ed2	-0.025092516
229	0x3dd9c54b	0.10633334
230	0xbd660275	-0.056154687
231	0x3e3b3e8c	0.18285578
232	0xbe592f14	-0.21209365
233	0x3d4c8e73	0.049940538
234	0x3dca41da	0.098758414
235	0xbe147226	-0.14496669
236	0xbe21ca15	-0.15799744
237	0x3d0cb112	0.034348555
238	0x3d97821b	0.073978625
239	0xbc9e1797	-0.019298358
240	0xbd9c4172	-0.0762967
241	0xbaa895f9	-0.0012862078
242	0xbd89fa73	-0.067372225
243	0xbd7ed4cb	-0.062214654
244	0x3d806572	0.06269349
245	0x3e11d134	0.14239961
246	0xbd133a1a	-0.03594408
247	0x3e0256d5	0.12728436
248	0x3d3f1c10	0.04665762
249	0xbce0c654	-0.02743832
250	0xbc984dff	-0.018591879
251	0xbd12f332	-0.03587646
252	0x3d098139	0.033570502
253	0x3b8610f9	0.0040913788
254	0xbe3c5d7a	-0.18395033
255	0xbcaf68cf	-0.021412281

network_body._body_endoder.seq_layers.2.bias f4 [128]
0	0xbbcd5048	-0.006265674
1	0xbb503e8f	-0.003177557
2	0xbc00f019	-0.007869744
3	0xbc57066d	-0.013124091
4	0x3b2f191d	0.002671785
5	0xbbfb3117	-0.007665764
6	0x3bbd1030	0.005769752
7	0xbbb32721	-0.005467311
8	0x3b5546cb	0.0032543417
9	0xbb8eeda0	-0.004361823
10	0xbb93e2c1	-0.004513115
11	0x389a22c6	7.349769e-05
12	0xbb158a1d	-0.0022817918
13	0x3c0d010a	0.008606205
14	0x3bb00d41	0.0053726737
15	0x3acf4f2f	0.0015816445
16	0xbb439c18	-0.0029847678
17	0x3bef7113	0.0073071807
18	0xbba4ce9a	-0.0050295116
19	0xbc96667e	-0.018359419
20	0x39aa5727	0.0003248986
21	0x3a1f2018	0.0006070151
22	0xbbac694a	-0.005261575
23	0x3b3cdb80	0.0028817356
24	0xbbdc3a3f	-0.0067208107
25	0x3bbaee48	0.005704675
26	0x3c7e697c	0.015528079
27	0x3c0cfaa4	0.008604679
28	0xbb977f98	-0.0046233647
29	0xba8aefb3	-0.00106
30	0xbb960413	-0.0045781224
31	0x3b0007b9	0.0019535853
32	0x3bf8e5f1	0.0075957705
33	0xbbf89e16	-0.0075872047
34	0xbc7f2b39	-0.01557427
35	0xbafd476c	-0.0019323654
36	0x3b4dfee9	0.0031432456
37	0xbc26e691	-0.010186807
38	0x3bc68d21	0.0060593043
39	0xbbb5b45c	-0.005545182
40	0x3c194844	0.009355608
41	0xbbca42fb	-0.0061725355
42	0xbc8997fc	-0.016796105
43	0x3ba26537	0.0049559134
44	0xbc2356e6	-0.009969449
45	0x3b1655d8	0.002293935
46	0xbb40596c	-0.0029350175
47	0xbb9c87b6	-0.00477692
48	0x3b055d8c	0.0020349948
49	0x3ab3e9cc	0.0013726293
50	0xbbf1d6c6	-0.0073803393
51	0xba4caaf0	-0.0007807454
52	0xba907eb8	-0.0011024093
53	0x3b56f6f6	0.0032801009
54	0xb9546029	-0.00020253718
55	0xbc95a23c	-0.018265836
56	0xbc6edccb	-0.014579008
57	0xba45d4c8	-0.00075466605
58	0x3c9d4f63	0.019202894
59	0x3b877d04	0.004134776
60	0xbbb92592	-0.0056502307
61	0xbc706a3b	-0.014673765
62	0x3b2a632c	0.0025999052
63	0x3c196500	0.009362459
64	0xbb33a7fe	-0.0027413364
65	0xbbf0a6e0	-0.007344112
66	0xbb3033e0	-0.0026886389
67	0xbb640f84	-0.0034799287
68	0xb787227f	-1.6109318e-05
69	0x39152271	0.00014222578
70	0x3bf78957	0.007554214
71	0xbaa43a97	-0.0012529668
72	0xbc81ee33	-0.015860653
73	0x3ba4af37	0.00502577
74	0xba90d9ee	-0.0011051276
75	0x3c019179	0.007908219
76	0xbbbd5879	-0.005778369
77	0x3ba2971f	0.0049618627
78	0x3a6e9908	0.0009101783
79	0x3c51a3b1	0.012795375
80	0x3bdda614	0.006764183
81	0xbb9bce27	-0.0047548
82	0xbbe7f2cd	-0.0070785047
83	0xba27bbb3	-0.0006398514
84	0x3ac51eac	0.0015039048
85	0xbb9d75b4	-0.004805291
86	0xbc0d0b3d	-0.008608636
87	0x3bd44477	0.006477888
88	0x3bb47e4c	0.00550822
89	0x3bff0090	0.0077820495
90	0x3bba0eeb	0.005678048
91	0x3c1af444	0.0094576515
92	0xbc33a2b0	-0.010964081
93	0xbc12233d	-0.008919534
94	0xbb4a2bef	-0.003084894
95	0xbc1d5450	-0.009602621
96	0x39cebee7	0.00039433615
97	0x3bb84245	0.0056231343
98	0x3c12ae7b	0.008952732
99	0xbb8e1037	-0.004335429
100	0x3bd70631	0.0065620174
101	0x3b30e571	0.0026992226
102	0x3b55461d	0.0032543011
103	0x3bf40b05	0.0074476027
104	0xbc031835	-0.008001377
105	0x3bec8caa	0.007218917
106	0x3beafa46	0.007170948
107	0xbbaca27c	-0.005268393
108	0xbaa64f2f	-0.0012688393
109	0xbc1bfbb1	-0.009520457
110	0x3b25ae52	0.0025280905
111	0xbb1fd99e	-0.0024391185
112	0x3b185554	0.002324422
113	0x3ba7132f	0.0050987224
114	0x38957886	7.127323e-05
115	0xbc1283d7	-0.008942566
116	0x3c023a15	0.007948418
117	0x3b8fc166	0.0043870686
118	0xbc03c273	-0.008041966
119	0xbb8567e7	-0.004071224
120	0xbc1feada	-0.009760583
121	0x3c072be5	0.008250211
122	0x3a982d80	0.001161024
123	0xbb0f4631	-0.0021861906
124	0xbbcc076d	-0.006226471
125	0x3bd39e32	0.0064580673
126	0x3b565cae	0.003270905
127	0xbc30677d	-0.010766861

action_model._continuous_distribution.log_sigma f4 [1, 2]
0	0xbe1f3556	-0.1554769
1	0xbe5e7f4b	-0.21728246

action_model._continuous_distribution.mu.weight f4 [2, 128]
0	0xbc48b211	-0.012249486
1	0xbc78bcb3	-0.015181708
2	0xbbe260ef	-0.006908528
3	0xbc61a0ab	-0.013771216
4	0xbbaf907e	-0.005357801
5	0xbbc4ef3e	-0.006009965
6	0x3bfdd002	0.0077457437
7	0xbc8b42f2	-0.016999695
8	0xbbb7151f	-0.0055872346
9	0x3c7688f7	0.015047303
10	0xbc52124c	-0.012821745
11	0x3c263ca6	0.010146296
12	0xbc622a50	-0.013804033
13	0xba93a333	-0.0011263847
14	0x3c37b514	0.011212606
15	0xbc6085d3	-0.013703781
16	0xbc2e72c4	-0.010647479
17	0x3c50147d	0.012700197
18	0x3b7a356b	0.0038178812
19	0xbce3b5d6	-0.027796667
20	0x3cac713e	0.021050092
21	0xbc879507	-0.016550554
22	0xbc1eb5f9	-0.00968694
23	0x3c413a17	0.011793635
24	0xbbe5ba2c	-0.007010719
25	0xbc9c0a56	-0.019047897
26	0xbcf9f6d1	-0.030513199
27	0x3c18fffe	0.009338377
28	0xbc63b789	-0.013898739
29	0x3cab68b1	0.020923944
30	0x3c9a846c	0.018861972
31	0xbcbe30a2	-0.02321655
32	0x3b6c9b79	0.003610341
33	0xba865432	-0.0010248481
34	0xbc349de2	-0.01102397
35	0xbc3ef55c	-0.011655178
36	0xbc9eb1a7	-0.01937182
37	0xbc14eaf7	-0.009089223
38	0x3c246a1e	0.010035066
39	0x3aa1955e	0.001232784
40	0x3c1ee88d	0.009698999
41	0x3a9a8b22	0.0011790732
42	0xbc6c5d51	-0.014426545
43	0xbca0bbee	-0.019620862
44	0x3caf7dc6	0.021422278
45	0x3cac1d60	0.0210101
46	0x3c8cd7ff	0.017192839
47	0xbc3e7926	-0.011625564
48	0x3c2e846d	0.01065169
49	0xbc8cfbc4	-0.017209895
50	0xbbac6aed	-0.00526177
51	0xbc984b46	-0.01859058
52	0xbcd8b20a	-0.026452083
53	0x3c92faef	0.01794192
54	0x3c7facb9	0.015605145
55	0xbc2c64ed	-0.010522109
56	0xbc5b827e	-0.013397811
57	0x3c678b9d	0.0141324075
58	0x3c54338f	0.012951746
59	0xbb30af96	-0.0026960126
60	0xbb542419	-0.0032370149
61	0x3c9a8d0a	0.01886608
62	0x3ca3e224	0.020005293
63	0x3c068d25	0.008212362
64	0x3c9af2e3	0.018914646
65	0xbba55b98	-0.005046319
66	0x3cab6d32	0.020926092
67	0xb9b8d7a7	-0.00035255888
68	0x3c53b6cc	0.012922
69	0xbc77cb8c	-0.015124213
70	0xbc948444	-0.018129475
71	0x3c9bbaa5	0.019009897
72	0xbc3c2797	-0.011484048
73	0x3c7c48bd	0.0153982015
74	0xbc8aeaa8	-0.016957596
75	0x3bd0d607	0.0063731703
76	0xbc3d013b	-0.011535938
77	0x3b81ef79	0.003965315
78	0xbc83be74	-0.016082026
79	0x3c158908	0.009126909
80	0x3bbe92bb	0.0058158315
81	0x3ca0b9c3	0.019619828
82	0xbbfbf03e	-0.007688551
83	0xbca5cfd5	-0.020240704
84	0x3cf1b1e7	0.029503776
85	0x3c1355b3	0.0089926
86	0xbc58e0fa	-0.013237232
87	0x3b06abc2	0.0020549153
88	0xbc90f369	-0.017694192
89	0x3c27c140	0.0102389455
90	0x3bedab44	0.0072530825
91	0x3c2ef453	0.010678369
92	0xbc8c2f56	-0.017112415
93	0xbc4db8d0	-0.01255627
94	0x3c9d8e2d	0.019232834
95	0xbc1f424a	-0.009720394
96	0x3d1a8c49	0.037731443
97	0x3be355bb	0.00693771
98	0xbcbf3b2d	-0.023343647
99	0xbc28b199	-0.010296249
100	0xbcb0297b	-0.021504154
101	0x3c8235ae	0.015894737
102	0xbc2d2e17	-0.010570071
103	0x3c799ed6	0.015235623
104	0xb9dd03c0	-0.000421552
105	0x3b9bd06f	0.004755072
106	0x3b660ff0	0.0035104714
107	0x3ca4fd45	0.0201403
108	0x3c93603d	0.017990226
109	0xbb65b47d	-0.0035050206
110	0x3c86f6f6	0.016475182
111	0xbc6b6372	-0.014366971
112	0x3c3a8d4e	0.011386229
113	0x3a92b34b	0.001119235
114	0x3c3fab3e	0.011698542
115	0xbbe4093e	-0.0069591096
116	0x3b864f69	0.004098822
117	0xbb9090ad	-0.004411778
118	0xbc549a2a	-0.012976209
119	0xbc0abdce	-0.0084681045
120	0xbc28ac10	-0.010294929
121	0x3c0988d4	0.008394439
122	0x3c790fce	0.015201522
123	0xbc97d615	-0.0185347
124	0x3a4cc81f	0.0007811803
125	0x3b9667eb	0.0045900247
126	0xbc7edf52	-0.015556173
127	0x3b7fa59e	0.0039008628
128	0xbc00bab3	-0.007857013
129	0x3be5d61f	0.0070140506
130	0xbc37263b	-0.011178548
131	0xbc56d640	-0.013112605
132	0x3c79b34b	0.015240501
133	0xbc90926d	-0.017647946
134	0x3ca7b42e	0.020471659
135	0xbc217195	-0.00985374
136	0x3c4f67fd	0.01265907
137	0x3bc41d35	0.005984927
138	0xbae2951a	-0.0017286867
139	0xbbb40f2e	-0.0054949736
140	0xbc69ab3f	-0.01426202
141	0x3c865634	0.016398527
142	0x3c0cafbb	0.008586819
143	0xbba82dbd	-0.0051324056
144	0xbc9092ca	-0.01764812
145	0x3be27deb	0.0069119832
146	0xbcedeaf7	-0.029042704
147	0xbb80cda7	-0.0039307657
148	0x3c243156	0.010021528
149	0xbc8698cb	-0.01643028
150	0xbc8303d1	-0.01599303
151	0x3c5e86cc	0.013581943
152	0xbd12a401	-0.035800938
153	0xbc2d3911	-0.010572688
154	0xbc72a797	-0.014810464
155	0x3c74d834	0.014944125
156	0xbbddeb91	-0.0067724665
157	0x3bd30bde	0.0064406237
158	0x3b501bbb	0.003175481
159	0xbca95688	-0.020671144
160	0x3c8c4661	0.017123403
161	0xbc89d177	-0.016823513
162	0xbc75d307	-0.015003926
163	0xbb91f041	-0.0044536893
164	0xbc711558	-0.014714561
165	0xbc5d995b	-0.013525332
166	0x3c603399	0.013684177
167	0xbbfa8deb	-0.0076463125
168	0x3c9dccf6	0.019262772
169	0xbcdad355	-0.0267121
170	0xbc77f45e	-0.015133945
171	0xbc610afe	-0.013735531
172	0xb9b70430	-0.000349076
173	0x3ba84577	0.005135234
174	0x3bc3a245	0.005970272
175	0xbbdc0da6	-0.006715494
176	0x3b8f73d2	0.0043778205
177	0xbc4a3cdd	-0.0123436125
178	0xbc5422bc	-0.012947734
179	0xb99f4fd2	-0.00030386314
180	0xbc1c968f	-0.00955738
181	0x3be5ea9b	0.0070164925
182	0x3c5d1302	0.013493301
183	0xbc4d3806	-0.012525564
184	0xbc7ec6ef	-0.015550359
185	0x3c497460	0.012295812
186	0x3c7651b6	0.01503413
187	0x3cbcf5aa	0.02306636
188	0xbc93b04c	-0.0180284
189	0x3be502ed	0.006988874
190	0x37e0df7f	2.6806954e-05
191	0x3ca713b2	0.020395134
192	0x3c13142f	0.00897698
193	0xbd00f8c4	-0.03148724
194	0x3c2ef054	0.010677416
195	0xbbfef8c0	-0.007781118
196	0xbb9052b1	-0.004404389
197	0xbc72f179	-0.014828079
198	0xbbbdc111	-0.0057908376
199	0x3c873ea8	0.016509369
200	0xbc8204d7	-0.015871448
201	0x3c8a0f7d	0.016853089
202	0xbb208a5c	-0.002449653
203	0x3c17382b	0.0092297
204	0xbbe94d02	-0.0071197757
205	0x3c84b02c	0.016197287
206	0xbc50a541	-0.012734712
207	0x3c57a251	0.013161258
208	0x3cbcb746	0.02303661
209	0x3b82f82d	0.00399687
210	0xbc62b77f	-0.013837694
211	0xbc2ff51d	-0.010739592
212	0x3c91c7df	0.017795501
213	0xbcca864b	-0.024722239
214	0xbcf86149	-0.030319827
215	0x3cc4589a	0.02396803
216	0xbb88809f	-0.0041657235
217	0x3c58edc6	0.013240283
218	0x3c5f4a9c	0.013628628
219	0x3be8382e	0.0070867753
220	0x398ba76f	0.00026636894
221	0xbc2f4c61	-0.0106993625
222	0x3c576f49	0.013149091
223	0xbc6b7b89	-0.014372715
224	0x3c416aff	0.011805295
225	0x3c340beb	0.01098917
226	0xbc55eef1	-0.013057456
227	0xbb30efc0	-0.002699837
228	0xbc73c7a7	-0.014879144
229	0x3c057f35	0.008148004
230	0x3bd76a1f	0.00657393
231	0x3c81237f	0.015763996
232	0xbc0865bf	-0.008325039
233	0x3cdb0a30	0.026738256
234	0x3cc514a6	0.024057698
235	0x3ab48a5e	0.0013774147
236	0x3c776350	0.015099362
237	0xbc7fc988	-0.015612014
238	0x3ba71b41	0.0050996845
239	0xbc564ad7	-0.013079367
240	0x3c351ff8	0.011054985
241	0x3ccc3b32	0.02493057
242	0xbbef18e6	-0.0072966693
243	0xbcae3100	-0.0212636
244	0x3c34da93	0.01103844
245	0x3cc6ca82	0.024266485
246	0xbba874bd	-0.0051408694
247	0xbcc34d4b	-0.023840567
248	0xbbfb4d97	-0.0076691615
249	0x3ca9133f	0.02063906
250	0x3b019b39	0.0019776358
251	0xbbcd0f30	-0.006257914
252	0xbcc3bd7c	-0.023894064
253	0x3cb149df	0.02164167
254	0xbc0900bb	-0.008361991
255	0xbc3f6270	-0.011681184

action_model._continuous_distribution.mu.bias f4 [2]
0	0x3b0111a5	0.0019694355
1	0x3b4de8b4	0.003141922

exp_avg f4 [128, 8]
0	0x00000000	0.0
1	0x00000000	0.0
2	0x00000000	0.0
3	0x00000000	0.0
4	0x00000000	0.0
5	0x00000000	0.0
6	0x00000000	0.0
7	0x00000000	0.0
8	0x00000000	0.0
9	0x00000000	0.0
10	0x00000000	0.0
11	0x00000000	0.0
12	0x00000000	0.0
13	0x00000000	0.0
14	0x00000000	0.0
15	0x00000000	0.0
16	0x00000000	0.0
17	0x00000000	0.0
18	0x00000000	0.0
19	0x00000000	0.0
20	0x00000000	0.0
21	0x00000000	0.0
22	0x00000000	0.0
23	0x00000000	0.0
24	0x00000000	0.0
25	0x00000000	0.0
26	0x00000000	0.0
27	0x00000000	0.0
28	0x00000000	0.0
29	0x00000000	0.0
30	0x00000000	0.0
31	0x00000000	0.0
32	0x00000000	0.0
33	0x00000000	0.0
34	0x00000000	0.0
35	0x00000000	0.0
36	0x00000000	0.0
37	0x00000000	0.0
38	0x00000000	0.0
39	0x00000000	0.0
40	0x00000000	0.0
41	0x00000000	0.0
42	0x00000000	0.0
43	0x00000000	0.0
44	0x00000000	0.0
45	0x00000000	0.0
46	0x00000000	0.0
47	0x00000000	0.0
48	0x00000000	0.0
49	0x00000000	0.0
50	0x00000000	0.0
51	0x00000000	0.0
52	0x00000000	0.0
53	0x00000000	0.0
54	0x00000000	0.0
55	0x00000000	0.0
56	0x00000000	0.0
57	0x00000000	0.0
58	0x00000000	0.0
59	0x00000000	0.0
60	0x00000000	0.0
61	0x00000000	0.0
62	0x00000000	0.0
63	0x00000000	0.0
64	0x00000000	0.0
65	0x00000000	0.0
66	0x00000000	0.0
67	0x00000000	0.0
68	0x00000000	0.0
69	0x00000000	0.0
70	0x00000000	0.0
71	0x00000000	0.0
72	0x00000000	0.0
73	0x00000000	0.0
74	0x00000000	0.0
75	0x00000000	0.0
76	0x00000000	0.0
77	0x00000000	0.0
78	0x00000000	0.0
79	0x00000000	0.0
80	0x00000000	0.0
81	0x00000000	0.0
82	0x00000000	0.0
83	0x00000000	0.0
84	0x00000000	0.0
85	0x00000000	0.0
86	0x00000000	0.0
87	0x00000000	0.0
88	0x00000000	0.0
89	0x00000000	0.0
90	0x00000000	0.0
91	0x00000000	0.0
92	0x00000000	0.0
93	0x00000000	0.0
94	0x00000000	0.0
95	0x00000000	0.0
96	0x00000000	0.0
97	0x00000000	0.0
98	0x00000000	0.0
99	0x00000000	0.0
100	0x00000000	0.0
101	0x00000000	0.0
102	0x00000000	0.0
103	0x00000000	0.0
104	0x00000000	0.0
105	0x00000000	0.0
106	0x00000000	0.0
107	0x00000000	0.0
108	0x00000000	0.0
109	0x00000000	0.0
110	0x00000000	0.0
111	0x00000000	0.0
112	0x00000000	0.0
113	0x00000000	0.0
114	0x00000000	0.0
115	0x00000000	0.0
116	0x00000000	0.0
117	0x00000000	0.0
118	0x00000000	0.0
119	0x00000000	0.0
120	0x00000000	0.0
121	0x00000000	0.0
122	0x00000000	0.0
123	0x00000000	0.0
124	0x00000000	0.0
125	0x00000000	0.0
126	0x00000000	0.0
127	0x00000000	0.0
128	0x00000000	0.0
129	0x00000000	0.0
130	0x00000000	0.0
131	0x00000000	0.0
132	0x00000000	0.0
133	0x00000000	0.0
134	0x00000000	0.0
135	0x00000000	0.0
136	0x00000000	0.0
137	0x00000000	0.0
138	0x00000000	0.0
139	0x00000000	0.0
140	0x00000000	0.0
141	0x00000000	0.0
142	0x00000000	0.0
143	0x00000000	0.0
144	0x00000000	0.0
145	0x00000000	0.0
146	0x00000000	0.0
147	0x00000000	0.0
148	0x00000000	0.0
149	0x00000000	0.0
150	0x00000000	0.0
151	0x00000000	0.0
152	0x00000000	0.0
153	0x00000000	0.0
154	0x00000000	0.0
155	0x00000000	0.0
156	0x00000000	0.0
157	0x00000000	0.0
158	0x00000000	0.0
159	0x00000000	0.0
160	0x00000000	0.0
161	0x00000000	0.0
162	0x00000000	0.0
163	0x00000000	0.0
164	0x00000000	0.0
165	0x00000000	0.0
166	0x00000000	0.0
167	0x00000000	0.0
168	0x00000000	0.0
169	0x00000000	0.0
170	0x00000000	0.0
171	0x00000000	0.0
172	0x00000000	0.0
173	0x00000000	0.0
174	0x00000000	0.0
175	0x00000000	0.0
176	0x00000000	0.0
177	0x00000000	0.0
178	0x00000000	0.0
179	0x00000000	0.0
180	0x00000000	0.0
181	0x00000000	0.0
182	0x00000000	0.0
183	0x00000000	0.0
184	0x00000000	0.0
185	0x00000000	0.0
186	0x00000000	0.0
187	0x00000000	0.0
188	0x00000000	0.0
189	0x00000000	0.0
190	0x00000000	0.0
191	0x00000000	0.0
192	0x00000000	0.0
193	0x00000000	0.0
194	0x00000000	0.0
195	0x00000000	0.0
196	0x00000000	0.0
197	0x00000000	0.0
198	0x00000000	0.0
199	0x00000000	0.0
200	0x00000000	0.0
201	0x00000000	0.0
202	0x00000000	0.0
203	0x00000000	0.0
204	0x00000000	0.0
205	0x00000000	0.0
206	0x00000000	0.0
207	0x00000000	0.0
208	0x00000000	0.0
209	0x00000000	0.0
210	0x00000000	0.0
211	0x00000000	0.0
212	0x00000000	0.0
213	0x00000000	0.0
214	0x00000000	0.0
215	0x00000000	0.0
216	0x00000000	0.0
217	0x00000000	0.0
218	0x00000000	0.0
219	0x00000000	0.0
220	0x00000000	0.0
221	0x00000000	0.0
222	0x00000000	0.0
223	0x00000000	0.0
224	0x00000000	0.0
225	0x00000000	0.0
226	0x00000000	0.0
227	0x00000000	0.0
228	0x00000000	0.0
229	0x00000000	0.0
230	0x00000000	0.0
231	0x00000000	0.0
232	0x00000000	0.0
233	0x00000000	0.0
234	0x00000000	0.0
235	0x00000000	0.0
236	0x00000000	0.0
237	0x00000000	0.0
238	0x00000000	0.0
239	0x00000000	0.0
240	0x00000000	0.0
241	0x00000000	0.0
242	0x00000000	0.0
243	0x00000000	0.0
244	0x00000000	0.0
245	0x00000000	0.0
246	0x00000000	0.0
247	0x00000000	0.0
248	0x00000000	0.0
249	0x00000000	0.0
250	0x00000000	0.0
251	0x00000000	0.0
252	0x00000000	0.0
253	0x00000000	0.0
254	0x00000000	0.0
255	0x00000000	0.0

exp_avg_sq f4 [128, 8]
0	0x00000000	0.0
1	0x00000000	0.0
2	0x00000000	0.0
3	0x00000000	0.0
4	0x00000000	0.0
5	0x00000000	0.0
6	0x00000000	0.0
7	0x00000000	0.0
8	0x00000000	0.0
9	0x00000000	0.0
10	0x00000000	0.0
11	0x00000000	0.0
12	0x00000000	0.0
13	0x00000000	0.0
14	0x00000000	0.0
15	0x00000000	0.0
16	0x00000000	0.0
17	0x00000000	0.0
18	0x00000000	0.0
19	0x00000000	0.0
20	0x00000000	0.0
21	0x00000000	0.0
22	0x00000000	0.0
23	0x00000000	0.0
24	0x00000000	0.0
25	0x00000000	0.0
26	0x00000000	0.0
27	0x00000000	0.0
28	0x00000000	0.0
29	0x00000000	0.0
30	0x00000000	0.0
31	0x00000000	0.0
32	0x00000000	0.0
33	0x00000000	0.0
34	0x00000000	0.0
35	0x00000000	0.0
36	0x00000000	0.0
37	0x00000000	0.0
38	0x00000000	0.0
39	0x00000000	0.0
40	0x00000000	0.0
41	0x00000000	0.0
42	0x00000000	0.0
43	0x00000000	0.0
44	0x00000000	0.0
45	0x00000000	0.0
46	0x00000000	0.0
47	0x00000000	0.0
48	0x00000000	0.0
49	0x00000000	0.0
50	0x00000000	0.0
51	0x00000000	0.0
52	0x00000000	0.0
53	0x00000000	0.0
54	0x00000000	0.0
55	0x00000000	0.0
56	0x00000000	0.0
57	0x00000000	0.0
58	0x00000000	0.0
59	0x00000000	0.0
60	0x00000000	0.0
61	0x00000000	0.0
62	0x00000000	0.0
63	0x00000000	0.0
64	0x00000000	0.0
65	0x00000000	0.0
66	0x00000000	0.0
67	0x00000000	0.0
68	0x00000000	0.0
69	0x00000000	0.0
70	0x00000000	0.0
71	0x00000000	0.0
72	0x00000000	0.0
73	0x00000000	0.0
74	0x00000000	0.0
75	0x00000000	0.0
76	0x00000000	0.0
77	0x00000000	0.0
78	0x00000000	0.0
79	0x00000000	0.0
80	0x00000000	0.0
81	0x00000000	0.0
82	0x00000000	0.0
83	0x00000000	0.0
84	0x00000000	0.0
85	0x00000000	0.0
86	0x00000000	0.0
87	0x00000000	0.0
88	0x00000000	0.0
89	0x00000000	0.0
90	0x00000000	0.0
91	0x00000000	0.0
92	0x00000000	0.0
93	0x00000000	0.0
94	0x00000000	0.0
95	0x00000000	0.0
96	0x00000000	0.0
97	0x00000000	0.0
98	0x00000000	0.0
99	0x00000000	0.0
100	0x00000000	0.0
101	0x00000000	0.0
102	0x00000000	0.0
103	0x00000000	0.0
104	0x00000000	0.0
105	0x00000000	0.0
106	0x00000000	0.0
107	0x00000000	0.0
108	0x00000000	0.0
109	0x00000000	0.0
110	0x00000000	0.0
111	0x00000000	0.0
112	0x00000000	0.0
113	0x00000000	0.0
114	0x00000000	0.0
115	0x00000000	0.0
116	0x00000000	0.0
117	0x00000000	0.0
118	0x00000000	0.0
119	0x00000000	0.0
120	0x00000000	0.0
121	0x00000000	0.0
122	0x00000000	0.0
123	0x00000000	0.0
124	0x00000000	0.0
125	0x00000000	0.0
126	0x00000000	0.0
127	0x00000000	0.0
128	0x00000000	0.0
129	0x00000000	0.0
130	0x00000000	0.0
131	0x00000000	0.0
132	0x00000000	0.0
133	0x00000000	0.0
134	0x00000000	0.0
135	0x00000000	0.0
136	0x00000000	0.0
137	0x00000000	0.0
138	0x00000000	0.0
139	0x00000000	0.0
140	0x00000000	0.0
141	0x00000000	0.0
142	0x00000000	0.0
143	0x00000000	0.0
144	0x00000000	0.0
145	0x00000000	0.0
146	0x00000000	0.0
147	0x00000000	0.0
148	0x00000000	0.0
149	0x00000000	0.0
150	0x00000000	0.0
151	0x00000000	0.0
152	0x00000000	0.0
153	0x00000000	0.0
154	0x00000000	0.0
155	0x00000000	0.0
156	0x00000000	0.0
157	0x00000000	0.0
158	0x00000000	0.0
159	0x00000000	0.0
160	0x00000000	0.0
161	0x00000000	0.0
162	0x00000000	0.0
163	0x00000000	0.0
164	0x00000000	0.0
165	0x00000000	0.0
166	0x00000000	0.0
167	0x00000000	0.0
168	0x00000000	0.0
169	0x00000000	0.0
170	0x00000000	0.0
171	0x00000000	0.0
172	0x00000000	0.0
173	0x00000000	0.0
174	0x00000000	0.0
175	0x00000000	0.0
176	0x00000000	0.0
177	0x00000000	0.0
178	0x00000000	0.0
179	0x00000000	0.0
180	0x00000000	0.0
181	0x00000000	0.0
182	0x00000000	0.0
183	0x00000000	0.0
184	0x00000000	0.0
185	0x00000000	0.0
186	0x00000000	0.0
187	0x00000000	0.0
188	0x00000000	0.0
189	0x00000000	0.0
190	0x00000000	0.0
191	0x00000000	0.0
192	0x00000000	0.0
193	0x00000000	0.0
194	0x00000000	0.0
195	0x00000000	0.0
196	0x00000000	0.0
197	0x00000000	0.0
198	0x00000000	0.0
199	0x00000000	0.0
200	0x00000000	0.0
201	0x00000000	0.0
202	0x00000000	0.0
203	0x00000000	0.0
204	0x00000000	0.0
205	0x00000000	0.0
206	0x00000000	0.0
207	0x00000000	0.0
208	0x00000000	0.0
209	0x00000000	0.0
210	0x00000000	0.0
211	0x00000000	0.0
212	0x00000000	0.0
213	0x00000000	0.0
214	0x00000000	0.0
215	0x00000000	0.0
216	0x00000000	0.0
217	0x00000000	0.0
218	0x00000000	0.0
219	0x00000000	0.0
220	0x00000000	0.0
221	0x00000000	0.0
222	0x00000000	0.0
223	0x00000000	0.0
224	0x00000000	0.0
225	0x00000000	0.0
226	0x00000000	0.0
227	0x00000000	0.0
228	0x00000000	0.0
229	0x00000000	0.0
230	0x00000000	0.0
231	0x00000000	0.0
232	0x00000000	0.0
233	0x00000000	0.0
234	0x00000000	0.0
235	0x00000000	0.0
236	0x00000000	0.0
237	0x00000000	0.0
238	0x00000000	0.0
239	0x00000000	0.0
240	0x00000000	0.0
241	0x00000000	0.0
242	0x00000000	0.0
243	0x00000000	0.0
244	0x00000000	0.0
245	0x00000000	0.0
246	0x00000000	0.0
247	0x00000000	0.0
248	0x00000000	0.0
249	0x00000000	0.0
250	0x00000000	0.0
251	0x00000000	0.0
252	0x00000000	0.0
253	0x00000000	0.0
254	0x00000000	0.0
255	0x00000000	0.0

exp_avg f4 [128]
0	0xb810b65e	-3.4502118e-05
1	0x38ad3dc1	8.2607854e-05
2	0x39386b53	0.00017587589
3	0xb8386594	-4.396362e-05
4	0xb867cc5c	-5.5265016e-05
5	0xb8918cb2	-6.940345e-05
6	0x3920b2f2	0.00015325451
7	0x38f0a469	0.000114747156
8	0xb95c5c29	-0.00021015167
9	0xb8df7a5c	-0.0001065626
10	0x3944b9ed	0.0001876128
11	0x3933bfb8	0.00017142191
12	0xb85c8f01	-5.258527e-05
13	0x396cb24b	0.00022573133
14	0xb8a6fc12	-7.9624486e-05
15	0x39054da1	0.00012712787
16	0x37f2592c	2.8890172e-05
17	0xb8bcfd7b	-9.011753e-05
18	0x392d4657	0.0001652477
19	0xb9102bd1	-0.00013749233
20	0x38eb553b	0.000112215486
21	0xb928f74b	-0.00016113852
22	0xb6fe25a2	-7.574171e-06
23	0x365bf09b	3.2773594e-06
24	0xb9b40e4f	-0.00034342936
25	0xb93aefce	-0.00017827676
26	0xb8cace69	-9.6705575e-05
27	0xb7bde039	-2.2634968e-05
28	0x39443441	0.00018711483
29	0x38537558	5.0415605e-05
30	0x39524115	0.00020051406
31	0x395c5a2d	0.00021014428
32	0x3808130e	3.2442673e-05
33	0xb86120a8	-5.3674594e-05
34	0x394b3fbc	0.00019383332
35	0xb829797e	-4.040589e-05
36	0xb962df6e	-0.00021636274
37	0xb9591b73	-0.00020704958
38	0x39302b91	0.00016800898
39	0xb784065d	-1.573859e-05
40	0x392545bd	0.00015761606
41	0xb8c5498e	-9.407393e-05
42	0xb7ebceab	-2.811042e-05
43	0x3895c8d1	7.1422786e-05
44	0x38d2d799	0.000100537385
45	0xb946ff12	-0.00018977773
46	0x39151b45	0.00014219906
47	0x38509464	4.9729264e-05
48	0xb912b1ee	-0.00013989929
49	0x383fd5b4	4.5736975e-05
50	0x391823b5	0.00014509152
51	0x38e8db35	0.000111034526
52	0x394676e8	0.00018927047
53	0xb935383f	-0.00017282458
54	0x38054e46	3.178257e-05
55	0xb92125d5	-0.0001536825
56	0x38b9de32	8.8628745e-05
57	0xb9408c66	-0.0001836285
58	0xb881e1ee	-6.193282e-05
59	0xb8c21506	-9.254557e-05
60	0x37a0a6bc	1.9151128e-05
61	0xb8dc6129	-0.00010508515
62	0x37970bbd	1.8006069e-05
63	0xb898b660	-7.281895e-05
64	0xb902f70c	-0.00012489798
65	0x37fb009e	2.9921819e-05
66	0xb8696c99	-5.565267e-05
67	0x38272f04	3.985969e-05
68	0x3921bc27	0.00015424249
69	0x3889acc6	6.5648506e-05
70	0x390989b5	0.00013116638
71	0xb84ff8af	-4.958425e-05
72	0xb8718dea	-5.7591045e-05
73	0x38c6ed31	9.485556e-05
74	0xb923b765	-0.00015613211
75	0x38061d4c	3.1975374e-05
76	0xb91617e3	-0.00014314013
77	0x38904e5a	6.881049e-05
78	0x391745d5	0.00014426497
79	0x38564bd2	5.109219e-05
80	0x391c342d	0.00014896756
81	0x3821ab55	3.8544957e-05
82	0xb7eda0dc	-2.8327508e-05
83	0x391053ef	0.00013764178
84	0x366f476b	3.5655346e-06
85	0xb7851429	-1.5864223e-05
86	0xb89ba075	-7.4208634e-05
87	0xb9666bdf	-0.00021974694
88	0x39150641	0.00014212077
89	0xb8a2dde4	-7.766092e-05
90	0x389f1448	7.5854885e-05
91	0xb8f4baaa	-0.000116695956
92	0x39054318	0.00012708863
93	0xb97dcc27	-0.00024204013
94	0x39123142	0.00013941995
95	0xb955b158	-0.00020379329
96	0x38881f84	6.4908556e-05
97	0x3954e0f7	0.00020301701
98	0xb7a052ca	-1.9112038e-05
99	0xb8a03895	-7.639934e-05
100	0x378b9e7f	1.6643897e-05
101	0x395995c6	0.00020750528
102	0xb9196447	-0.00014628573
103	0x3914fa97	0.00014207732
104	0xb8b9664d	-8.8405424e-05
105	0xb8bffdaf	-9.154842e-05
106	0x366495a6	3.4061754e-06
107	0x379b52ac	1.8515937e-05
108	0x392f290d	0.00016704593
109	0xb6814b67	-3.8532776e-06
110	0x391efb99	0.00015161782
111	0xb8967bc2	-7.175609e-05
112	0xb904be83	-0.00012659472
113	0xb82c81b6	-4.11288e-05
114	0x382016a9	3.8168077e-05
115	0x390d0845	0.00013449889
116	0xb893463a	-7.022587e-05
117	0x3944450b	0.00018717737
118	0xb8286e2c	-4.0156927e-05
119	0x380f221e	3.412563e-05
120	0x38ead16e	0.00011196999
121	0x388e3164	6.7802874e-05
122	0xb79d4d29	-1.8751789e-05
123	0x39289de5	0.00016080549
124	0x38c14fe8	9.217841e-05
125	0xb88e4e15	-6.7856316e-05
126	0x38dd85b3	0.000105630046
127	0xb84dda27	-4.907898e-05

exp_avg_sq f4 [128]
0	0x339b613d	7.2354375e-08
1	0x34c1d481	3.6103668e-07
2	0x3559de26	8.116207e-07
3	0x34271004	1.5558913e-07
4	0x3358a178	5.0438274e-08
5	0x34b1b1b3	3.3098112e-07
6	0x347c0442	2.3470878e-07
7	0x354cce48	7.62961e-07
8	0x3590135f	1.0734474e-06
9	0x349885a9	2.8409457e-07
10	0x348772d6	2.5229264e-07
11	0x34a00025	2.9802428e-07
12	0x33a65d39	7.7469345e-08
13	0x34f85802	4.6257634e-07
14	0x35361e4a	6.784436e-07
15	0x34fab3e6	4.6697022e-07
16	0x32df2d48	2.5981208e-08
17	0x34ea6f13	4.3666714e-07
18	0x34622f69	2.1065138e-07
19	0x3422ece3	1.5173605e-07
20	0x34f95c39	4.6446965e-07
21	0x3457c87a	2.0096368e-07
22	0x3326abd3	3.880616e-08
23	0x34a68c94	3.1022194e-07
24	0x363f7238	2.8527702e-06
25	0x347feda5	2.383518e-07
26	0x34cc6bc3	3.8076368e-07
27	0x343e4eaf	1.7723754e-07
28	0x34908c40	2.6924135e-07
29	0x33b28e0e	8.3146105e-08
30	0x34d12583	3.8956577e-07
31	0x355e6b50	8.2857605e-07
32	0x3286dbbe	1.569958e-08
33	0x3432a8b4	1.6638916e-07
34	0x34a2bafa	3.0310895e-07
35	0x347e57f9	2.3687598e-07
36	0x34bd16c3	3.5220555e-07
37	0x3517a241	5.6487994e-07
38	0x3494ffa3	2.7753148e-07
39	0x32df0305	2.596199e-08
40	0x34516159	1.9500057e-07
41	0x347ea963	2.3717216e-07
42	0x33e74e8d	1.0771064e-07
43	0x333aa286	4.3454314e-08
44	0x3538698c	6.869893e-07
45	0x3583daac	9.823902e-07
46	0x3417b300	1.412809e-07
47	0x33a3aee3	7.622091e-08
48	0x3510cf81	5.394614e-07
49	0x33246545	3.827633e-08
50	0x352da76a	6.469114e-07
51	0x341af648	1.4431964e-07
52	0x349427fc	2.759624e-07
53	0x3488463c	2.5383076e-07
54	0x333fb0c5	4.4631424e-08
55	0x35018f2d	4.8264593e-07
56	0x3431d293	1.6561016e-07
57	0x354fc945	7.7406395e-07
58	0x33dd6e18	1.03111404e-07
59	0x348f5a2f	2.6701443e-07
60	0x33c5001c	9.173547e-08
61	0x342f2c81	1.6314335e-07
62	0x342a3fe4	1.5855727e-07
63	0x348c2b9e	2.6108768e-07
64	0x350fb985	5.354162e-07
65	0x3415d6a3	1.3954791e-07
66	0x34167216	1.4011343e-07
67	0x3418725c	1.4197707e-07
68	0x3468fcb3	2.1698615e-07
69	0x3473560b	2.2662441e-07
70	0x33fe79fa	1.1849984e-07
71	0x33cd5aa0	9.562541e-08
72	0x3437350b	1.70625e-07
73	0x3485a3a1	2.4892236e-07
74	0x346338e4	2.1161719e-07
75	0x33d7db28	1.0051582e-07
76	0x34c8f5b7	3.7431684e-07
77	0x34b109c5	3.2975927e-07
78	0x3501401c	4.8149536e-07
79	0x3467abfd	2.157612e-07
80	0x355ffca0	8.344159e-07
81	0x34671747	2.152202e-07
82	0x336ec71e	5.559479e-08
83	0x341b8d43	1.448689e-07
84	0x32a9f92f	1.9787505e-08
85	0x3229ca43	9.883084e-09
86	0x349f0871	2.96222e-07
87	0x34c5a0be	3.6811065e-07
88	0x34aebbbe	3.2546626e-07
89	0x342197a2	1.5049457e-07
90	0x339cc2fa	7.299782e-08
91	0x34bf660a	3.5650766e-07
92	0x34b03f8f	3.28288e-07
93	0x350ff4bb	5.362778e-07
94	0x351cc8a9	5.840653e-07
95	0x349e9198	2.9535727e-07
96	0x343f006f	1.7788419e-07
97	0x3539a460	6.915707e-07
98	0x33b33b8f	8.346171e-08
99	0x34929bda	2.7308016e-07
100	0x3371339a	5.6159116e-08
101	0x34b1b137	3.309776e-07
102	0x351c1b30	5.815409e-07
103	0x34f5ee46	4.5808173e-07
104	0x347580f3	2.2864315e-07
105	0x3386a183	6.26924e-08
106	0x33da3a28	1.01619946e-07
107	0x349fd221	2.9768947e-07
108	0x34606d5f	2.0901415e-07
109	0x336fb979	5.581521e-08
110	0x35185d95	5.676059e-07
111	0x34741c85	2.2734646e-07
112	0x35122815	5.4447565e-07
113	0x3380f340	6.0047114e-08
114	0x342e658d	1.6241957e-07
115	0x3410d9fd	1.3490349e-07
116	0x347bfbb1	2.3467761e-07
117	0x3490cf0e	2.6972742e-07
118	0x33ef52ff	1.1144402e-07
119	0x33d755a3	1.0027295e-07
120	0x341a49db	1.4369236e-07
121	0x33bb1d28	8.7131696e-08
122	0x338ea334	6.642077e-08
123	0x354f7448	7.728272e-07
124	0x33b97708	8.6363855e-08
125	0x33e3525d	1.0585493e-07
126	0x349ff1ca	2.9791983e-07
127	0x340160e3	1.2049308e-07
