results/3DBall_run01/3DBall/3DBall-499987.onnx (onnx, 77016 bytes, 9 tensors)

network_body.observation_encoder.processors.0.normalizer.running_mean f4 [8]
000000 00 00 00 00 00 00 00 00 00 00 00 00 00 00 00 00
       0.0 0.0 0.0 0.0
000010 00 00 00 00 00 00 00 00 00 00 00 00 00 00 00 00
       0.0 0.0 0.0 0.0

network_body._body_endoder.seq_layers.0.weight f4 [128, 8]
000000 7f 77 f3 bd 90 57 a5 be a0 ce 93 3e 17 9a a4 3e
       -0.118880264 -0.32293367 0.2886858 0.3214881
000010 b8 6e 99 3d 0e de 8e 3e 54 cc c0 3e bb df 19 3f
       0.07491821 0.2790379 0.3765589 0.6010701
000020 80 b7 65 3e a0 c9 e3 3e 74 fa 87 bf a7 1e c0 3e
       0.22433281 0.44489765 -1.0623307 0.37523386
000030 f7 9d 19 3e 40 2b ca be da f5 c9 3e fb 69 34 be
       0.15001665 -0.39486122 0.39445382 -0.17618553
000040 f6 b6 09 3f 79 d3 9c be b3 aa 31 3e 82 d2 c6 3d
       0.537948 -0.3063009 0.17350273 0.0970812
000050 85 3f 8f 3d 88 c4 f7 bc 0c b1 15 3f 38 5e 9c 3e
       0.06994537 -0.03024508 0.5847328 0.30540633
000060 24 12 b3 be 81 5b bd 3e a4 cd 21 3e 8a f5 40 3e
       -0.34974778 0.36983874 0.15801102 0.18843666
000070 01 e0 86 bd 87 60 5f be bd b1 5e be bd 7b 5e bf
       -0.06585694 -0.21814166 -0.2174749 -0.8690756
000080 c1 c1 04 3f 63 b1 54 3e d2 1f 0a bd 10 6d 86 3e
       0.51858145 0.20770793 -0.033721752 0.26255083
000090 28 e0 02 3e df 50 2d be 71 a9 5f bd 9c 84 59 be
       0.12780821 -0.16925381 -0.05460495 -0.21241993
0000a0 89 ff 80 be 9b 55 a8 3c 2d e9 59 3e 61 bd 12 be
       -0.25194958 0.020548632 0.21280356 -0.14330055
0000b0 8b f5 aa 3e a3 df 02 3f fa b9 9a be a3 fa c9 be
       0.3339046 0.5112249 -0.30220014 -0.39449033
0000c0 46 cc d5 be 35 8b 27 3f 2d 17 f5 be fb bb a1 bf
       -0.4175741 0.6544679 -0.47869244 -1.2635492
0000d0 59 45 85 bd 37 a6 4c 3e 85 95 b7 be 90 28 86 3e
       -0.06507368 0.19985281 -0.35856262 0.26202822
0000e0 f7 c1 d8 3e 7d 8c 8a be 15 bf b4 bd 16 bd 11 3e
       0.42335483 -0.2706031 -0.088255085 0.14232287
0000f0 3f 0f 7f be d2 6e c4 be 8e d3 25 bf 15 67 a8 3c
       -0.2490816 -0.383658 -0.6477593 0.020556966
000100 42 a4 e1 3e 45 b0 3a bf 75 2d f0 3d cc a2 66 3d
       0.4407063 -0.72925216 0.1172742 0.0563076
000110 84 d8 41 3c 8f a6 52 3e 59 f6 3e 3f e7 68 0d 3e
       0.0118314065 0.2057135 0.74594647 0.13809548
000120 19 b3 c0 be 28 35 cd 3d 5a ed a2 bb 0d 3d 88 be
       -0.3763664 0.100199044 -0.004972142 -0.26609078
000130 75 5d 2b 3e 0b 9b c1 3c 68 72 ca 3d 7b bf 8c be
       0.1673487 0.0236335 0.098851025 -0.27489838
000140 0f fb 24 bf 9c 9b 30 3e fc 56 5c be 49 35 09 3f
       -0.64445585 0.1724686 -0.21517557 0.5359693
000150 6b f9 0b bf 62 45 9d be 43 cc 3c bc ad 9f ee bd
       -0.54677457 -0.30716997 -0.011523309 -0.116515495
000160 7c 3f b8 bd a0 85 9e be d9 5c 69 3f cd 61 39 bd
       -0.08996484 -0.30961323 0.911573 -0.045259286
000170 5a 30 5c 3f 0a 35 1a 3e 79 e6 71 be f2 54 9b be
       0.8601128 0.15059295 -0.23623075 -0.30338246
000180 47 f7 10 bf b9 e3 f9 3e 09 89 1f be 5a b7 b5 3e
       -0.56627315 0.4880655 -0.15579619 0.3549145
000190 a9 4e 89 be 37 ac bb be 03 70 68 be be 29 d4 be
       -0.26817825 -0.36654827 -0.22698979 -0.41438097
0001a0 0c a0 0c bf a0 01 7b 3d ee c1 62 3e 4c 9a e8 bd
       -0.5493171 0.061280847 0.22144291 -0.11357555
0001b0 87 24 f4 3d 5c 62 45 3e 64 5f 99 bd 6d a2 61 3e
       0.119210295 0.19275802 -0.074888974 0.22034617
0001c0 56 0f 40 be 5d 96 d5 3d 8d 28 c3 be 9e 49 40 be
       -0.1875585 0.1042907 -0.38116875 -0.18778083
0001d0 e6 36 58 3e 85 ca 0b 3e 24 f0 2a 3d 25 20 14 bf
       0.21114692 0.13651474 0.041732922 -0.5786155
0001e0 9e 49 f6 bc f7 c5 98 3d 5e 40 ef be 8a 05 11 bf
       -0.0300644 0.07459634 -0.46728796 -0.56649077
0001f0 4d f2 3f 3e a3 3a a6 be ed 7e 8b 3e c7 2f a0 be
       0.18744774 -0.3246661 0.27245274 -0.3128645
000200 cb 76 c1 3d e3 d0 93 bd 50 ae 06 3e d4 a9 c8 3e
       0.09446486 -0.07217576 0.13152432 0.3919207
000210 9b 90 44 bd f0 80 77 3f 5c 1d b4 be 98 10 d6 be
       -0.04798947 0.9668112 -0.3517865 -0.41809535
000220 66 8a 2a 3e 86 3b b8 3e 31 9f b5 3d b2 99 95 bc
       0.16654357 0.35982913 0.08868254 -0.018261764
000230 ee 19 e9 bd 20 ae aa 3e ae 11 cf 3d 0b d7 59 3e
       -0.11381899 0.33335972 0.10110794 0.21273439
000240 f1 16 ee 3c 1f 6d 78 bd 2e 05 a2 be 80 2d 1d 3f
       0.029063674 -0.06065094 -0.31644577 0.6139755
000250 13 06 20 be 4e 6a 09 bf 2f 1f 90 be 0b 62 dc bd
       -0.15627317 -0.53677833 -0.2814879 -0.10760888
000260 0d a4 0d bf a3 e5 84 be 66 5c 0e 3e 4c f0 32 be
       -0.55328447 -0.2595645 0.13902435 -0.17474478
000270 ee 6a 4d 3e 44 9f f7 3e e2 86 7d 3e da 13 52 3e
       0.20060322 0.48363698 0.24758485 0.20515385
000280 2b 6e 44 3d cd 9c f0 bd a8 42 a4 be 42 d5 70 3e
       0.047956627 -0.117486574 -0.32082105 0.23518851
000290 7e 75 bd bc 66 bf b7 3d 09 27 63 3b c9 14 aa 3e
       -0.023127314 0.08972053 0.0034660718 0.33218983
0002a0 7c 03 69 be 64 88 39 3e bc 0e a5 3e 43 22 3a bf
       -0.22755235 0.18118435 0.32237804 -0.7270853
0002b0 d3 4e 1c 3e 4b 0a 7e bc 60 9c 4b be 16 74 23 3e
       0.15264444 -0.015505384 -0.19883871 0.15962252
0002c0 7d 72 07 be 3c 97 88 3e fd 72 08 bf 4e 54 22 be
       -0.13227268 0.26677883 -0.5330046 -0.15852472
0002d0 a3 e1 06 bf fe 3e 8c be 50 7d 17 3d d9 57 cb be
       -0.52688044 -0.2739181 0.03698474 -0.3971546
0002e0 6e c7 3e be 82 13 95 3e 60 57 7c bd e5 74 e2 be
       -0.18630764 0.29116446 -0.061606765 -0.44229808
0002f0 11 9a 6e 3f 1b e8 3e 3e c6 5f b2 be e7 d3 e3 bd
       0.93203837 0.18643229 -0.34838694 -0.111244015
000300 65 63 cc 3e 66 0a 75 3e c2 87 9b be 7a c4 60 be
       0.39919582 0.23929748 -0.30377012 -0.2194995
000310 d2 99 8e 3e 7a b2 d3 be f9 55 03 3f f8 12 ad be
       0.2785173 -0.41347104 0.5130306 -0.33803535
000320 5d d8 e4 bd c3 96 84 3e b8 79 04 3f 51 aa 66 3e
       -0.111740805 0.25896272 0.5174823 0.22525908
000330 c3 97 25 be f5 f6 95 be 03 eb a6 be f8 6f 6e 3e
       -0.16171174 -0.29289976 -0.32601175 0.232849
000340 0d 5f f8 bd 7f d1 1a bd 9d 9f c8 3e a6 55 2b 3d
       -0.121275045 -0.037797447 0.39184275 0.041829728
000350 1a e2 86 3e b3 d1 70 3d 33 9f 94 3d 16 7f 01 bf
       0.26344377 0.058793735 0.07256927 -0.5058454
000360 d2 72 eb bb cd e5 7c 3d 64 9f e2 3e 7d 3e fd bd
       -0.0071853185 0.061742593 0.4426223 -0.12365434
000370 37 c0 c2 3d af fb d8 3c 2b d3 32 be b5 7c 22 3e
       0.09509318 0.0264872 -0.17463367 0.15867884
000380 87 86 fa bd 87 08 01 bf 59 79 3b 3f 92 d6 31 3d
       -0.1223269 -0.50403637 0.73232037 0.04341752
000390 12 0e 34 be 28 2d 20 3d 36 4e ca be 0f b7 30 bf
       -0.17583492 0.039105564 -0.39512795 -0.69029325
0003a0 cc be f6 be d1 97 5c 3f 15 3b e3 be da be 45 3e
       -0.4819244 0.86169153 -0.44381014 0.19311085
0003b0 58 bf 0f be d1 63 9a be ce ff 96 3e a7 34 e6 3d
       -0.14037836 -0.3015428 0.29492038 0.112405114
0003c0 f8 1e 49 3e 0d 5a 88 be 27 18 d0 3e a6 eb 61 be
       0.1964072 -0.26631203 0.40643427 -0.22062549
0003d0 fa 3f b3 3e 72 bf 65 3e 1d 5b cb bd 97 5b 81 3c
       0.35009748 0.22436312 -0.09929488 0.015790744
0003e0 65 62 f7 bd 45 b8 af 3d 00 4c 78 3e 00 e3 ff 3d
       -0.12079314 0.085800685 0.24247742 0.12494469
0003f0 19 ee b3 be 72 b6 2a 3f 4f e9 4d bd 01 c1 ec 3e
       -0.35142592 0.6668464 -0.05027133 0.46241

network_body._body_endoder.seq_layers.0.bias f4 [128]
000000 d8 65 d9 3a 0e e2 e9 3a 4a 10 b7 3b a1 3d 8e bb
       0.0016586138 0.0017843859 0.0055866586 -0.004340843
000010 30 b0 2e 3b 31 1a 20 bc b6 40 0c bc 1a ac 59 3c
       0.002665531 -0.0097718695 -0.00856035 0.013285661
000020 4c aa 29 bb 7b 69 d4 39 fd 4f 6f bc 33 4f 0c bc
       -0.0025888858 0.0004051438 -0.014606473 -0.008563804
000030 e5 b2 4b 3b 5e f4 1b bc a7 b1 1f bc 18 e1 20 3c
       0.0031081971 -0.009518711 -0.009746945 0.0098192915
000040 54 83 ea 39 1e 99 e1 bb 48 6e 1d bc 1f f0 08 3c
       0.00044729805 -0.006884708 -0.009608813 0.008358031
000050 3a 5b 02 3c de bd 93 3c 35 53 6f 3b af df 32 bc
       0.00795632 0.018034872 0.00365181 -0.010917588
000060 30 1a 02 bd 0f 32 6e 3c 3c 18 8f bb 8d ae 9e ba
       -0.031763256 0.014538302 -0.0043669026 -0.0012106464
000070 56 12 aa bc ca 07 b3 bb 09 bd f9 bb 7b 68 88 3a
       -0.020760696 -0.005463575 -0.0076214117 0.0010407114
000080 97 5b e7 bb b8 e7 17 bc 97 96 92 bc e4 90 ab bb
       -0.007060479 -0.009271555 -0.017894072 -0.005235778
000090 35 01 6b 3c e7 a9 9e 3b a1 4c f2 bb 09 21 5a bb
       0.0143435495 0.0048420313 -0.007394389 -0.003328385
0000a0 d4 4d 9a bc 2b 03 b9 ba 5a 61 af 3b 71 73 07 bc
       -0.01883594 -0.0014115324 0.0053521814 -0.0082672695
0000b0 b8 13 54 3c d1 9b 96 bb 31 8d 7f bc 05 55 bd bb
       0.012944154 -0.0045962115 -0.0155976275 -0.0057779574
0000c0 50 c2 6b bb ee 26 9e bb bf 90 a5 3b 47 13 eb bb
       -0.0035973974 -0.004826418 0.0050526555 -0.007173929
0000d0 a2 6d 68 bc 2f 54 4e 3c 65 04 54 3b 7f a9 02 3b
       -0.014186295 0.012593313 0.0032351252 0.0019937453
0000e0 4d 54 d0 bb de d8 8e bb b5 17 4e 3b f4 8b 1b b9
       -0.0063577057 -0.0043593487 0.0031447236 -0.00014834089
0000f0 68 ad 72 bb e1 54 cb 3b 59 0e 1b 3b 52 24 ee bb
       -0.0037029628 0.0062051867 0.0023659675 -0.0072675133
000100 96 88 f7 bb 67 20 0d 3b 38 7d 2c 3a 80 2d 2f 3c
       -0.007554124 0.0021534206 0.00065799383 0.010692
000110 2d 26 29 bc 57 cb 1d 3c d1 d6 3e bc 80 4d 1b 3b
       -0.010324043 0.0096309995 -0.011647896 0.0023697317
000120 85 fa e5 bb a3 b5 df ba 50 64 46 3c 8c c8 1f ba
       -0.0070183896 -0.0017067682 0.012108877 -0.00060952525
000130 e1 7a 17 3b 9a 65 f7 3b fe d9 f7 ba 1b 1b 4e 39
       0.0023114013 0.0075499536 -0.0018909571 0.00019655788
000140 68 3c 46 3c 22 89 4a bb 98 d6 b5 3b 93 5e 51 bc
       0.012099363 -0.0030904491 0.005549263 -0.012778896
000150 9e a0 6a bb 26 71 94 3b fe 2f 95 bb 3e 84 7c 3c
       -0.0035801302 0.00453009 -0.0045528403 0.015412388
000160 0f 54 b2 bb 33 1b 3b 3a 72 3a d4 bb 16 63 47 3b
       -0.0054421495 0.0007137537 -0.006476694 0.003042405
000170 9b ba d8 ba a1 5a 89 3c ad 19 02 3c f9 66 ad 3c
       -0.0016535105 0.016766848 0.007940692 0.021167265
000180 28 e2 3e ba 49 58 19 bb 84 4b 8e bb c3 31 81 ba
       -0.0007281625 -0.002339857 -0.0043424983 -0.0009856749
000190 18 cc af 3b 55 48 78 bc 36 1b 03 bc 65 11 90 b9
       0.005364906 -0.015153964 -0.008002093 -0.0002747878
0001a0 9e 87 ed 3a f8 c1 ff 3b 19 f9 e5 ba d5 b6 8b bb
       0.0018122082 0.0078051053 -0.001754555 -0.0042637386
0001b0 85 cc 44 bc eb d1 9a 3b c1 90 2c 39 f7 f3 cb ba
       -0.012011652 0.004724731 0.00016457123 -0.0015560378
0001c0 3d 83 53 bb 4a 64 8a 3b 2d cf d5 3b 74 fc 64 bc
       -0.003227427 0.004223381 0.0065249414 -0.013976205
0001d0 ff 88 fb bb 80 84 7a bc a3 28 7d b9 41 d5 92 ba
       -0.0076762433 -0.0152903795 -0.00024143099 -0.0011202471
0001e0 01 78 ca bb 1c be 9d bb 2c b6 3f 3b 19 08 0c 3c
       -0.0061788564 -0.0048139226 0.002925287 0.0085468525
0001f0 07 6b f6 bb bc b4 00 3b e8 8c f8 3b 1c d4 cf b8
       -0.007520083 0.0019638976 0.0075851567 -9.9100376e-05

network_body._body_endoder.seq_layers.2.weight f4 [128, 128]
000000 c8 d2 16 bd 66 a3 ab 3c 99 be b6 bd 60 b8 31 be
       -0.03682211 0.020951938 -0.08923072 -0.1735549
000010 5e bc ef bd 1d 03 2f 3e 82 b6 0a 3d 53 44 dc 3b
       -0.1170585 0.17091031 0.03386546 0.006722012
000020 18 7b 11 be d2 20 cf bc e1 e8 07 be 21 f5 8c bd
       -0.14207113 -0.025284205 -0.1327243 -0.06882692
000030 5e 6f d7 bc e3 f1 06 3e 10 19 26 3d 05 d6 41 3c
       -0.026298221 0.1317821 0.040551245 0.011830811
000040 02 47 c1 3d 52 b2 6a be 1f 4e 73 3d bd 47 8a 3d
       0.09437372 -0.22919586 0.059400674 0.06751964
000050 c8 59 26 3e 52 d8 bd bd b6 7d fa 3d 20 ca f4 3b
       0.16245186 -0.092697755 0.12231009 0.0074703842
000060 f2 47 ab bd 0c 04 21 bc dd d7 b4 bc c3 e1 c2 3c
       -0.08363332 -0.009827625 -0.022075588 0.023789292
000070 51 85 22 3e b2 a4 0d be 6b 78 0e 3e ce 29 84 be
       0.15871169 -0.13832358 0.13913123 -0.25813144
000080 a4 0b d4 bd 9f d0 5a 3d 0b 7d 4e 3d 1d 30 4b 3c
       -0.10353783 0.053421613 0.05041222 0.012401608
000090 b4 0a 96 bd cf 7b 2d be b6 be 2a be 57 1d c2 3b
       -0.0732626 -0.1694176 -0.16674313 0.0059239077
0000a0 3e c3 27 3d 67 2a 4b bd 6e 80 c2 3d 79 92 7b bd
       0.04095768 -0.049600985 0.09497152 -0.061418984
0000b0 22 f0 92 bb 9e d6 47 3d 73 95 8f 3d fc 3f ea 3d
       -0.0044841925 0.04878866 0.07010927 0.11437985
0000c0 e8 a2 e0 3d 24 ed 12 3c fb dd ad 3d a5 2a 23 bd
       0.10968572 0.008967672 0.08489605 -0.03983559
0000d0 a5 02 db bd 55 3e 22 be db b0 0f bd 46 7a ea 3d
       -0.10693864 -0.1584409 -0.035080772 0.11449103
0000e0 81 4f 4a 3e e0 ca df bd 95 15 09 be ec 25 1c 3d
       0.19756891 -0.10927367 -0.13387139 0.038122103
0000f0 44 a4 48 3d 54 ce ea 3d 1a b3 10 be 45 04 6c bc
       0.04898478 0.11465135 -0.14130822 -0.014405315
000100 9c 1e a7 bd cd 3d 36 bd 69 ab fb bd 22 a1 c4 bd
       -0.08160135 -0.04449253 -0.12288553 -0.09601046
000110 06 4c 5c 3c 34 fd 8b 3d 73 20 78 bd f7 be 04 be
       0.01344586 0.06835404 -0.06057782 -0.12963472
000120 1f ab 9b bd b8 e1 49 3d 83 ac 47 3d 3e 05 70 3d
       -0.07600998 0.049287528 0.048748504 0.05859875
000130 17 98 05 bd b1 8a a1 bd 69 35 02 3e fc b4 5d bd
       -0.032615747 -0.078877814 0.12715687 -0.05412768
000140 01 1f 33 3d c9 c6 2b bc 58 1c da 3d e0 a7 2a be
       0.04373074 -0.010484406 0.106499374 -0.16665602
000150 4f 54 4f 3d 0a 41 ee 3d 14 92 59 3d 3b a4 31 be
       0.050617512 0.11633499 0.053117827 -0.17347805
000160 5b f6 b1 3d da 3e bf bd 39 e0 b1 bd 6b 0d f7 bd
       0.08689567 -0.0933816 -0.08685345 -0.12063106
000170 49 5f 39 3d bd 6b 1b 3e b1 c6 1a be 45 a9 8a 3b
       0.045256887 0.15177818 -0.15114857 0.0042316043
000180 5b 0e 0b 3e 6a c5 be 3d d1 2d 0c bd 83 2e b5 bc
       0.13579695 0.093149975 -0.03422338 -0.022116905
000190 59 f6 0e bc 29 84 07 3e f6 59 d6 3c 67 7f bc 3d
       -0.008725726 0.13234009 0.026165944 0.092039876
0001a0 8c c6 5f 3e d8 49 00 bd bc 2f 2f 3e bb f5 36 be
       0.21853083 -0.031320423 0.17108053 -0.17867176
0001b0 c0 a5 2e 3e 1b 5c 12 3c bd c8 c4 bb 45 30 9e 3d
       0.17055416 0.0089330925 -0.006005375 0.077240504
0001c0 e4 e0 ca bd 72 a3 fc bd 30 73 0f bd d8 34 28 3e
       -0.09906176 -0.12335862 -0.03502196 0.16426408
0001d0 89 8c 09 3c eb bd 46 bb e4 51 60 3d d9 1a a6 bd
       0.008395323 -0.0030325602 0.054765597 -0.081105895
0001e0 c7 b4 12 3e 22 1b 54 3d eb b8 6e bd 1d 0a 87 bb
       0.14326774 0.05178369 -0.05828182 -0.0041210786
0001f0 c9 94 c8 bc cb c8 0e 3d ba 09 3b bd 90 f7 a9 bc
       -0.024485009 0.03485946 -0.045663573 -0.02074793
000200 2d a3 e2 bb 2e d9 96 bc 78 a4 07 be 20 ae 1c 3d
       -0.0069164247 -0.018414106 -0.13246334 0.038251996
000210 d0 44 1c 3e 2a 59 51 bd 1d d2 1d 3d 8f 52 0a 3e
       0.15260625 -0.051110424 0.038530458 0.13508056
000220 37 5f f3 bc f6 b3 ea bd f6 f7 3a 3d 4e 99 94 3d
       -0.029708488 -0.11460106 0.04564663 0.07255803
000230 60 1f 17 be c6 81 a4 3d 3a 58 ec 3d 60 bb 4d bd
       -0.14758062 0.08032565 0.115402654 -0.050227523
000240 96 d2 74 bb d3 8b 36 be 38 dc f0 3d 91 1b 2f 3c
       -0.0037356964 -0.17826776 0.117607534 0.010687725
000250 22 45 c3 3d 47 01 29 bc 70 ff a9 bd 3d 17 88 3d
       0.095346704 -0.010315246 -0.08300674 0.06645057
000260 86 bd 0a be 08 34 c5 bc 14 7a 47 3d 78 0b 07 3e
       -0.1354886 -0.024072662 0.048700407 0.13187969
000270 bd f3 6a 3e 54 a0 4c 3e 71 5b 82 3e 83 4c 07 3e
       0.22944541 0.19983035 0.2546039 0.1321278
000280 5b 7a 0d 3d 79 d5 3b 3c 9b 0a ab 3d 72 b7 ae 3b
       0.034540515 0.01146447 0.08351632 0.005331927
000290 64 c5 e6 3c 63 23 4e bd f7 42 67 bd 94 e6 39 3e
       0.028170295 -0.050326716 -0.056460347 0.18154365
0002a0 77 58 7e 3d 55 b7 43 be e7 24 e8 bc 36 09 7e 3d
       0.062096085 -0.19112904 -0.028337909 0.062020503
0002b0 ca a9 41 3e 64 00 9d bd a6 1c 8d 3c ec aa e1 3d
       0.18912426 -0.0766609 0.017225575 0.11018929
0002c0 44 57 c1 bd 4c 00 b8 3d 56 ea 65 3d 7c 8d 7e bb
       -0.09440473 0.089844316 0.056131683 -0.0038841655
0002d0 a4 28 c6 3d c4 e4 d9 3d 1a 2a 83 bd 47 6b a2 3d
       0.0967572 0.10639337 -0.064045146 0.07930618
0002e0 23 20 06 bd 34 6b 60 3c df ca 2e bd 59 28 a0 bd
       -0.03274549 0.013697434 -0.04267394 -0.07820196
0002f0 7c 28 21 3e 35 dd c6 bd ca be 4d be 02 92 cb bd
       0.157381 -0.09710161 -0.20092312 -0.09939958
000300 f3 55 86 bd 00 72 1a bc 7f 7c 8d 3d 7f 19 e1 3c
       -0.06559362 -0.009426594 0.06908511 0.027477978
000310 a6 44 9c bd 4d ed 52 bd fa cb be 3c d7 6f 99 3c
       -0.07630281 -0.05149584 0.023290623 0.018730087
000320 70 5a da 3c 4e ec d1 bd 29 30 da bc c1 ad 6d 3d
       0.026654452 -0.1025015 -0.026634293 0.058027033
000330 36 f9 cb 3d 89 ef 0f be 25 d4 aa bd 5f 7e ec bc
       0.099596426 -0.14056219 -0.083412446 -0.028868852
000340 ee 29 82 3d e5 a4 54 bd 7c ee 02 bc 40 1d 74 3d
       0.06355654 -0.05191507 -0.007991429 0.059598207
000350 74 59 47 b9 c4 7b 87 bd 64 23 4c bd 19 80 be 3d
       -0.00019011443 -0.06615403 -0.04983844 0.093017764
000360 c1 07 3e 3d 1c a9 f6 3c 90 02 a0 ba 48 bb 0f 3d
       0.046394113 0.030109935 -0.0012207795 0.035090715
000370 eb 8a 11 bc 7e ba 96 bd 32 23 f2 3d 11 86 a8 bc
       -0.008883218 -0.07359789 0.11823119 -0.02057174
000380 b6 23 d3 3c 8d 1e eb 3c 4c 1f 66 3e 89 30 60 be
       0.025773864 0.028701091 0.22472876 -0.21893515
000390 59 39 db bc 30 48 e7 3d 58 64 58 bd 69 b1 3c 3e
       -0.026760744 0.112930655 -0.05283007 0.18427052
0003a0 6a b7 5b be 22 17 31 3d ee ab c8 3d e0 0a 12 be
       -0.21456686 0.04323495 0.09798418 -0.14261961
0003b0 17 e8 1a be a7 93 fc 3c fc 26 98 3d 41 34 99 bc
       -0.15127598 0.030832125 0.07429311 -0.018701674
0003c0 60 2f 98 bd 22 43 ce bb bd 34 91 bd 60 6a 64 bd
       -0.07430911 -0.006294624 -0.07090137 -0.05576551
0003d0 ce 71 87 3d 19 97 18 3e f1 4c 0d bd 6d d1 01 3e
       0.066135034 0.14901389 -0.034497205 0.12677546
0003e0 6f f8 58 3d 1e b2 b6 bc 93 ae a7 bc ba f3 20 bd
       0.0529713 -0.02230173 -0.020468986 -0.039294936
0003f0 cb 3f 24 3d 15 cb 30 ba 70 ac 3f be 9d c9 ae bc
       0.0400999 -0.0006744129 -0.18718123 -0.021336371

network_body._body_endoder.seq_layers.2.bias f4 [128]
000000 f4 60 dc bb b3 ca 03 bc f7 15 cb bb 8d 5c 52 bc
       -0.006725425 -0.008043933 -0.006197687 -0.012839449
000010 3e a7 54 bb 06 49 83 bb 7c e0 09 3b 53 7e bb bb
       -0.0032448317 -0.004006508 0.0021038344 -0.005721846
000020 b2 04 65 bb 81 c2 b6 bb 03 bd ff bb b0 69 a5 3b
       -0.0034945426 -0.005577386 -0.0078045144 0.0050479993
000030 93 e2 11 ba 3a 59 53 3b 1a 5a c6 3b 50 1f d2 39
       -0.0005565073 0.0032249228 0.0060532214 0.0004007765
000040 bc 82 03 3a f6 9b 05 3c cf 82 50 3a 19 30 a8 bc
       0.00050167344 0.00815486 0.00079540623 -0.020530747
000050 90 f8 d5 39 24 83 46 3b 11 21 18 bb b2 3d 83 3a
       0.0004081172 0.0030290568 -0.0023213068 0.0010012893
000060 5d f6 f3 ba ab c5 d5 3b 2b b9 88 3c b2 6e d0 3b
       -0.0018612851 0.006523808 0.016689857 0.006360852
000070 cc d6 9a bb c0 1b aa ba 00 85 79 bb 3f 49 99 3b
       -0.004725313 -0.0012978241 -0.003807366 0.004677921
000080 6b 10 4b 3b 14 08 2d bb 65 6e 65 bc df 63 04 bb
       0.0030985128 -0.002640252 -0.014003371 -0.002020113
000090 00 eb a0 3b 02 a8 0b bc 91 03 7b 3b cd db 3a 38
       0.0049108267 -0.008523943 0.0038301686 4.455056e-05
0000a0 50 0e d4 3b 11 b9 02 ba 92 68 83 bc 41 a0 cf 3b
       0.0064714327 -0.00049866835 -0.016041074 0.0063362424
0000b0 ca dc 07 bc ff 48 6c 3b 19 f6 32 bb 22 91 9e bb
       -0.008292386 0.0036054251 -0.002730733 -0.0048390785
0000c0 0d bc 48 3b 72 16 5c 3b 41 f7 8d bb 12 23 51 bb
       0.0030629665 0.0033582714 -0.0043324535 -0.0031911773
0000d0 37 dc d4 ba 14 34 7a 3b da a4 cb ba 99 4e 8f bc
       -0.0016239946 0.0038178014 -0.00155368 -0.017493533
0000e0 cd 0b 5c bc a7 c8 1b bb b9 4b 94 3c 84 56 cd ba
       -0.013430548 -0.002377072 0.018102514 -0.0015666042
0000f0 c1 74 8b ba 2b 4b 71 bc d8 d2 bb 3b 49 3d bd 3b
       -0.0010639654 -0.014727394 0.0057319216 0.005775128
000100 d7 d9 4c bb 01 da 1d bb 90 c1 7d bb 38 7a 3d 3a
       -0.0031257772 -0.002408624 -0.0038720109 0.000722799
000110 47 bb 91 3b 7f f2 00 3b 10 5b ec 3b 4b f9 48 bb
       0.004447374 0.001967579 0.007213004 -0.0030666168
000120 ac ca 66 bc d5 a1 74 3b 03 bc 56 bb 62 39 e2 3b
       -0.014086407 0.0037327905 -0.0032765872 0.006903813
000130 ba 48 e1 bb c2 3e 56 3a d5 31 3f 3b b9 3e 36 3c
       -0.0068751248 0.0008172804 0.002917399 0.011123353
000140 49 92 1f 3b 20 c9 68 bb da dc 93 bb ce a8 84 b9
       0.0024348667 -0.003552027 -0.0045124115 -0.0002530277
000150 86 89 c2 39 a4 1c a8 3a 4d e5 9c bb 78 d7 b7 3a
       0.00037105026 0.0012825918 -0.004788077 0.0014026007
000160 b7 ee b7 3b 16 01 ca 3b 39 43 19 3b 26 4d 2a 3c
       0.005613174 0.0061646802 0.0023386015 0.01039437
000170 3f 93 6b bc 6e 58 16 bc 3e 9c 8a bb 50 34 00 bc
       -0.014378368 -0.009176357 -0.0042300513 -0.007824972
000180 90 d7 6f 3a 1e 52 8b 3b 24 e5 2b 3c aa 61 c5 bb
       0.0009149248 0.0042517325 0.010491643 -0.0060236054
000190 51 52 03 3c d5 03 30 3b 6e 90 f4 ba 5b c9 b8 3b
       0.008015231 0.0026857753 -0.0018658766 0.005639238
0001a0 66 fc 74 bb 62 da 1f 3b fc 6f 19 3b be 61 4a bb
       -0.0037381887 0.002439164 0.0023412695 -0.0030881013
0001b0 0a 40 4f bb e6 17 b2 bb 35 39 68 3b 7f e6 33 ba
       -0.0031623864 -0.005434978 0.0035434489 -0.00068626547
0001c0 bf 91 95 3a bb ca 0b b9 d2 35 aa 3b cd 7f a2 bb
       0.0011411234 -0.00013331596 0.005194404 -0.0049590827
0001d0 57 44 ac 3b 50 2e c1 ba 0d 70 08 bc 78 23 ac 39
       0.00525717 -0.0014738534 -0.008327496 0.00032832823
0001e0 6c 13 2d bc c2 b3 9a 3b 2f f8 46 3b 97 cd 59 bb
       -0.010563713 0.004721136 0.0030360331 -0.0033234113
0001f0 bf 85 3a ba e9 0e e9 3a ad a8 87 3b da 52 a6 bb
       -0.00071152666 0.0017780933 0.0041399808 -0.0050757946

action_model._continuous_distribution.log_sigma f4 [1, 2]
000000 a1 ab 2c be 59 e7 6c be
       -0.16862346 -0.23135127

action_model._continuous_distribution.mu.weight f4 [2, 128]
000000 2f b3 85 bc bd 7c 97 bc 3d ef 34 bc 99 66 95 bc
       -0.016320793 -0.018492097 -0.011043367 -0.018237399
000010 71 0b 25 bb 9c c6 27 bc c2 f8 3e 3c 3f 39 ac bc
       -0.0025183822 -0.010240223 0.011655988 -0.02102339
000020 ce cf 6e bb fe 37 68 3c 29 89 8f bc 95 01 0d 3c
       -0.003643978 0.014173506 -0.017521458 0.008606334
000030 ab e5 8b bc 5f 09 0d 3b f9 a7 81 3c 4b 9c 8b bc
       -0.017077288 0.0021520478 0.015827166 -0.0170423
000040 8a 0b 42 bc d6 5f 88 3c 9c c3 04 3a d6 0e fe bc
       -0.011843571 0.01664726 0.00050645485 -0.031012934
000050 d5 37 ba 3c 95 72 86 bc 66 ca 51 bc c1 6a 76 3c
       0.0227317 -0.016412059 -0.012804603 0.015040101
000060 63 19 32 bc d6 ec 98 bc 07 18 f2 bc 1b 31 64 3c
       -0.0108703105 -0.01866762 -0.029552473 0.013927723
000070 44 a1 80 bc 80 c5 a2 3c 2c 08 92 3c e7 b5 b7 bc
       -0.015701897 0.019869566 0.017826162 -0.022425605
000080 5f 54 eb 3b 02 85 99 bb 6f 9e 7e bc 14 56 3b bc
       0.0071816887 -0.004685045 -0.015540703 -0.011434097
000090 40 c4 9b bc ee 3a 61 bc 60 f7 5c 3c 39 99 cd ba
       -0.019014478 -0.01374696 0.013486713 -0.0015685923
0000a0 9e b9 68 3c 88 f6 65 ba 24 07 9a bc cc 45 a0 bc
       0.014204411 -0.0008772393 -0.018802233 -0.019564532
0000b0 ff 47 a5 3c 53 57 b9 3c 86 4c 84 3c 40 ad 66 bc
       0.020175932 0.022624647 0.01614977 -0.014079392
0000c0 87 c8 57 3c 93 bd 86 bc a0 b1 15 bc a6 c9 98 bc
       0.013170368 -0.016447818 -0.009136587 -0.018650841
0000d0 78 87 e5 bc 55 66 9f 3c 03 36 94 3c fa ab 77 bc
       -0.028018698 0.019457975 0.018092161 -0.015116686
0000e0 24 f0 91 bc 00 9a 79 3c bc 49 8e 3c 38 57 82 3a
       -0.017814703 0.01523447 0.017369144 0.0009944206
0000f0 50 81 02 bc 6c c8 93 3c 73 7d c1 3c e3 0c 4a 3c
       -0.007965401 0.018039905 0.02361939 0.012332174
000100 bd 33 95 3c b7 ef 18 bc 3d fa a3 3c f3 51 69 bb
       0.018213147 -0.009334496 0.020016784 -0.0035601824
000110 9f 0e 81 3c aa 8b 8e bc 30 0a 8d bc 77 73 a1 3c
       0.015754042 -0.017400581 -0.017216772 0.019708378
000120 59 48 82 bc ed 21 a2 3c 6e 14 a1 bc 39 17 2d 3c
       -0.015903639 0.019791568 -0.019663062 0.010564619
000130 65 c4 83 bc 12 d3 ef 3b 55 a6 80 bc 3f 6b 5e 3c
       -0.01608486 0.0073188627 -0.015704313 0.013575374
000140 82 80 25 3c a2 67 99 3c 65 39 42 bc 6e 22 af bc
       0.010101439 0.018726174 -0.011854504 -0.021378722
000150 36 ac ec 3c d4 c7 c4 3b 7d 8d 91 bc 1d 42 cf 3b
       0.02889071 0.0060052667 -0.017767662 0.00632502
000160 ab 4d 88 bc b1 2d 6f 3c b2 2b 23 3c e4 b1 76 3c
       -0.016638597 0.014598296 0.009959148 0.015057061
000170 4f 5e ac bc 16 ab 8d bc a6 f0 9f 3c c3 c6 67 bc
       -0.021041064 -0.017293494 0.01952393 -0.01414651
000180 49 cf 16 3d 04 2a 39 3c a0 66 b7 bc 34 92 4c bc
       0.036818776 0.011301521 -0.022387803 -0.012486029
000190 2d e5 ae bc ce a6 90 3c 6c 63 36 bc 21 c8 93 3c
       -0.021349514 0.017657664 -0.011132102 0.018039765
0001a0 17 1c 87 bb 5c 32 14 3c 67 02 fe 3b 1a 85 ab 3c
       -0.0041232216 0.00904521 0.007751751 0.020937491
0001b0 e3 26 91 3c a6 d3 f0 bb d0 58 93 3c 6a 0b 81 bc
       0.017718738 -0.007349449 0.017986685 -0.015752513
0001c0 46 01 73 3c 21 57 9f 3b 28 a3 3d 3c b2 a6 34 bc
       0.014831847 0.0048626815 0.011574544 -0.011026071
0001d0 58 0e 0a 3c fa 5f 5a ba 14 2e 54 bc fc f7 20 bc
       0.008426271 -0.00083303417 -0.012950439 -0.009824749
0001e0 9e fe 72 bc ad 94 4f 3c 25 3b 7e 3c e8 9d b0 bc
       -0.014831213 0.012669724 0.015517031 -0.02155967
0001f0 85 00 2a bb 6a 5c ed 3b 0b 10 76 bc 20 5a 63 3a
       -0.002594025 0.0072436826 -0.015018473 0.00086727925
000200 1c 6c 4b bb 8d 16 42 3c 0c ca ce bb e2 ae ff bb
       -0.003103978 0.011846197 -0.006310707 -0.00780283
000210 e4 0b 3e 3c 3c cf 53 bc d9 20 81 3c 81 ab a9 bb
       0.011599515 -0.0129278265 0.015762733 -0.0051779156
000220 eb e3 92 3c 16 b1 33 3c 33 0b 67 3b 4a bf 0e bc
       0.017930945 0.010967514 0.0035254478 -0.008712599
000230 7c e3 2d bc 67 13 47 3c b4 a2 58 3b 71 6a 5c ba
       -0.0106133185 0.012150622 0.0033055963 -0.0008408195
000240 7d 38 86 bc b8 5a 0f 3b 8c bb ca bc dc 56 92 3a
       -0.016384358 0.002187414 -0.024747632 0.0011164802
000250 97 49 d8 3b e7 b6 7a bc 73 14 49 bc cd c0 22 3c
       0.0066005695 -0.015302396 -0.012272942 0.009933663
000260 d8 5c 00 bd 9a 42 12 bc 36 a3 a3 bc 36 6d 2d 3c
       -0.031338543 -0.008927012 -0.019975286 0.01058512
000270 2d eb 6e bb cc 47 27 3c ec 6b aa 3b 1f d9 d0 bc
       -0.0036456094 0.010209989 0.0052008536 -0.025494156
000280 4f c7 6d 3c b9 fd 49 bc 4c 50 22 bc ed 94 3d bb
       0.014512851 -0.012328559 -0.00990684 -0.0028927878
000290 99 23 66 bc 3f 08 0d bc 80 23 25 3c 00 d2 01 bc
       -0.014046573 -0.008607923 0.010079265 -0.007923603
0002a0 c8 b0 69 3c 6d 19 e0 bc f7 4e 1f bc 29 2c 42 bc
       0.014263339 -0.027355874 -0.0097234165 -0.011851349
0002b0 ad a3 81 3b 9a fa fc 3a fa a2 9b 3b 91 b6 46 bb
       0.0039562793 0.0019300759 0.004749653 -0.003032122
0002c0 e8 be 2a 3a 73 e6 72 bc bc 71 10 bc e6 e1 3e 3b
       0.00065134326 -0.014825451 -0.008816179 0.0029126345
0002d0 3f ed c6 bb a5 fb 81 3b 6c 7e 22 3c 99 92 f0 bb
       -0.0060707624 0.003966766 0.009917837 -0.0073416946
0002e0 99 fc 25 bc 52 1c 1e 3c e6 b6 1e 3c 4f d2 9d 3c
       -0.010131025 0.009650307 0.009687161 0.019265322
0002f0 2c b1 77 bc ae a6 e3 3b 1e bd 9b bb f1 30 81 3c
       -0.015117925 0.00694736 -0.004752769 0.015770407
000300 73 35 f3 3b 82 29 d9 bc 59 03 6d 3c a6 be 9c bb
       0.007422143 -0.02650905 0.01446613 -0.0047834693
000310 e2 d6 12 bc 9b eb 38 bc b5 78 8b bb 03 45 6b 3c
       -0.008962365 -0.0112866415 -0.0042563328 0.014359715
000320 7e d7 2e bc dc 2c 3e 3c d6 cc ec 3a 36 04 9a 3b
       -0.0106714945 0.011607375 0.0018066417 0.004700209
000330 90 30 0a bb 24 74 47 3c 7b ef 60 bc 71 d2 07 3c
       -0.0021086074 0.012173686 -0.013728972 0.008289919
000340 02 38 99 3c 51 9e 02 3b 79 74 1c bc dc e6 00 bc
       0.018703464 0.001993079 -0.009549254 -0.007867541
000350 c0 50 97 3c 17 52 ad bc 28 e8 d8 bc 3e b7 a7 3c
       0.018471122 -0.021157308 -0.026477888 0.020473119
000360 58 03 07 bc c7 b5 0e 3c 97 86 43 3c b6 a4 fd 3a
       -0.008240543 0.008710331 0.011933944 0.0019351456
000370 46 68 b4 3b 8b e5 b5 bb 7e 78 32 3c 26 24 19 bc
       0.0055055944 -0.0055510453 0.010892985 -0.009346997
000380 90 2d 2c 3c 93 53 c3 3b 19 fe 8d bc 0b ed 9b 3a
       0.01050891 0.0059608906 -0.017333077 0.0011896206
000390 67 ab 60 bc fe e0 a6 3b d6 bd 31 3c c6 65 46 3c
       -0.0137127405 0.005092739 0.010848483 0.012109226
0003a0 63 73 b4 bb d7 a4 bb 3c ed 6e a4 3c 64 37 e2 ba
       -0.005506919 0.02290575 0.020072425 -0.0017258939
0003b0 dc 59 63 3c 60 41 30 bc bf 85 f1 3a 0b 51 27 bc
       0.013876405 -0.010757774 0.00184267 -0.010212193
0003c0 2f eb e8 3b e7 2a a8 3c 5e 30 32 bc 6a 8b 89 bc
       0.007108114 0.02052827 -0.010875789 -0.01679011
0003d0 c0 35 d2 3b b7 b2 a6 3c d9 1a 1b bb 9a 97 b8 bc
       0.006415099 0.02034889 -0.0023667125 -0.022533227
0003e0 b3 1a 1e bb db 56 81 3c 55 6a 80 ba 93 a2 01 bb
       -0.00241248 0.015788486 -0.0009797314 -0.001978074
0003f0 e4 05 a2 bc 01 6a 9a 3c 16 73 fa bb 16 11 ef bb
       -0.0197782 0.018849375 -0.007643114 -0.007295738

action_model._continuous_distribution.mu.bias f4 [2]
000000 4b cf 93 3b ce 3d 28 bb
       0.004510795 -0.0025671604

onnx::Div_51 f4 [8]
000000 b4 5d b9 3a b4 5d b9 3a b4 5d b9 3a b4 5d b9 3a
       0.0014142306 0.0014142306 0.0014142306 0.0014142306
000010 b4 5d b9 3a b4 5d b9 3a b4 5d b9 3a b4 5d b9 3a
       0.0014142306 0.0014142306 0.0014142306 0.0014142306
