results/3DBall_run01/3DBall/3DBall-378153.onnx (onnx, 77016 bytes, 9 tensors)

network_body.observation_encoder.processors.0.normalizer.running_mean f4 [8]
000000 00 00 00 00 00 00 00 00 00 00 00 00 00 00 00 00
       0.0 0.0 0.0 0.0
000010 00 00 00 00 00 00 00 00 00 00 00 00 00 00 00 00
       0.0 0.0 0.0 0.0

network_body._body_endoder.seq_layers.0.weight f4 [128, 8]
000000 7f 77 f3 bd 90 57 a5 be a0 ce 93 3e 17 9a a4 3e
       -0.118880264 -0.32293367 0.2886858 0.3214881
000010 b8 6e 99 3d 0e de 8e 3e 54 cc c0 3e bb df 19 3f
       0.07491821 0.2790379 0.3765589 0.6010701
000020 80 b7 65 3e a0 c9 e3 3e 74 fa 87 bf a7 1e c0 3e
       0.22433281 0.44489765 -1.0623307 0.37523386
000030 f7 9d 19 3e 40 2b ca be da f5 c9 3e fb 69 34 be
       0.15001665 -0.39486122 0.39445382 -0.17618553
000040 f6 b6 09 3f 79 d3 9c be b3 aa 31 3e 82 d2 c6 3d
       0.537948 -0.3063009 0.17350273 0.0970812
000050 85 3f 8f 3d 88 c4 f7 bc 0c b1 15 3f 38 5e 9c 3e
       0.06994537 -0.03024508 0.5847328 0.30540633
000060 24 12 b3 be 81 5b bd 3e a4 cd 21 3e 8a f5 40 3e
       -0.34974778 0.36983874 0.15801102 0.18843666
000070 01 e0 86 bd 87 60 5f be bd b1 5e be bd 7b 5e bf
       -0.06585694 -0.21814166 -0.2174749 -0.8690756
000080 c1 c1 04 3f 63 b1 54 3e d2 1f 0a bd 10 6d 86 3e
       0.51858145 0.20770793 -0.033721752 0.26255083
000090 28 e0 02 3e df 50 2d be 71 a9 5f bd 9c 84 59 be
       0.12780821 -0.16925381 -0.05460495 -0.21241993
0000a0 89 ff 80 be 9b 55 a8 3c 2d e9 59 3e 61 bd 12 be
       -0.25194958 0.020548632 0.21280356 -0.14330055
0000b0 8b f5 aa 3e a3 df 02 3f fa b9 9a be a3 fa c9 be
       0.3339046 0.5112249 -0.30220014 -0.39449033
0000c0 46 cc d5 be 35 8b 27 3f 2d 17 f5 be fb bb a1 bf
       -0.4175741 0.6544679 -0.47869244 -1.2635492
0000d0 59 45 85 bd 37 a6 4c 3e 85 95 b7 be 90 28 86 3e
       -0.06507368 0.19985281 -0.35856262 0.26202822
0000e0 f7 c1 d8 3e 7d 8c 8a be 15 bf b4 bd 16 bd 11 3e
       0.42335483 -0.2706031 -0.088255085 0.14232287
0000f0 3f 0f 7f be d2 6e c4 be 8e d3 25 bf 15 67 a8 3c
       -0.2490816 -0.383658 -0.6477593 0.020556966
000100 42 a4 e1 3e 45 b0 3a bf 75 2d f0 3d cc a2 66 3d
       0.4407063 -0.72925216 0.1172742 0.0563076
000110 84 d8 41 3c 8f a6 52 3e 59 f6 3e 3f e7 68 0d 3e
       0.0118314065 0.2057135 0.74594647 0.13809548
000120 19 b3 c0 be 28 35 cd 3d 5a ed a2 bb 0d 3d 88 be
       -0.3763664 0.100199044 -0.004972142 -0.26609078
000130 75 5d 2b 3e 0b 9b c1 3c 68 72 ca 3d 7b bf 8c be
       0.1673487 0.0236335 0.098851025 -0.27489838
000140 0f fb 24 bf 9c 9b 30 3e fc 56 5c be 49 35 09 3f
       -0.64445585 0.1724686 -0.21517557 0.5359693
000150 6b f9 0b bf 62 45 9d be 43 cc 3c bc ad 9f ee bd
       -0.54677457 -0.30716997 -0.011523309 -0.116515495
000160 7c 3f b8 bd a0 85 9e be d9 5c 69 3f cd 61 39 bd
       -0.08996484 -0.30961323 0.911573 -0.045259286
000170 5a 30 5c 3f 0a 35 1a 3e 79 e6 71 be f2 54 9b be
       0.8601128 0.15059295 -0.23623075 -0.30338246
000180 47 f7 10 bf b9 e3 f9 3e 09 89 1f be 5a b7 b5 3e
       -0.56627315 0.4880655 -0.15579619 0.3549145
000190 a9 4e 89 be 37 ac bb be 03 70 68 be be 29 d4 be
       -0.26817825 -0.36654827 -0.22698979 -0.41438097
0001a0 0c a0 0c bf a0 01 7b 3d ee c1 62 3e 4c 9a e8 bd
       -0.5493171 0.061280847 0.22144291 -0.11357555
0001b0 87 24 f4 3d 5c 62 45 3e 64 5f 99 bd 6d a2 61 3e
       0.119210295 0.19275802 -0.074888974 0.22034617
0001c0 56 0f 40 be 5d 96 d5 3d 8d 28 c3 be 9e 49 40 be
       -0.1875585 0.1042907 -0.38116875 -0.18778083
0001d0 e6 36 58 3e 85 ca 0b 3e 24 f0 2a 3d 25 20 14 bf
       0.21114692 0.13651474 0.041732922 -0.5786155
0001e0 9e 49 f6 bc f7 c5 98 3d 5e 40 ef be 8a 05 11 bf
       -0.0300644 0.07459634 -0.46728796 -0.56649077
0001f0 4d f2 3f 3e a3 3a a6 be ed 7e 8b 3e c7 2f a0 be
       0.18744774 -0.3246661 0.27245274 -0.3128645
000200 cb 76 c1 3d e3 d0 93 bd 50 ae 06 3e d4 a9 c8 3e
       0.09446486 -0.07217576 0.13152432 0.3919207
000210 9b 90 44 bd f0 80 77 3f 5c 1d b4 be 98 10 d6 be
       -0.04798947 0.9668112 -0.3517865 -0.41809535
000220 66 8a 2a 3e 86 3b b8 3e 31 9f b5 3d b2 99 95 bc
       0.16654357 0.35982913 0.08868254 -0.018261764
000230 ee 19 e9 bd 20 ae aa 3e ae 11 cf 3d 0b d7 59 3e
       -0.11381899 0.33335972 0.10110794 0.21273439
000240 f1 16 ee 3c 1f 6d 78 bd 2e 05 a2 be 80 2d 1d 3f
       0.029063674 -0.06065094 -0.31644577 0.6139755
000250 13 06 20 be 4e 6a 09 bf 2f 1f 90 be 0b 62 dc bd
       -0.15627317 -0.53677833 -0.2814879 -0.10760888
000260 0d a4 0d bf a3 e5 84 be 66 5c 0e 3e 4c f0 32 be
       -0.55328447 -0.2595645 0.13902435 -0.17474478
000270 ee 6a 4d 3e 44 9f f7 3e e2 86 7d 3e da 13 52 3e
       0.20060322 0.48363698 0.24758485 0.20515385
000280 2b 6e 44 3d cd 9c f0 bd a8 42 a4 be 42 d5 70 3e
       0.047956627 -0.117486574 -0.32082105 0.23518851
000290 7e 75 bd bc 66 bf b7 3d 09 27 63 3b c9 14 aa 3e
       -0.023127314 0.08972053 0.0034660718 0.33218983
0002a0 7c 03 69 be 64 88 39 3e bc 0e a5 3e 43 22 3a bf
       -0.22755235 0.18118435 0.32237804 -0.7270853
0002b0 d3 4e 1c 3e 4b 0a 7e bc 60 9c 4b be 16 74 23 3e
       0.15264444 -0.015505384 -0.19883871 0.15962252
0002c0 7d 72 07 be 3c 97 88 3e fd 72 08 bf 4e 54 22 be
       -0.13227268 0.26677883 -0.5330046 -0.15852472
0002d0 a3 e1 06 bf fe 3e 8c be 50 7d 17 3d d9 57 cb be
       -0.52688044 -0.2739181 0.03698474 -0.3971546
0002e0 6e c7 3e be 82 13 95 3e 60 57 7c bd e5 74 e2 be
       -0.18630764 0.29116446 -0.061606765 -0.44229808
0002f0 11 9a 6e 3f 1b e8 3e 3e c6 5f b2 be e7 d3 e3 bd
       0.93203837 0.18643229 -0.34838694 -0.111244015
000300 65 63 cc 3e 66 0a 75 3e c2 87 9b be 7a c4 60 be
       0.39919582 0.23929748 -0.30377012 -0.2194995
000310 d2 99 8e 3e 7a b2 d3 be f9 55 03 3f f8 12 ad be
       0.2785173 -0.41347104 0.5130306 -0.33803535
000320 5d d8 e4 bd c3 96 84 3e b8 79 04 3f 51 aa 66 3e
       -0.111740805 0.25896272 0.5174823 0.22525908
000330 c3 97 25 be f5 f6 95 be 03 eb a6 be f8 6f 6e 3e
       -0.16171174 -0.29289976 -0.32601175 0.232849
000340 0d 5f f8 bd 7f d1 1a bd 9d 9f c8 3e a6 55 2b 3d
       -0.121275045 -0.037797447 0.39184275 0.041829728
000350 1a e2 86 3e b3 d1 70 3d 33 9f 94 3d 16 7f 01 bf
       0.26344377 0.058793735 0.07256927 -0.5058454
000360 d2 72 eb bb cd e5 7c 3d 64 9f e2 3e 7d 3e fd bd
       -0.0071853185 0.061742593 0.4426223 -0.12365434
000370 37 c0 c2 3d af fb d8 3c 2b d3 32 be b5 7c 22 3e
       0.09509318 0.0264872 -0.17463367 0.15867884
000380 87 86 fa bd 87 08 01 bf 59 79 3b 3f 92 d6 31 3d
       -0.1223269 -0.50403637 0.73232037 0.04341752
000390 12 0e 34 be 28 2d 20 3d 36 4e ca be 0f b7 30 bf
       -0.17583492 0.039105564 -0.39512795 -0.69029325
0003a0 cc be f6 be d1 97 5c 3f 15 3b e3 be da be 45 3e
       -0.4819244 0.86169153 -0.44381014 0.19311085
0003b0 58 bf 0f be d1 63 9a be ce ff 96 3e a7 34 e6 3d
       -0.14037836 -0.3015428 0.29492038 0.112405114
0003c0 f8 1e 49 3e 0d 5a 88 be 27 18 d0 3e a6 eb 61 be
       0.1964072 -0.26631203 0.40643427 -0.22062549
0003d0 fa 3f b3 3e 72 bf 65 3e 1d 5b cb bd 97 5b 81 3c
       0.35009748 0.22436312 -0.09929488 0.015790744
0003e0 65 62 f7 bd 45 b8 af 3d 00 4c 78 3e 00 e3 ff 3d
       -0.12079314 0.085800685 0.24247742 0.12494469
0003f0 19 ee b3 be 72 b6 2a 3f 4f e9 4d bd 01 c1 ec 3e
       -0.35142592 0.6668464 -0.05027133 0.46241

network_body._body_endoder.seq_layers.0.bias f4 [128]
000000 8a e9 67 3b 8a eb 24 3b 2f e4 88 3b b6 e9 be bb
       0.0035387003 0.0025164806 0.004177592 -0.0058262004
000010 a6 d9 5c 3b f3 a3 16 bc d9 c1 1e bc 08 0a 59 3c
       0.0033699065 -0.009194362 -0.009689772 0.013247021
000020 b1 ae d9 ba c2 b2 ec 3a 2f a2 6f bc 89 25 06 bc
       -0.0016607848 0.0018058645 -0.01462607 -0.00818766
000030 40 c8 c2 3b e2 de 30 bc 45 1f 1b bc 58 3c d5 3b
       0.005944282 -0.010795327 -0.009467904 0.0065074377
000040 4a 72 25 bb 57 3a cc bb 4c 85 2c bc 7e 43 18 3c
       -0.0025245124 -0.0062325406 -0.010529827 0.009293435
000050 f4 21 b8 3b 82 30 94 3c fb 16 a1 3a 93 ed 74 bc
       0.005619282 0.018089537 0.0012290174 -0.01494922
000060 39 58 fb bc 55 e9 6e 3c ab 59 37 bb 6d 11 90 ba
       -0.030681716 0.014581998 -0.002797703 -0.0010991521
000070 5c 84 a7 bc b3 a1 50 bb 35 de fd bb 2e 48 50 b9
       -0.020448856 -0.0031834661 -0.0077474364 -0.00019863315
000080 1a 89 a2 bb da c3 08 bc 7e 22 95 bc 8b ac be bb
       -0.0049601914 -0.008347476 -0.018204924 -0.0058189086
000090 09 6d 6a 3c 82 14 ac 3b be f9 1b bc 5d ec 1e 3b
       0.014308223 0.005251468 -0.009519992 0.002424977
0000a0 9b b2 93 bc d5 9c 37 39 66 7f 13 3b 0b 04 d3 bb
       -0.018029502 0.00017510664 0.0022506355 -0.006439691
0000b0 2b 87 43 3c a6 6d 92 bb 9a 14 7e bc e3 d5 33 bb
       0.011934082 -0.0044686375 -0.0155078415 -0.002744072
0000c0 73 6d 6f bb af cb 70 bb 94 e4 69 3b e2 b3 d9 bb
       -0.0036533743 -0.0036742499 0.0035689222 -0.006643758
0000d0 d2 30 76 bc ff 87 5a 3c fe 5c 0b bb a9 bb 44 3b
       -0.015026288 0.013338088 -0.0021265144 0.003001908
0000e0 8d 6e 86 bb 5d ca 47 bb df 66 4d 3b 39 19 ac b7
       -0.004102534 -0.0030485608 0.0031341834 -2.0515743e-05
0000f0 f2 b5 8e b9 0e 32 cc 3b 7b 70 a2 3b e4 90 06 bc
       -0.0002721991 0.006231553 0.0049572564 -0.008213256
000100 f2 77 df bb 93 10 f9 39 80 c1 24 38 1d 07 11 3c
       -0.0068197185 0.0004750533 3.9280858e-05 0.008851794
000110 46 7a 25 bc f4 64 d1 3b 5e 55 3c bc fb e3 b1 3a
       -0.010099953 0.0063902084 -0.0114949625 0.0013571972
000120 af e1 a8 bb fb ab 0c bb 7a 1b 3f 3c 21 dd 04 3b
       -0.0051538567 -0.0021464813 0.011664266 0.0020273405
000130 f9 cb 49 3b 11 5c c7 3b cd a6 3e bb ab f7 a2 3a
       0.0030791743 0.006083973 -0.002909112 0.001243343
000140 48 1f 28 3c 66 9b f0 b9 0c 74 ea 3b f6 1b 3e bc
       0.010261364 -0.00045892148 0.007154947 -0.011603346
000150 dd d2 c4 b9 70 2c f0 3a d9 3e 80 bb c8 2b 7b 3c
       -0.0003754114 0.001832379 -0.003913742 0.0153302625
000160 5c 0a ae bb d5 f0 85 3b 3d b6 d4 bb 9b 5e 5c 3b
       -0.0053112935 0.0040875473 -0.006491451 0.0033625725
000170 6a 05 16 bb f5 4d 90 3c 0e 7d e7 3b 58 3d ac 3c
       -0.002289141 0.017615298 0.007064468 0.021025345
000180 76 1d 63 3a 30 06 44 bb 3d 5b c4 bb 75 39 0a b9
       0.0008663753 -0.0029910915 -0.0059923218 -0.0001318211
000190 ef 09 4e ba 47 42 73 bc 60 f4 95 bb 8c 62 a7 ba
       -0.00078597566 -0.014847345 -0.004576251 -0.0012770458
0001a0 c3 41 ee 3a 89 40 09 3c 46 d5 32 3b 77 47 d2 b9
       0.0018177558 0.008377203 0.0027287765 -0.00040107567
0001b0 3e 95 3d bc af 06 96 3a d7 0f a3 b8 48 85 3f ba
       -0.011571227 0.0011446084 -7.775396e-05 -0.0007305932
0001c0 52 47 08 bb 4c 98 75 3b eb 41 05 3c 57 a1 6c bc
       -0.0020794463 0.003747481 0.008133392 -0.014442763
0001d0 e2 73 b4 bb 00 45 73 bc 27 84 fc ba 2d f4 97 3a
       -0.0055069784 -0.014847994 -0.0019265459 0.0011593156
0001e0 47 76 e3 bb 8e 63 6f bb ff cb 23 3a 47 13 d6 3b
       -0.00694159 -0.0036527845 0.00062483543 0.0065330598
0001f0 d6 04 05 bc f0 f5 83 3b 4d 3c 9e 3b 68 b0 86 b9
       -0.008118829 0.004027121 0.0048289658 -0.00025689905

network_body._body_endoder.seq_layers.2.weight f4 [128, 128]
000000 05 8f 16 bd ce c1 af 3c 66 dc b8 bd 29 d8 30 be
       -0.036757488 0.021454718 -0.09026413 -0.17269959
000010 50 50 ee bd 3b f1 2f 3e c3 7e 01 3d 57 9d c7 3b
       -0.11636412 0.17181866 0.03161503 0.0060917544
000020 dd ef 11 be 95 ba cb bc 2e f9 09 be 7b c2 91 bd
       -0.14251657 -0.024869243 -0.13473961 -0.07117172
000030 85 8f d3 bc c1 b7 04 3e bf 46 29 3d e4 b8 2a 3c
       -0.025825271 0.12960722 0.041327234 0.010420058
000040 aa 2f be 3d 27 87 69 be 97 35 6a 3d 31 0f 8f 3d
       0.09286435 -0.22805463 0.057180014 0.069853194
000050 01 e0 24 3e 30 13 ba bd ff 54 fb 3d ad 1b f1 3b
       0.16101076 -0.09085691 0.12272071 0.0073580355
000060 c7 02 ab bd cc 73 fe bb 92 38 ae bc 6b f7 c2 3c
       -0.08350139 -0.007765269 -0.02126721 0.023799619
000070 67 9c 20 3e 21 af 0f be bd 1c 0c 3e 50 ec 83 be
       0.15684663 -0.1403165 0.13682838 -0.2576623
000080 11 1c d9 bd d6 b8 5e 3d 07 4a 47 3d fb 4b 58 3c
       -0.10601056 0.054375492 0.048654582 0.013201709
000090 10 da 91 bd 8e 70 2b be 41 cb 2c be 38 84 fb 3b
       -0.0712167 -0.16742155 -0.1687441 0.007675674
0000a0 5d d8 1f 3d 17 fa 4b bd e8 b0 c5 3d ac e6 82 bd
       0.0390247 -0.04979905 0.09652883 -0.063916534
0000b0 97 ba a9 bb 25 d1 4a 3d 15 76 8b 3d ed 0c e6 3d
       -0.005179714 0.049515862 0.06809632 0.11232934
0000c0 99 35 e1 3d 4c 0e e6 3b cf e1 ab 3d 6a c5 2c bd
       0.10996551 0.0070207473 0.08392679 -0.042180456
0000d0 45 e3 de bd 2c 23 20 be 49 62 17 bd 12 a4 ec 3d
       -0.10883192 -0.15638417 -0.036958966 0.115547314
0000e0 9a 1d 48 3e a0 e6 de bd fc 88 07 be d9 6a 18 3d
       0.19542542 -0.10883832 -0.13235849 0.037211273
0000f0 db c7 4a 3d a1 8a ef 3d c8 0d 11 be 01 75 5c bc
       0.049507003 0.11696363 -0.14165413 -0.01345563
000100 46 a7 a4 bd a9 d7 36 bd 28 d4 fd bd 1b 31 c6 bd
       -0.080397174 -0.044639263 -0.12393981 -0.09677335
000110 e6 71 37 3c fb 32 89 3d 24 ae 80 bd 66 8e 04 be
       0.011196589 0.06699177 -0.06283215 -0.12944946
000120 c8 df 98 bd 83 8d 47 3d c1 c1 50 3d e1 28 79 3d
       -0.07464558 0.04871894 0.050966028 0.06083
000130 2c e9 00 bd 29 36 a4 bd 52 20 01 3e 34 0e 57 bd
       -0.03147237 -0.08018143 0.12609985 -0.05250378
000140 14 36 2f 3d 00 7d 1d bc a1 99 da 3d c3 f5 2c be
       0.042776182 -0.009612322 0.10673834 -0.16890626
000150 c0 88 4a 3d 73 0d f3 3d d7 a6 5d 3d 1b 9c 2f be
       0.04944682 0.118677996 0.05411419 -0.17149393
000160 e6 94 ad 3d 85 f2 ba bd 38 a2 b6 bd 17 19 f4 bd
       0.08475666 -0.09128288 -0.089176595 -0.11918848
000170 d3 db 36 3d 3e 31 1d 3e fc 03 1c be 0d 2c c8 3b
       0.044643234 0.15350816 -0.15235895 0.006108767
000180 86 d4 0c 3e dd bd bc 3d f3 3c 09 bd 64 a3 b9 bc
       0.13752946 0.09215901 -0.03350539 -0.022660919
000190 6b b1 36 bc cf 6d 05 3e 0a 70 e3 3c e7 aa bc 3d
       -0.011150698 0.1303017 0.027763385 0.092122845
0001a0 6b 2d 60 3e 60 9a ec bc 88 48 31 3e 6a ce 35 be
       0.21892326 -0.028882205 0.17312825 -0.17754522
0001b0 32 5f 2c 3e 6f 20 18 3c a1 d1 a8 bb b6 22 9d 3d
       0.16833189 0.0092850765 -0.005151943 0.07672636
0001c0 8c ec ca bd cd 11 f9 bd 19 d5 12 bd 46 2b 26 3e
       -0.09908399 -0.12161598 -0.035847757 0.16227445
0001d0 a3 a1 20 3c 71 76 a6 bb 5c 89 58 3d 95 d4 a1 bd
       0.009804162 -0.0050800373 0.05286537 -0.07901875
0001e0 9f 58 10 3e 7b d4 4c 3d c2 68 70 bd a8 ad b2 bb
       0.14096306 0.050007325 -0.058693655 -0.0054528303
0001f0 e4 ad db bc e6 a9 16 3d a3 fd 40 bd 2c fe b2 bc
       -0.026816316 0.03678312 -0.047116887 -0.021849714
000200 ab e3 96 bb 9f 4c 89 bc 7b 99 04 be 6a bc 0f 3d
       -0.004604777 -0.016760169 -0.12949173 0.035091795
000210 3e 80 1f 3e 74 65 60 bd f1 1a 03 3d 66 4f 0e 3e
       0.15576264 -0.054784253 0.032008115 0.13897476
000220 df 3c ff bc 50 72 e6 bd 93 34 20 3d 56 05 87 3d
       -0.031156955 -0.11252272 0.03911264 0.065928146
000230 79 c5 13 be 42 38 97 3d 2c e0 e4 3d 99 3c 3f bd
       -0.14430799 0.07383777 0.1117557 -0.04668865
000240 cf 23 d4 bb 5d e3 39 be ec 74 e3 3d d6 b8 8d 3c
       -0.0064739953 -0.18153138 0.111062855 0.01730005
000250 49 2e ca 3d 74 4c 81 bb 4a 9b a3 bd 56 46 80 3d
       0.098721094 -0.0039458815 -0.079886034 0.062634155
000260 84 3a 0f be 27 30 8f bc ab ae 3c 3d 77 3f 06 3e
       -0.13987166 -0.017479016 0.046065014 0.13110147
000270 9a 49 64 3e 83 e6 46 3e 80 13 7e 3e 1d f7 06 3e
       0.22293702 0.1942387 0.24812126 0.13180204
000280 8c 2a e5 3c 4c 25 00 3c fb 45 9e 3d 35 03 16 3b
       0.02797439 0.007821392 0.077281915 0.0022890095
000290 61 3f 0e 3d 5b 76 37 bd b5 d0 7f bd 93 6d 3a 3e
       0.03472841 -0.044790607 -0.062454898 0.18205862
0002a0 b2 7c 63 3d a2 82 43 be ee e4 be bc e2 2c 62 3d
       0.05553884 -0.19092801 -0.023302522 0.055218585
0002b0 48 9b 45 3e c3 cd a2 bd e7 81 2e 3c b2 03 d6 3d
       0.19297516 -0.07949402 0.010651088 0.104499236
0002c0 c8 af c6 bd ad fb ac 3d 52 9f 71 3d de d6 29 bc
       -0.09701496 0.08446441 0.05898983 -0.01036617
0002d0 5c 3a b9 3d ac 2b e7 3d 0b a5 84 bd 84 86 a9 3d
       0.09044334 0.112876266 -0.06476792 0.0827761
0002e0 3b 7a 1e bd ae aa 35 3c 4b c0 1c bd 94 e9 9f bd
       -0.038690787 0.0110880565 -0.038269322 -0.07808223
0002f0 42 16 1f 3e b3 02 ba bd 2d 36 4b be f1 c7 d2 bd
       0.15535834 -0.09082546 -0.19844885 -0.10292042
000300 93 53 8d bd 90 e9 0a bc 21 5d 8e 3d ae 7d ff 3c
       -0.06900706 -0.008478537 0.06951357 0.031187858
000310 5e e3 a9 bd 72 96 44 bd b2 7f 87 3c 29 a6 ac 3c
       -0.0829532 -0.04799504 0.016540382 0.021075325
000320 20 03 bf 3c f5 7f d7 bd 8c 5d a3 bc f9 86 73 3d
       0.02331692 -0.10522453 -0.019942068 0.05945489
000330 73 74 d3 3d 0e 77 0c be 81 df b1 bd 06 f6 e4 bc
       0.10324945 -0.13717291 -0.08685208 -0.027949344
000340 73 dc 89 3d a8 2e 5c bd 9f d5 95 bb bd 51 58 3d
       0.067315005 -0.053755432 -0.0045725848 0.052812327
000350 a0 4e 80 bb 3c 93 77 bd 01 99 57 bd 48 d1 cb 3d
       -0.003915623 -0.060443148 -0.05263615 0.099520266
000360 cc ea 25 3d c6 7c 0e 3d a2 fe f8 bb 2f 54 21 3d
       0.040507123 0.034786962 -0.007598714 0.039386924
000370 43 6e 3e bc 18 2a 8a bd 81 29 f9 3d 99 00 66 bc
       -0.011622968 -0.0674631 0.12166119 -0.014038228
000380 2d e2 d6 3c 27 c4 ce 3c 28 f7 62 3e ea 33 60 be
       0.026230896 0.025240017 0.22164595 -0.21894804
000390 d2 8e cd bc 4b c5 d9 3d 75 02 66 bd 8c 3e 3b 3e
       -0.025092516 0.10633334 -0.056154687 0.18285578
0003a0 14 2f 59 be 73 8e 4c 3d da 41 ca 3d 26 72 14 be
       -0.21209365 0.049940538 0.098758414 -0.14496669
0003b0 15 ca 21 be 12 b1 0c 3d 1b 82 97 3d 97 17 9e bc
       -0.15799744 0.034348555 0.073978625 -0.019298358
0003c0 72 41 9c bd f9 95 a8 ba 73 fa 89 bd cb d4 7e bd
       -0.0762967 -0.0012862078 -0.067372225 -0.062214654
0003d0 72 65 80 3d 34 d1 11 3e 1a 3a 13 bd d5 56 02 3e
       0.06269349 0.14239961 -0.03594408 0.12728436
0003e0 10 1c 3f 3d 54 c6 e0 bc ff 4d 98 bc 32 f3 12 bd
       0.04665762 -0.02743832 -0.018591879 -0.03587646
0003f0 39 81 09 3d f9 10 86 3b 7a 5d 3c be cf 68 af bc
       0.033570502 0.0040913788 -0.18395033 -0.021412281

network_body._body_endoder.seq_layers.2.bias f4 [128]
000000 48 50 cd bb 8f 3e 50 bb 19 f0 00 bc 6d 06 57 bc
       -0.006265674 -0.003177557 -0.007869744 -0.013124091
000010 1d 19 2f 3b 17 31 fb bb 30 10 bd 3b 21 27 b3 bb
       0.002671785 -0.007665764 0.005769752 -0.005467311
000020 cb 46 55 3b a0 ed 8e bb c1 e2 93 bb c6 22 9a 38
       0.0032543417 -0.004361823 -0.004513115 7.349769e-05
000030 1d 8a 15 bb 0a 01 0d 3c 41 0d b0 3b 2f 4f cf 3a
       -0.0022817918 0.008606205 0.0053726737 0.0015816445
000040 18 9c 43 bb 13 71 ef 3b 9a ce a4 bb 7e 66 96 bc
       -0.0029847678 0.0073071807 -0.0050295116 -0.018359419
000050 27 57 aa 39 18 20 1f 3a 4a 69 ac bb 80 db 3c 3b
       0.0003248986 0.0006070151 -0.005261575 0.0028817356
000060 3f 3a dc bb 48 ee ba 3b 7c 69 7e 3c a4 fa 0c 3c
       -0.0067208107 0.005704675 0.015528079 0.008604679
000070 98 7f 97 bb b3 ef 8a ba 13 04 96 bb b9 07 00 3b
       -0.0046233647 -0.00106 -0.0045781224 0.0019535853
000080 f1 e5 f8 3b 16 9e f8 bb 39 2b 7f bc 6c 47 fd ba
       0.0075957705 -0.0075872047 -0.01557427 -0.0019323654
000090 e9 fe 4d 3b 91 e6 26 bc 21 8d c6 3b 5c b4 b5 bb
       0.0031432456 -0.010186807 0.0060593043 -0.005545182
0000a0 44 48 19 3c fb 42 ca bb fc 97 89 bc 37 65 a2 3b
       0.009355608 -0.0061725355 -0.016796105 0.0049559134
0000b0 e6 56 23 bc d8 55 16 3b 6c 59 40 bb b6 87 9c bb
       -0.009969449 0.002293935 -0.0029350175 -0.00477692
0000c0 8c 5d 05 3b cc e9 b3 3a c6 d6 f1 bb f0 aa 4c ba
       0.0020349948 0.0013726293 -0.0073803393 -0.0007807454
0000d0 b8 7e 90 ba f6 f6 56 3b 29 60 54 b9 3c a2 95 bc
       -0.0011024093 0.0032801009 -0.00020253718 -0.018265836
0000e0 cb dc 6e bc c8 d4 45 ba 63 4f 9d 3c 04 7d 87 3b
       -0.014579008 -0.00075466605 0.019202894 0.004134776
0000f0 92 25 b9 bb 3b 6a 70 bc 2c 63 2a 3b 00 65 19 3c
       -0.0056502307 -0.014673765 0.0025999052 0.009362459
000100 fe a7 33 bb e0 a6 f0 bb e0 33 30 bb 84 0f 64 bb
       -0.0027413364 -0.007344112 -0.0026886389 -0.0034799287
000110 7f 22 87 b7 71 22 15 39 57 89 f7 3b 97 3a a4 ba
       -1.6109318e-05 0.00014222578 0.007554214 -0.0012529668
000120 33 ee 81 bc 37 af a4 3b ee d9 90 ba 79 91 01 3c
       -0.015860653 0.00502577 -0.0011051276 0.007908219
000130 79 58 bd bb 1f 97 a2 3b 08 99 6e 3a b1 a3 51 3c
       -0.005778369 0.0049618627 0.0009101783 0.012795375
000140 14 a6 dd 3b 27 ce 9b bb cd f2 e7 bb b3 bb 27 ba
       0.006764183 -0.0047548 -0.0070785047 -0.0006398514
000150 ac 1e c5 3a b4 75 9d bb 3d 0b 0d bc 77 44 d4 3b
       0.0015039048 -0.004805291 -0.008608636 0.006477888
000160 4c 7e b4 3b 90 00 ff 3b eb 0e ba 3b 44 f4 1a 3c
       0.00550822 0.0077820495 0.005678048 0.0094576515
000170 b0 a2 33 bc 3d 23 12 bc ef 2b 4a bb 50 54 1d bc
       -0.010964081 -0.008919534 -0.003084894 -0.009602621
000180 e7 be ce 39 45 42 b8 3b 7b ae 12 3c 37 10 8e bb
       0.00039433615 0.0056231343 0.008952732 -0.004335429
000190 31 06 d7 3b 71 e5 30 3b 1d 46 55 3b 05 0b f4 3b
       0.0065620174 0.0026992226 0.0032543011 0.0074476027
0001a0 35 18 03 bc aa 8c ec 3b 46 fa ea 3b 7c a2 ac bb
       -0.008001377 0.007218917 0.007170948 -0.005268393
0001b0 2f 4f a6 ba b1 fb 1b bc 52 ae 25 3b 9e d9 1f bb
       -0.0012688393 -0.009520457 0.0025280905 -0.0024391185
0001c0 54 55 18 3b 2f 13 a7 3b 86 78 95 38 d7 83 12 bc
       0.002324422 0.0050987224 7.127323e-05 -0.008942566
0001d0 15 3a 02 3c 66 c1 8f 3b 73 c2 03 bc e7 67 85 bb
       0.007948418 0.0043870686 -0.008041966 -0.004071224
0001e0 da ea 1f bc e5 2b 07 3c 80 2d 98 3a 31 46 0f bb
       -0.009760583 0.008250211 0.001161024 -0.0021861906
0001f0 6d 07 cc bb 32 9e d3 3b ae 5c 56 3b 7d 67 30 bc
       -0.006226471 0.0064580673 0.003270905 -0.010766861

action_model._continuous_distribution.log_sigma f4 [1, 2]
000000 56 35 1f be 4b 7f 5e be
       -0.1554769 -0.21728246

action_model._continuous_distribution.mu.weight f4 [2, 128]
000000 11 b2 48 bc b3 bc 78 bc ef 60 e2 bb ab a0 61 bc
       -0.012249486 -0.015181708 -0.006908528 -0.013771216
000010 7e 90 af bb 3e ef c4 bb 02 d0 fd 3b f2 42 8b bc
       -0.005357801 -0.006009965 0.0077457437 -0.016999695
000020 1f 15 b7 bb f7 88 76 3c 4c 12 52 bc a6 3c 26 3c
       -0.0055872346 0.015047303 -0.012821745 0.010146296
000030 50 2a 62 bc 33 a3 93 ba 14 b5 37 3c d3 85 60 bc
       -0.013804033 -0.0011263847 0.011212606 -0.013703781
000040 c4 72 2e bc 7d 14 50 3c 6b 35 7a 3b d6 b5 e3 bc
       -0.010647479 0.012700197 0.0038178812 -0.027796667
000050 3e 71 ac 3c 07 95 87 bc f9 b5 1e bc 17 3a 41 3c
       0.021050092 -0.016550554 -0.00968694 0.011793635
000060 2c ba e5 bb 56 0a 9c bc d1 f6 f9 bc fe ff 18 3c
       -0.007010719 -0.019047897 -0.030513199 0.009338377
000070 89 b7 63 bc b1 68 ab 3c 6c 84 9a 3c a2 30 be bc
       -0.013898739 0.020923944 0.018861972 -0.02321655
000080 79 9b 6c 3b 32 54 86 ba e2 9d 34 bc 5c f5 3e bc
       0.003610341 -0.0010248481 -0.01102397 -0.011655178
000090 a7 b1 9e bc f7 ea 14 bc 1e 6a 24 3c 5e 95 a1 3a
       -0.01937182 -0.009089223 0.010035066 0.001232784
0000a0 8d e8 1e 3c 22 8b 9a 3a 51 5d 6c bc ee bb a0 bc
       0.009698999 0.0011790732 -0.014426545 -0.019620862
0000b0 c6 7d af 3c 60 1d ac 3c ff d7 8c 3c 26 79 3e bc
       0.021422278 0.0210101 0.017192839 -0.011625564
0000c0 6d 84 2e 3c c4 fb 8c bc ed 6a ac bb 46 4b 98 bc
       0.01065169 -0.017209895 -0.00526177 -0.01859058
0000d0 0a b2 d8 bc ef fa 92 3c b9 ac 7f 3c ed 64 2c bc
       -0.026452083 0.01794192 0.015605145 -0.010522109
0000e0 7e 82 5b bc 9d 8b 67 3c 8f 33 54 3c 96 af 30 bb
       -0.013397811 0.0141324075 0.012951746 -0.0026960126
0000f0 19 24 54 bb 0a 8d 9a 3c 24 e2 a3 3c 25 8d 06 3c
       -0.0032370149 0.01886608 0.020005293 0.008212362
000100 e3 f2 9a 3c 98 5b a5 bb 32 6d ab 3c a7 d7 b8 b9
       0.018914646 -0.005046319 0.020926092 -0.00035255888
000110 cc b6 53 3c 8c cb 77 bc 44 84 94 bc a5 ba 9b 3c
       0.012922 -0.015124213 -0.018129475 0.019009897
000120 97 27 3c bc bd 48 7c 3c a8 ea 8a bc 07 d6 d0 3b
       -0.011484048 0.0153982015 -0.016957596 0.0063731703
000130 3b 01 3d bc 79 ef 81 3b 74 be 83 bc 08 89 15 3c
       -0.011535938 0.003965315 -0.016082026 0.009126909
000140 bb 92 be 3b c3 b9 a0 3c 3e f0 fb bb d5 cf a5 bc
       0.0058158315 0.019619828 -0.007688551 -0.020240704
000150 e7 b1 f1 3c b3 55 13 3c fa e0 58 bc c2 ab 06 3b
       0.029503776 0.0089926 -0.013237232 0.0020549153
000160 69 f3 90 bc 40 c1 27 3c 44 ab ed 3b 53 f4 2e 3c
       -0.017694192 0.0102389455 0.0072530825 0.010678369
000170 56 2f 8c bc d0 b8 4d bc 2d 8e 9d 3c 4a 42 1f bc
       -0.017112415 -0.01255627 0.019232834 -0.009720394
000180 49 8c 1a 3d bb 55 e3 3b 2d 3b bf bc 99 b1 28 bc
       0.037731443 0.00693771 -0.023343647 -0.010296249
000190 7b 29 b0 bc ae 35 82 3c 17 2e 2d bc d6 9e 79 3c
       -0.021504154 0.015894737 -0.010570071 0.015235623
0001a0 c0 03 dd b9 6f d0 9b 3b f0 0f 66 3b 45 fd a4 3c
       -0.000421552 0.004755072 0.0035104714 0.0201403
0001b0 3d 60 93 3c 7d b4 65 bb f6 f6 86 3c 72 63 6b bc
       0.017990226 -0.0035050206 0.016475182 -0.014366971
0001c0 4e 8d 3a 3c 4b b3 92 3a 3e ab 3f 3c 3e 09 e4 bb
       0.011386229 0.001119235 0.011698542 -0.0069591096
0001d0 69 4f 86 3b ad 90 90 bb 2a 9a 54 bc ce bd 0a bc
       0.004098822 -0.004411778 -0.012976209 -0.0084681045
0001e0 10 ac 28 bc d4 88 09 3c ce 0f 79 3c 15 d6 97 bc
       -0.010294929 0.008394439 0.015201522 -0.0185347
0001f0 1f c8 4c 3a eb 67 96 3b 52 df 7e bc 9e a5 7f 3b
       0.0007811803 0.0045900247 -0.015556173 0.0039008628
000200 b3 ba 00 bc 1f d6 e5 3b 3b 26 37 bc 40 d6 56 bc
       -0.007857013 0.0070140506 -0.011178548 -0.013112605
000210 4b b3 79 3c 6d 92 90 bc 2e b4 a7 3c 95 71 21 bc
       0.015240501 -0.017647946 0.020471659 -0.00985374
000220 fd 67 4f 3c 35 1d c4 3b 1a 95 e2 ba 2e 0f b4 bb
       0.01265907 0.005984927 -0.0017286867 -0.0054949736
000230 3f ab 69 bc 34 56 86 3c bb af 0c 3c bd 2d a8 bb
       -0.01426202 0.016398527 0.008586819 -0.0051324056
000240 ca 92 90 bc eb 7d e2 3b f7 ea ed bc a7 cd 80 bb
       -0.01764812 0.0069119832 -0.029042704 -0.0039307657
000250 56 31 24 3c cb 98 86 bc d1 03 83 bc cc 86 5e 3c
       0.010021528 -0.01643028 -0.01599303 0.013581943
000260 01 a4 12 bd 11 39 2d bc 97 a7 72 bc 34 d8 74 3c
       -0.035800938 -0.010572688 -0.014810464 0.014944125
000270 91 eb dd bb de 0b d3 3b bb 1b 50 3b 88 56 a9 bc
       -0.0067724665 0.0064406237 0.003175481 -0.020671144
000280 61 46 8c 3c 77 d1 89 bc 07 d3 75 bc 41 f0 91 bb
       0.017123403 -0.016823513 -0.015003926 -0.0044536893
000290 58 15 71 bc 5b 99 5d bc 99 33 60 3c eb 8d fa bb
       -0.014714561 -0.013525332 0.013684177 -0.0076463125
0002a0 f6 cc 9d 3c 55 d3 da bc 5e f4 77 bc fe 0a 61 bc
       0.019262772 -0.0267121 -0.015133945 -0.013735531
0002b0 30 04 b7 b9 77 45 a8 3b 45 a2 c3 3b a6 0d dc bb
       -0.000349076 0.005135234 0.005970272 -0.006715494
0002c0 d2 73 8f 3b dd 3c 4a bc bc 22 54 bc d2 4f 9f b9
       0.0043778205 -0.0123436125 -0.012947734 -0.00030386314
0002d0 8f 96 1c bc 9b ea e5 3b 02 13 5d 3c 06 38 4d bc
       -0.00955738 0.0070164925 0.013493301 -0.012525564
0002e0 ef c6 7e bc 60 74 49 3c b6 51 76 3c aa f5 bc 3c
       -0.015550359 0.012295812 0.01503413 0.02306636
0002f0 4c b0 93 bc ed 02 e5 3b 7f df e0 37 b2 13 a7 3c
       -0.0180284 0.006988874 2.6806954e-05 0.020395134
000300 2f 14 13 3c c4 f8 00 bd 54 f0 2e 3c c0 f8 fe bb
       0.00897698 -0.03148724 0.010677416 -0.007781118
000310 b1 52 90 bb 79 f1 72 bc 11 c1 bd bb a8 3e 87 3c
       -0.004404389 -0.014828079 -0.0057908376 0.016509369
000320 d7 04 82 bc 7d 0f 8a 3c 5c 8a 20 bb 2b 38 17 3c
       -0.015871448 0.016853089 -0.002449653 0.0092297
000330 02 4d e9 bb 2c b0 84 3c 41 a5 50 bc 51 a2 57 3c
       -0.0071197757 0.016197287 -0.012734712 0.013161258
000340 46 b7 bc 3c 2d f8 82 3b 7f b7 62 bc 1d f5 2f bc
       0.02303661 0.00399687 -0.013837694 -0.010739592
000350 df c7 91 3c 4b 86 ca bc 49 61 f8 bc 9a 58 c4 3c
       0.017795501 -0.024722239 -0.030319827 0.02396803
000360 9f 80 88 bb c6 ed 58 3c 9c 4a 5f 3c 2e 38 e8 3b
       -0.0041657235 0.013240283 0.013628628 0.0070867753
000370 6f a7 8b 39 61 4c 2f bc 49 6f 57 3c 89 7b 6b bc
       0.00026636894 -0.0106993625 0.013149091 -0.014372715
000380 ff 6a 41 3c eb 0b 34 3c f1 ee 55 bc c0 ef 30 bb
       0.011805295 0.01098917 -0.013057456 -0.002699837
000390 a7 c7 73 bc 35 7f 05 3c 1f 6a d7 3b 7f 23 81 3c
       -0.014879144 0.008148004 0.00657393 0.015763996
0003a0 bf 65 08 bc 30 0a db 3c a6 14 c5 3c 5e 8a b4 3a
       -0.008325039 0.026738256 0.024057698 0.0013774147
0003b0 50 63 77 3c 88 c9 7f bc 41 1b a7 3b d7 4a 56 bc
       0.015099362 -0.015612014 0.0050996845 -0.013079367
0003c0 f8 1f 35 3c 32 3b cc 3c e6 18 ef bb 00 31 ae bc
       0.011054985 0.02493057 -0.0072966693 -0.0212636
0003d0 93 da 34 3c 82 ca c6 3c bd 74 a8 bb 4b 4d c3 bc
       0.01103844 0.024266485 -0.0051408694 -0.023840567
0003e0 97 4d fb bb 3f 13 a9 3c 39 9b 01 3b 30 0f cd bb
       -0.0076691615 0.02063906 0.0019776358 -0.006257914
0003f0 7c bd c3 bc df 49 b1 3c bb 00 09 bc 70 62 3f bc
       -0.023894064 0.02164167 -0.008361991 -0.011681184

action_model._continuous_distribution.mu.bias f4 [2]
000000 a5 11 01 3b b4 e8 4d 3b
       0.0019694355 0.003141922

onnx::Div_51 f4 [8]
000000 2c 25 d5 3a 2c 25 d5 3a 2c 25 d5 3a 2c 25 d5 3a
       0.0016261688 0.0016261688 0.0016261688 0.0016261688
000010 2c 25 d5 3a 2c 25 d5 3a 2c 25 d5 3a 2c 25 d5 3a
       0.0016261688 0.0016261688 0.0016261688 0.0016261688
