results/3DBall_run01/3DBall/3DBall-13082.pt (torch, 451692 bytes, 44 tensors)

network_body.observation_encoder.processors.0.normalizer.running_mean f4 [8]
0.0 0.0 0.0 0.0 0.0 0.0 0.0 0.0
00000000: 0000 0000 0000 0000 0000 0000 0000 0000
00000010: 0000 0000 0000 0000 0000 0000 0000 0000

network_body.observation_encoder.processors.0.normalizer.running_variance f4 [8]
1.0 1.0 1.0 1.0 1.0 1.0 1.0 1.0
00000000: 0000 803f 0000 803f 0000 803f 0000 803f
00000010: 0000 803f 0000 803f 0000 803f 0000 803f

network_body.processors.0.normalizer.running_mean f4 [8]
0.0 0.0 0.0 0.0 0.0 0.0 0.0 0.0
00000000: 0000 0000 0000 0000 0000 0000 0000 0000
00000010: 0000 0000 0000 0000 0000 0000 0000 0000

network_body.processors.0.normalizer.running_variance f4 [8]
1.0 1.0 1.0 1.0 1.0 1.0 1.0 1.0
00000000: 0000 803f 0000 803f 0000 803f 0000 803f
00000010: 0000 803f 0000 803f 0000 803f 0000 803f

network_body._body_endoder.seq_layers.0.weight f4 [128, 8]
-0.118880264 -0.32293367 0.2886858 0.3214881 0.07491821 0.2790379 0.3765589 0.6010701
0.22433281 0.44489765 -1.0623307 0.37523386 0.15001665 -0.39486122 0.39445382 -0.17618553
0.537948 -0.3063009 0.17350273 0.0970812 0.06994537 -0.03024508 0.5847328 0.30540633
-0.34974778 0.36983874 0.15801102 0.18843666 -0.06585694 -0.21814166 -0.2174749 -0.8690756
0.51858145 0.20770793 -0.033721752 0.26255083 0.12780821 -0.16925381 -0.05460495 -0.21241993
-0.25194958 0.020548632 0.21280356 -0.14330055 0.3339046 0.5112249 -0.30220014 -0.39449033
-0.4175741 0.6544679 -0.47869244 -1.2635492 -0.06507368 0.19985281 -0.35856262 0.26202822
0.42335483 -0.2706031 -0.088255085 0.14232287 -0.2490816 -0.383658 -0.6477593 0.020556966
0.4407063 -0.72925216 0.1172742 0.0563076 0.0118314065 0.2057135 0.74594647 0.13809548
-0.3763664 0.100199044 -0.004972142 -0.26609078 0.1673487 0.0236335 0.098851025 -0.27489838
-0.64445585 0.1724686 -0.21517557 0.5359693 -0.54677457 -0.30716997 -0.011523309 -0.116515495
-0.08996484 -0.30961323 0.911573 -0.045259286 0.8601128 0.15059295 -0.23623075 -0.30338246
-0.56627315 0.4880655 -0.15579619 0.3549145 -0.26817825 -0.36654827 -0.22698979 -0.41438097
-0.5493171 0.061280847 0.22144291 -0.11357555 0.119210295 0.19275802 -0.074888974 0.22034617
-0.1875585 0.1042907 -0.38116875 -0.18778083 0.21114692 0.13651474 0.041732922 -0.5786155
-0.0300644 0.07459634 -0.46728796 -0.56649077 0.18744774 -0.3246661 0.27245274 -0.3128645
0.09446486 -0.07217576 0.13152432 0.3919207 -0.04798947 0.9668112 -0.3517865 -0.41809535
0.16654357 0.35982913 0.08868254 -0.018261764 -0.11381899 0.33335972 0.10110794 0.21273439
0.029063674 -0.06065094 -0.31644577 0.6139755 -0.15627317 -0.53677833 -0.2814879 -0.10760888
-0.55328447 -0.2595645 0.13902435 -0.17474478 0.20060322 0.48363698 0.24758485 0.20515385
0.047956627 -0.117486574 -0.32082105 0.23518851 -0.023127314 0.08972053 0.0034660718 0.33218983
-0.22755235 0.18118435 0.32237804 -0.7270853 0.15264444 -0.015505384 -0.19883871 0.15962252
-0.13227268 0.26677883 -0.5330046 -0.15852472 -0.52688044 -0.2739181 0.03698474 -0.3971546
-0.18630764 0.29116446 -0.061606765 -0.44229808 0.93203837 0.18643229 -0.34838694 -0.111244015
0.39919582 0.23929748 -0.30377012 -0.2194995 0.2785173 -0.41347104 0.5130306 -0.33803535
-0.111740805 0.25896272 0.5174823 0.22525908 -0.16171174 -0.29289976 -0.32601175 0.232849
-0.121275045 -0.037797447 0.39184275 0.041829728 0.26344377 0.058793735 0.07256927 -0.5058454
-0.0071853185 0.061742593 0.4426223 -0.12365434 0.09509318 0.0264872 -0.17463367 0.15867884
-0.1223269 -0.50403637 0.73232037 0.04341752 -0.17583492 0.039105564 -0.39512795 -0.69029325
-0.4819244 0.86169153 -0.44381014 0.19311085 -0.14037836 -0.3015428 0.29492038 0.112405114
0.1964072 -0.26631203 0.40643427 -0.22062549 0.35009748 0.22436312 -0.09929488 0.015790744
-0.12079314 0.085800685 0.24247742 0.12494469 -0.35142592 0.6668464 -0.05027133 0.46241
00000000: 7f77 f3bd 9057 a5be a0ce 933e 179a a43e
00000010: b86e 993d 0ede 8e3e 54cc c03e bbdf 193f
00000020: 80b7 653e a0c9 e33e 74fa 87bf a71e c03e
00000030: f79d 193e 402b cabe daf5 c93e fb69 34be
00000040: f6b6 093f 79d3 9cbe b3aa 313e 82d2 c63d
00000050: 853f 8f3d 88c4 f7bc 0cb1 153f 385e 9c3e
00000060: 2412 b3be 815b bd3e a4cd 213e 8af5 403e
00000070: 01e0 86bd 8760 5fbe bdb1 5ebe bd7b 5ebf
00000080: c1c1 043f 63b1 543e d21f 0abd 106d 863e
00000090: 28e0 023e df50 2dbe 71a9 5fbd 9c84 59be
000000a0: 89ff 80be 9b55 a83c 2de9 593e 61bd 12be
000000b0: 8bf5 aa3e a3df 023f fab9 9abe a3fa c9be
000000c0: 46cc d5be 358b 273f 2d17 f5be fbbb a1bf
000000d0: 5945 85bd 37a6 4c3e 8595 b7be 9028 863e
000000e0: f7c1 d83e 7d8c 8abe 15bf b4bd 16bd 113e
000000f0: 3f0f 7fbe d26e c4be 8ed3 25bf 1567 a83c
00000100: 42a4 e13e 45b0 3abf 752d f03d cca2 663d
00000110: 84d8 413c 8fa6 523e 59f6 3e3f e768 0d3e
00000120: 19b3 c0be 2835 cd3d 5aed a2bb 0d3d 88be
00000130: 755d 2b3e 0b9b c13c 6872 ca3d 7bbf 8cbe
00000140: 0ffb 24bf 9c9b 303e fc56 5cbe 4935 093f
00000150: 6bf9 0bbf 6245 9dbe 43cc 3cbc ad9f eebd
00000160: 7c3f b8bd a085 9ebe d95c 693f cd61 39bd
00000170: 5a30 5c3f 0a35 1a3e 79e6 71be f254 9bbe
00000180: 47f7 10bf b9e3 f93e 0989 1fbe 5ab7 b53e
00000190: a94e 89be 37ac bbbe 0370 68be be29 d4be
000001a0: 0ca0 0cbf a001 7b3d eec1 623e 4c9a e8bd
000001b0: 8724 f43d 5c62 453e 645f 99bd 6da2 613e
000001c0: 560f 40be 5d96 d53d 8d28 c3be 9e49 40be
000001d0: e636 583e 85ca 0b3e 24f0 2a3d 2520 14bf
000001e0: 9e49 f6bc f7c5 983d 5e40 efbe 8a05 11bf
000001f0: 4df2 3f3e a33a a6be ed7e 8b3e c72f a0be
00000200: cb76 c13d e3d0 93bd 50ae 063e d4a9 c83e
00000210: 9b90 44bd f080 773f 5c1d b4be 9810 d6be
00000220: 668a 2a3e 863b b83e 319f b53d b299 95bc
00000230: ee19 e9bd 20ae aa3e ae11 cf3d 0bd7 593e
00000240: f116 ee3c 1f6d 78bd 2e05 a2be 802d 1d3f
00000250: 1306 20be 4e6a 09bf 2f1f 90be 0b62 dcbd
00000260: 0da4 0dbf a3e5 84be 665c 0e3e 4cf0 32be
00000270: ee6a 4d3e 449f f73e e286 7d3e da13 523e
00000280: 2b6e 443d cd9c f0bd a842 a4be 42d5 703e
00000290: 7e75 bdbc 66bf b73d 0927 633b c914 aa3e
000002a0: 7c03 69be 6488 393e bc0e a53e 4322 3abf
000002b0: d34e 1c3e 4b0a 7ebc 609c 4bbe 1674 233e
000002c0: 7d72 07be 3c97 883e fd72 08bf 4e54 22be
000002d0: a3e1 06bf fe3e 8cbe 507d 173d d957 cbbe
000002e0: 6ec7 3ebe 8213 953e 6057 7cbd e574 e2be
000002f0: 119a 6e3f 1be8 3e3e c65f b2be e7d3 e3bd
00000300: 6563 cc3e 660a 753e c287 9bbe 7ac4 60be
00000310: d299 8e3e 7ab2 d3be f955 033f f812 adbe
00000320: 5dd8 e4bd c396 843e b879 043f 51aa 663e
00000330: c397 25be f5f6 95be 03eb a6be f86f 6e3e
00000340: 0d5f f8bd 7fd1 1abd 9d9f c83e a655 2b3d
00000350: 1ae2 863e b3d1 703d 339f 943d 167f 01bf
00000360: d272 ebbb cde5 7c3d 649f e23e 7d3e fdbd
00000370: 37c0 c23d affb d83c 2bd3 32be b57c 223e
00000380: 8786 fabd 8708 01bf 5979 3b3f 92d6 313d
00000390: 120e 34be 282d 203d 364e cabe 0fb7 30bf
000003a0: ccbe f6be d197 5c3f 153b e3be dabe 453e
000003b0: 58bf 0fbe d163 9abe ceff 963e a734 e63d
000003c0: f81e 493e 0d5a 88be 2718 d03e a6eb 61be
000003d0: fa3f b33e 72bf 653e 1d5b cbbd 975b 813c
000003e0: 6562 f7bd 45b8 af3d 004c 783e 00e3 ff3d
000003f0: 19ee b3be 72b6 2a3f 4fe9 4dbd 01c1 ec3e

network_body._body_endoder.seq_layers.0.bias f4 [128]
0.015924856 -0.014721112 -0.015450071 0.0004604703 0.0151353525 0.00770607 0.00040261963 0.0023395882
-0.011233127 -0.015450364 -0.015703348 -0.015777212 0.015648142 0.01199688 0.0018001447 -0.019689469
0.009479388 0.013590624 -0.010440132 0.01581199 -0.0056631383 -0.016211307 -0.005890975 0.0032216238
-0.0031056732 -0.01605496 -0.016695984 0.00065428665 -0.0030086807 0.014727523 0.010236512 0.01300205
-0.00929621 0.0147528155 -0.0052780285 0.01603141 -0.01347351 0.007184084 0.015863696 -0.0009594059
0.012225429 0.013062887 0.015759945 -0.0058925706 -0.007272348 0.014724347 0.00040008218 -0.0025192061
0.0006981454 -0.0073451325 0.016299011 -0.012451502 0.0028231796 -0.013528995 -0.015042003 0.011693186
-0.01516012 -0.004553172 0.006208716 -0.012123311 -0.012086882 0.013172844 -0.014633936 0.0146017205
0.009002583 -0.0091933785 0.01202871 -0.0138530275 -0.00991164 -0.011723671 -0.015477974 0.0054486594
0.01380807 -0.0060207914 0.01582178 -0.016027065 -0.013438834 0.011935021 -0.008934617 -0.0034877374
-0.01597779 -0.0019934548 -0.01144333 -0.016262377 0.010390547 -0.015537835 0.0032839687 0.01081582
-0.00492162 -0.008929848 0.016827328 0.0070798285 -0.00893386 -0.011749431 -0.014153027 0.0087819705
-0.0029402093 0.014115904 0.009784802 0.007267694 0.016307583 0.015249274 -0.00031924146 0.00016951605
0.0074547557 0.013591943 -0.016134595 -0.003722937 -0.014555257 -0.014547155 -0.003988569 0.012228278
0.008607669 -0.0049222424 0.0074740425 -0.01070403 -0.013613957 -0.015533258 0.016615652 0.01127516
0.013726887 -0.009479607 0.008164984 -0.016050536 -0.008631997 -0.014778553 0.014401112 0.0095173465
00000000: d874 823c d230 71bc 4b22 7dbc 476b f139
00000010: 45fa 773c 3383 fc3b b116 d339 c753 193b
00000020: 260b 38bc 8623 7dbc 4fa4 80bc 363f 81bc
00000030: 8830 803c 908e 443c d5f2 eb3a cf4b a1bc
00000040: 6f4f 1b3c 35ab 5e3c 160d 2bbc 2588 813c
00000050: d991 b9bb 93cd 84bc 1409 c1bb e121 533b
00000060: 8d88 4bbb b185 83bc 04c6 88bc 6f84 2b3a
00000070: 492d 45bb b54b 713c 0bb7 273c 8d06 553c
00000080: 214f 18bc cbb5 713c 50f3 acbb 4e54 833c
00000090: ffbf 5cbc 7768 eb3b 95f4 813c a480 7bba
000000a0: 2a4d 483c b805 563c 001b 813c 7716 c1bb
000000b0: e04c eebb 633e 713c 1fc2 d139 4419 25bb
000000c0: bf03 373a 70af f0bb 8185 853c 6201 4cbc
000000d0: 1805 393b b8a8 5dbc bc72 76bc c794 3f3c
000000e0: 2762 78bc c632 95bb 7c72 cb3b daa0 46bc
000000f0: 0f08 46bc ead2 573c 2dc3 6fbc 0e3c 6f3c
00000100: 927f 133c d39f 16bc 1114 453c cff7 62bc
00000110: 6e64 22bc a414 40bc 5497 7dbc ab8a b23b
00000120: 3e3b 623c 0f4a c5bb ad9c 813c 314b 83bc
00000130: 8e2e 5cbc 1b8b 433c 8062 12bc 8692 64bb
00000140: dbe3 82bc 9fa4 02bb ce7c 3bbc ad38 85bc
00000150: 1d3d 2a3c 6792 7ebc da37 573b d634 313c
00000160: 8a45 a1bb 7f4e 12bc 77d9 893c e8fd e73b
00000170: 535f 12bc af80 40bc 19e2 67bc 41e2 0f3c
00000180: 87b0 40bb 6546 673c 6f50 203c d625 ee3b
00000190: 7b97 853c 17d8 793c dd5f a7b9 1ec0 3139
000001a0: 0647 f43b beb0 5e3c b32c 84bc 85fc 73bb
000001b0: 2c79 6ebc 3157 6ebc 8bb2 82bb 1e59 483c
000001c0: 2e07 0d3c c34a a1bb d0e8 f43b f55f 2fbc
000001d0: 130d 5fbc 357f 7ebc 8c1d 883c 73bb 383c
000001e0: bde6 603c 5b50 1bbc 6dc6 053c 6a7c 83bc
000001f0: 386d 0dbc be21 72bc a4f2 6b3c a5ee 1b3c

network_body._body_endoder.seq_layers.2.weight f4 [128, 128]
-0.06021134 0.03337009 -0.062379364 -0.16291319 -0.12550898 0.16427384 0.042479865 -0.00022743874
-0.14182696 -0.008113797 -0.113558255 -0.04909431 -0.0552815 0.10898677 0.063092 0.022155773
0.07586451 -0.23990445 0.07171161 0.047795214 0.1572105 -0.052388392 0.13281927 0.009794282
-0.040564947 0.01700971 0.024362205 0.016408224 0.14222197 -0.16525286 0.121870056 -0.2744086
-0.090456754 0.051263604 0.04766807 -0.0033286233 -0.048747227 -0.17819728 -0.19896582 0.013421181
0.014968192 -0.07770352 0.07835001 -0.05609245 0.001047461 0.023953041 0.04936509 0.111227036
0.11716673 0.009303718 0.05925041 -0.027303355 -0.13642047 -0.13902944 -0.03720776 0.084551424
0.20819065 -0.096366 -0.14404787 0.05349233 0.058325537 0.09124803 -0.13261577 -0.03126593
-0.08114519 -0.030325249 -0.13843822 -0.077631414 0.020346269 0.07910385 -0.049672827 -0.13546139
-0.07976595 0.06082463 0.04148291 0.074449286 -0.024325073 -0.09885843 0.14279085 -0.049761128
0.05088243 -0.03498196 0.09930559 -0.15734485 0.03229426 0.14704138 0.050310068 -0.18065152
0.09858347 -0.08757917 -0.11619724 -0.13895833 0.06167921 0.17855266 -0.14409481 0.003622792
0.12511541 0.074673034 -0.038081482 -0.024513505 -0.02967168 0.09672562 0.016983274 0.10601449
0.19917512 -0.019504054 0.18721949 -0.18107788 0.18480305 0.012220177 0.007206702 0.05175717
-0.11280629 -0.111882694 -0.05913431 0.14484517 0.04034259 -0.0072892504 0.046345696 -0.107989475
0.121360935 0.06427296 -0.06842396 0.00626431 -0.010202205 0.057063907 -0.06345428 -0.0407863
-0.02912451 0.0148319965 -0.10226908 0.045728907 0.13381766 -0.06766368 0.04436412 0.13349828
-0.023215037 -0.08841941 0.061964445 0.09619026 -0.17856176 0.043983545 0.11262739 -0.015829308
-0.02609751 -0.20927572 0.12911165 -0.009196357 0.10694538 0.021936433 -0.070742056 0.07034547
-0.14167483 0.011371054 0.043156296 0.12362277 0.20819664 0.17281052 0.22352552 0.10514566
0.035691664 -0.012368015 0.091766454 -0.02744788 0.056684777 -0.0506003 -0.098031074 0.17737323
0.03310659 -0.20973949 -0.06004405 0.062865615 0.20442356 -0.10738674 0.008339577 0.1009942
-0.09554203 0.09721255 0.037706442 0.0005506574 0.09887285 0.14583953 -0.038976207 0.06903796
-0.0062730494 0.012386841 -0.045434237 -0.05628402 0.18288663 -0.12463884 -0.17453627 -0.10581261
-0.08467763 0.012658254 0.03586679 0.048708726 -0.07148653 -0.03364814 0.04212129 0.01673573
-0.0023436253 -0.103254795 -0.051834203 0.090865284 0.11978211 -0.15289333 -0.069026135 -0.021419598
0.086325474 -0.05210121 0.01273123 0.08051719 -0.030476237 -0.037457455 -0.04450795 0.08202555
0.04565114 0.055195134 -0.029379254 0.02446583 0.00506288 -0.059798993 0.14105822 -0.022027161
0.032238666 -0.0035815854 0.21000227 -0.22364317 -0.057157848 0.074428484 -0.07803609 0.1842798
-0.21834499 0.038205773 0.116815 -0.13316573 -0.1310352 0.05261332 0.082829975 -0.04041474
-0.09348975 0.009777058 -0.073736586 -0.049742278 0.068433784 0.16481473 -0.05718364 0.11540348
0.022082973 -0.015210117 -0.020814126 -0.0110467225 0.046813313 0.012945166 -0.19875976 -0.037698336
00000000: 2ba0 76bd 13af 083d 8181 7fbd b7d2 26be
00000010: 6d85 00be 6737 283e 5eff 2d3d 9f7c 6eb9
00000020: 163b 11be bbef 04bc 3b91 e8bd 1d17 49bd
00000030: db6e 62bd 7534 df3d 6136 813d 0680 b53c
00000040: da5e 9b3d 83a9 75be 89dd 923d eac4 433d
00000050: cafb 203e 3695 56bd c601 083e 3278 203c
00000060: 6e27 26bd f357 8b3c 3f93 c73c 8a6a 863c
00000070: a3a2 113e 0c38 29be 0297 f93d 497f 8cbe
00000080: 6441 b9bd c9f9 513d 983f 433d 0825 5abb
00000090: 2cab 47bd 5979 36be b2bd 4bbe 83e4 5b3c
000000a0: 263d 753c 0623 9fbd f875 a03d 32c1 65bd
000000b0: f54a 893a 2b39 c43c 0c33 4a3d 00cb e33d
000000c0: 1cf5 ef3d 9f6e 183c 8fb0 723d 49ab dfbc
000000d0: cfb1 0bbe bc5d 0ebe 2a67 18bd 4c29 ad3d
000000e0: ee2f 553e 8a5b c5bd 4981 13be c61a 5b3d
000000f0: c2e6 6e3d 3fe0 ba3d 6ecc 07be b410 00bd
00000100: 732f a6bd a86c f8bc c0c2 0dbe 38fd 9ebd
00000110: 38ad a63c 3301 a23d bc75 4bbd 64b6 0abe
00000120: 555c a3bd 3f23 793d fce9 293d de78 983d
00000130: 6045 c7bc 4a76 cabd c437 123e 53d2 4bbd
00000140: 186a 503d 3e49 0fbd bb60 cb3d 021f 21be
00000150: fc46 043d 0492 163e ee11 4e3d b6fc 38be
00000160: 21e6 c93d b55c b3bd d2f8 edbd 184b 0ebe
00000170: 57a3 7c3d 82d6 363e 978d 13be 5d6c 6d3b
00000180: 411e 003e 2dee 983d 54fb 1bbd 8cd0 c8bc
00000190: 0612 f3bc 1518 c63d 8220 8b3c 201e d93d
000001a0: 90f4 4b3e f7c6 9fbc 77b6 3f3e 7b6c 39be
000001b0: 033d 3d3e 2337 483c 3326 ec3b 54ff 533d
000001c0: fc06 e7bd c122 e5bd d136 72bd 4b52 143e
000001d0: 463e 253d aada eebb fcd4 3d3d 9629 ddbd
000001e0: 158c f83d 8ba1 833d dc21 8cbd d744 cd3b
000001f0: 2627 27bc d8bb 693d 51f4 81bd 890f 27bd
00000200: 8696 eebc e701 733c 7472 d1bd 3c4e 3b3d
00000210: 7f07 093e 4193 8abd 27b7 353d c6b3 083e
00000220: 762d bebc 3c15 b5bd 6ece 7d3d 66ff c43d
00000230: e5d8 36be 1728 343d 30a9 e63d 77ac 81bc
00000240: 72ca d5bc 604c 56be d835 043e 51ac 16bc
00000250: 2e06 db3d 09b4 b33c 36e1 90bd 4911 903d
00000260: 3513 11be a84d 3a3c a8c4 303d ef2d fd3d
00000270: 8031 553e 3ef5 303e e0e3 643e 9c56 d73d
00000280: 6c31 123d 37a3 4abc 0df0 bb3d 60da e0bc
00000290: 4c2e 683d 4342 4fbd 84c4 c8bd 54a1 353e
000002a0: c79a 073d f3c5 56be c0f0 75bd b0bf 803d
000002b0: 6954 513e 94ed dbbd b9a2 083c 0cd6 ce3d
000002c0: 8aab c3bd 6017 c73d 1272 1a3d fe59 103a
000002d0: d97d ca3d f556 153e 84a5 1fbd c663 8d3d
000002e0: 278e cdbb 2df2 4a3c 4019 3abd 138a 66bd
000002f0: a246 3b3e a642 ffbd a3b9 32be 48b4 d8bd
00000300: 776b adbd 9164 4f3c 0ee9 123d cd82 473d
00000310: 8867 92bd a2d2 09bd 6087 2c3d 5f19 893c
00000320: 8297 19bb 4077 d3bd 1a50 54bd 9417 ba3d
00000330: 5350 f53d 1290 1cbe 935d 8dbd 2778 afbc
00000340: 69cb b03d 1468 55bd a696 503c 32e6 a43d
00000350: 4da9 f9bc fd6c 19bd f84d 36bd 03fd a73d
00000360: b1fc 3a3d 4b14 623d c3ac f0bc 906c c83c
00000370: 84e6 a53b caef 74bd 9171 103e 4e72 b4bc
00000380: b10c 043d 08b9 6abb d60a 573e b702 65be
00000390: 591e 6abd f66d 983d 63d1 9fbd d8b3 3c3e
000003a0: d495 5fbe a87d 1c3d b43c ef3d 995c 08be
000003b0: 172e 06be 1181 573d c3a2 a93d ed89 25bd
000003c0: 8e77 bfbd f42f 203c 3503 97bd 8fbe 4bbd
000003d0: 0327 8c3d 31c5 283e 6439 6abd a958 ec3d
000003e0: 5ae7 b43c db33 79bc 6382 aabc 50fd 34bc
000003f0: 51bf 3f3d f617 543c ae87 4bbe 9269 1abd

network_body._body_endoder.seq_layers.2.bias f4 [128]
-0.014485343 -0.015575426 0.0012131301 -0.015801705 -0.015897354 0.015354033 -0.0041925893 -0.015066467
-0.016113095 0.013712633 -0.016052892 0.0018641104 0.010885089 -0.014599693 0.01436054 -0.011082749
0.015224728 0.014333668 0.016035926 0.015904332 0.0045653502 0.011993569 0.010958821 -0.016134797
0.009523431 -0.012077336 -0.015228939 -0.016199268 -0.012771249 0.012804537 0.0025153463 0.011757192
-0.013471661 0.016310707 0.003911455 -0.0033067458 0.006363057 -0.001225202 -0.014364624 0.005234105
-0.015447084 0.012514501 -0.011944363 0.0057342993 -0.005550264 0.012139022 0.016227415 -0.012862083
0.01310962 0.013821775 0.0024534555 -0.016014395 -0.009130016 0.012816971 -0.016117884 0.010869255
0.0067166877 0.002485879 -0.006617411 -0.01579285 0.0043207468 0.007156426 0.01552412 -0.0068182545
-0.0016456734 0.0049201283 0.0077447454 -0.010293946 0.015967878 0.016039796 -0.014539808 -0.009929952
0.009337819 -0.011683666 -0.016104273 0.009093506 -0.012691175 -0.009107694 0.011397096 -0.010736608
-0.013460923 -0.002137624 0.015051843 -0.010092261 0.0057257367 0.016222332 0.004516964 -0.01186232
-0.014945671 -0.008658494 -0.0149494335 0.0111861415 -0.013523916 -0.015344546 0.015238057 0.003572379
0.012643017 0.01473077 0.009162573 -0.0058682826 0.007690335 0.014390561 -0.0049772826 -0.0006316605
0.0072052027 -0.010298395 -0.011908195 0.0046412637 -0.016347675 0.0048529874 0.015339929 0.004775831
-0.014485076 -0.015240237 0.0163077 0.013706295 -0.015492895 -0.016045006 -0.013953085 0.0012000503
-0.013682152 -0.014008183 0.016251475 -0.012259976 0.01576689 -0.013928155 -0.013518532 0.013851659
00000000: ef53 6dbc 1230 7fbc e401 9f3a 9472 81bc
00000010: 2b3b 82bc 7b8f 7b3c fd61 89bb 58d9 76bc
00000020: 9cff 83bc f4aa 603c 5b81 83bc 2a55 f43a
00000030: 5f57 323c 8d33 6fbc 7848 6b3c 6b94 35bc
00000040: 2371 793c c3d7 6a3c c65d 833c cd49 823c
00000050: ef98 953b ad80 443c a08c 333c 1f2d 84bc
00000060: 2a08 1c3c 05e0 45bc cd82 79bc 54b4 84bc
00000070: 803e 51bc 1fca 513c 82d8 243b 3da1 403c
00000080: 3eb8 5cbc 089e 853c aa2b 803b fdb5 58bb
00000090: 3181 d03b f596 a0ba 9a59 6bbc db82 ab3b
000000a0: c415 7dbc 9f09 4d3c 4ab2 43bc cae6 bb3b
000000b0: fdde b5bb c0e2 463c 5bef 843c 7cbb 52bc
000000c0: bbc9 563c ba74 623c 27ca 203b 9f30 83bc
000000d0: 1096 15bc 46fe 513c a709 84bc f614 323c
000000e0: a917 dc3b 21ea 223b ded6 d8bb 0260 81bc
000000f0: 0d95 8d3b 7480 ea3b e158 7e3c aa6b dfbb
00000100: a3b3 d7ba 0739 a13b a2c7 fd3b f0a7 28bc
00000110: 11cf 823c e465 833c 6038 6ebc 3db1 22bc
00000120: a7fd 183c d96c 3fbc 1ced 83bc eefc 143c
00000130: a5ee 4fbc 7038 15bc e3ba 3a3c 99e8 2fbc
00000140: 348b 5cbc 6117 0cbb 019c 763c 035a 25bc
00000150: f69e bb3b b2e4 843c 0a03 943b 2d5a 42bc
00000160: b0de 74bc 5bdc 0dbc 78ee 74bc 1446 373c
00000170: 6a93 5dbc b167 7bbc 0ba9 793c 931e 6a3b
00000180: a824 4f3c 5459 713c 9e1e 163c b94a c0bb
00000190: 35ff fb3b 63c6 6b3c 7918 a3bb 0596 25ba
000001a0: 9f19 ec3b 99ba 28bc 971a 43bc be15 983b
000001b0: 8feb 85bc cf05 9f3b 5354 7b3c 937e 9c3b
000001c0: d052 6dbc 30b2 79bc ba97 853c 5e90 603c
000001d0: e9d5 7dbc d170 83bc 7b9b 64bc 024b 9d3a
000001e0: 1b2b 60bc 9482 65bc d021 853c 11de 48bc
000001f0: 9129 813c eb32 64bc d57c 5dbc 12f2 623c

action_model._continuous_distribution.log_sigma f4 [1, 2]
0.0022326123 -0.021027554
00000000: 0551 123b fa41 acbc

action_model._continuous_distribution.mu.weight f4 [2, 128]
-0.018004216 -0.035472393 -0.007198192 -0.022151712 -0.03608356 0.031661738 0.00096862507 -0.021180185
-0.037019372 0.034001287 -0.032133065 -0.0013586223 0.017290527 -0.033383686 0.025678882 -0.033281628
0.031911723 0.019020824 0.042884793 0.023096241 0.0003547869 0.019601272 0.01820279 -0.027427863
0.016525231 -0.027731387 -0.02153573 -0.031560257 -0.02774982 0.036767032 0.0006203541 0.019856352
-0.024987096 0.038556863 0.006941097 -0.0019503079 0.011336306 0.00055279466 -0.027869785 0.013197582
-0.029855333 0.024644941 -0.02666865 0.010219689 0.0048141675 0.042047843 0.028223708 -0.015022399
0.01844128 0.017340153 0.00941647 -0.03737551 -0.028574495 0.012724892 -0.025113108 0.012878043
0.007662366 0.00012687773 -0.015003672 -0.04016622 -0.0034228552 0.019460054 0.047755267 -0.010309519
0.0028766468 0.0011679597 0.027637701 -0.013923113 0.033472557 0.024058161 -0.023737017 -0.01580902
0.016601402 -0.018890604 -0.033975206 0.015563026 -0.018596718 -0.0151953325 0.018566482 -0.011745399
-0.029153252 0.004516682 0.02492754 -0.0382264 0.037930284 0.047604334 -0.0013700143 -0.02221306
-0.032690685 -0.008402846 -0.027198276 0.0135534145 -0.02007742 -0.023480296 0.028077416 0.008319385
0.06281862 0.019622542 0.014477585 -0.020906312 0.013278143 0.018529411 -0.009529739 0.009589494
0.012860199 -0.01853878 -0.02356814 0.007508557 -0.031849053 0.0077326708 0.03477334 0.010135808
-0.023987096 -0.033357307 0.033344198 0.030302487 -0.03137468 -0.05000512 -0.021710647 -0.010791665
-0.024273813 -0.023059554 0.03316955 -0.04032625 0.03993659 -0.02969263 -0.029767117 0.015936892
0.010592413 0.03415674 -0.00966841 0.013761284 0.029363057 -0.03233907 0.031847626 0.012825749
0.028380157 -0.009354279 0.024147345 -0.00013825145 -0.023416506 0.012436948 -0.011039361 0.003941711
-0.03360099 -0.014719888 -0.033384103 -0.014061933 -0.0005297966 -0.024627594 -0.029060092 0.019264212
-0.050280586 0.0077580316 0.011648555 0.022874728 0.008011952 -0.00659679 -0.009468101 -0.025889447
0.030972252 -0.025192766 -0.0040811882 0.013318603 -0.01786478 -0.0044350247 0.030588467 -0.003939731
0.024076043 -0.038029037 0.006875665 -0.014680362 -0.0030604657 -0.0040951823 -0.018862404 0.008817134
-0.008755458 -0.012721015 -0.007059387 0.020835876 0.0016603273 -0.0071815 0.0163673 -0.0071095345
-0.004479435 0.009463376 0.0040366906 0.03410958 -0.031426564 -0.0031494321 -0.01976215 0.030871006
-0.007107864 -0.033628248 -0.00042923365 0.0064877146 -0.027795047 -0.016218072 0.019784186 0.022311226
-0.0060096974 0.024476437 0.020593394 -0.005530485 0.015729627 0.02348873 -0.022164823 0.0071175266
0.040109888 -0.0034557462 -0.02335522 0.0007893575 0.010555379 -0.032496113 -0.05297238 0.03669031
0.013415674 0.0059137023 0.026176348 -0.0064477436 0.023250982 0.011950535 -0.013210736 -0.005987706
-0.005808661 -0.016535603 -0.017801698 -0.00035251875 -0.019865649 -0.016394572 0.0053620813 0.012135493
-0.005239992 0.04079541 0.042028274 -0.0071919514 0.022800425 -0.028581044 -0.015574703 -0.008571256
0.02173219 0.03251271 -0.021339031 -0.043050107 0.015772361 0.038144242 0.01870291 -0.024513451
0.008689605 0.023012944 -0.019974697 0.004621102 -0.03695761 0.03604442 0.009880612 -0.0076987036
00000000: 947d 93bc 804b 11bd d0de ebbb 8277 b5bc
00000010: 5bcc 13bd bdaf 013d 54eb 7d3a 1182 adbc
00000020: a0a1 17bd ef44 0b3d f69d 03bd cd13 b2ba
00000030: dda4 8d3c 55bd 08bd 855c d23c 5152 08bd
00000040: deb5 023d 8fd1 9b3c f7a7 2f3d 5434 bd3c
00000050: b102 ba39 d992 a03c 041e 953c 66b0 e0bc
00000060: ec5f 873c ef2c e3bc b36b b0bc 5445 01bd
00000070: 9753 e3bc 0799 163d 429f 223a caa9 a23c
00000080: bdb1 ccbc cded 1d3d 2472 e33b 79a1 ffba
00000090: eabb 393c 6ce9 103a 2d4f e4bc ac3a 583c
000000a0: 2c93 f4bc 30e4 c93c 3678 dabc 7c70 273c
000000b0: 2ac0 9d3b 5c3a 2c3d 6835 e73c 8220 76bc
000000c0: 2b12 973c f00c 8e3c 8a47 1a3c 1017 19bd
000000d0: 0f15 eabc 117c 503c 01ba cdbc 6dfe 523c
000000e0: 9614 fb3b 7b0a 0539 f6d1 75bc 5685 24bd
000000f0: fb51 60bb b16a 9f3c 079b 433d 42e9 28bc
00000100: 2086 3c3b 3916 993a 7668 e23c c51d 64bc
00000110: 851a 093d 9f15 c53c 2274 c2bc eb81 81bc
00000120: aaff 873c 78c0 9abc 9629 0bbd 10fc 7e3c
00000130: 2558 98bc d8f5 78bc bc18 983c c66f 40bc
00000140: cdd2 eebc ad00 943b d734 cc3c 4993 1cbd
00000150: c95c 1b3d c3fc 423d 0d92 b3ba 2af8 b5bc
00000160: abe6 05bd 17ac 09bc ebce debc 240f 5e3c
00000170: 6779 a4bc c059 c0bc 9c02 e63c 084e 083c
00000180: 0ca7 803d 74bf a03c 6533 6d3c b743 abbc
00000190: 918c 593c feca 973c 9f22 1cbc 411d 1d3c
000001a0: 96b3 523c a4de 97bc f911 c1bc 570a f63b
000001b0: 2774 02bd 5862 fd3b 7d6e 0e3d a910 263c
000001c0: 9680 c4bc aca1 08bd ed93 083d ec3c f83c
000001d0: bd82 00bd 2bd2 4cbd 87da b1bc 86cf 30bc
000001e0: e0d9 c6bc 64e7 bcbc cbdc 073d 232d 25bd
000001f0: 8d94 233d f53d f3bc 2bda f3bc 168e 823c
00000200: cd8b 2d3c f0e7 0b3d 4068 1ebc 0277 613c
00000210: cb8a f03c f975 04bd a872 023d 1723 523c
00000220: 817d e83c b142 19bc a7d0 c53c 97f7 10b9
00000230: f9d3 bfbc 57c4 4b3c 70de 34bc 7829 813b
00000240: 31a1 09bd af2b 71bc c5bd 08bd 0664 66bc
00000250: 0ce2 0aba cfbf c9bc 6e0f eebc fbcf 9d3c
00000260: 04f3 4dbd 1637 fe3b 95d9 3e3c c863 bb3c
00000270: 9044 033c e329 d8bb 1820 1bbc 1b16 d4bc
00000280: 85b9 fd3c 0f61 cebc 7dbb 85bb 4536 5a3c
00000290: 2959 92bc af53 91bb aa94 fa3c dc18 81bb
000002a0: 1f3b c53c 56c4 1bbd 424d e13b e785 70bc
000002b0: 1892 48bb e130 86bb 5485 9abc be75 103c
000002c0: 0d73 0fbc ce6b 50bc 6e52 e7bb 00b0 aa3c
000002d0: 579f d93a ca52 ebbb b714 863c 19f7 e8bb
000002e0: 39c8 92bb 470c 1b3c 3746 843b 7db6 0b3d
000002f0: 24b9 00bd b466 4ebb 3be4 a1bc 31e5 fc3c
00000300: 16e9 e8bb c6bd 09bd c40a e1b9 e596 d43b
00000310: 70b2 e3bc c3db 84bc 7212 a23c 08c6 b63c
00000320: ffec c4bb cf82 c83c 7ab3 a83c 1239 b5bb
00000330: 6bdb 803c 706b c03c 0193 b5bc 243a e93b
00000340: 444a 243d cd79 62bb 7253 bfbc e3ec 4e3a
00000350: 78f0 2c3c a51a 05bd 91f9 58bd 9448 163d
00000360: 6acd 5b3c bbc7 c13b c86f d63c 9847 d3bb
00000370: d878 be3c 2dcc 433c d871 58bc 8534 c4bb
00000380: 9556 bebb ac75 87bc ded4 91bc 44d2 b8b9
00000390: 49bd a2bc e94d 86bc 66b4 af3b f2d3 463c
000003a0: 3db4 abbb 1619 273d d725 2c3d 76aa ebbb
000003b0: f5c7 ba3c cb22 eabc 0a2d 7fbc 746e 0cbc
000003c0: b507 b23c 0c2c 053d 31cf aebc 4f55 30bd
000003d0: 0a35 813c 233d 1c3d d836 993c 6fd0 c8bc
000003e0: d85e 0e3c a485 bc3c faa1 a3bc 9d6c 973b
000003f0: dd60 17bd 50a3 133d 4ae2 213c 6845 fcbb

action_model._continuous_distribution.mu.bias f4 [2]
0.013055477 -0.008710088
00000000: a4e6 553c c2b4 0ebc

exp_avg f4 [128, 8]
0.0 0.0 0.0 0.0 0.0 0.0 0.0 0.0
0.0 0.0 0.0 0.0 0.0 0.0 0.0 0.0
0.0 0.0 0.0 0.0 0.0 0.0 0.0 0.0
0.0 0.0 0.0 0.0 0.0 0.0 0.0 0.0
0.0 0.0 0.0 0.0 0.0 0.0 0.0 0.0
0.0 0.0 0.0 0.0 0.0 0.0 0.0 0.0
0.0 0.0 0.0 0.0 0.0 0.0 0.0 0.0
0.0 0.0 0.0 0.0 0.0 0.0 0.0 0.0
0.0 0.0 0.0 0.0 0.0 0.0 0.0 0.0
0.0 0.0 0.0 0.0 0.0 0.0 0.0 0.0
0.0 0.0 0.0 0.0 0.0 0.0 0.0 0.0
0.0 0.0 0.0 0.0 0.0 0.0 0.0 0.0
0.0 0.0 0.0 0.0 0.0 0.0 0.0 0.0
0.0 0.0 0.0 0.0 0.0 0.0 0.0 0.0
0.0 0.0 0.0 0.0 0.0 0.0 0.0 0.0
0.0 0.0 0.0 0.0 0.0 0.0 0.0 0.0
0.0 0.0 0.0 0.0 0.0 0.0 0.0 0.0
0.0 0.0 0.0 0.0 0.0 0.0 0.0 0.0
0.0 0.0 0.0 0.0 0.0 0.0 0.0 0.0
0.0 0.0 0.0 0.0 0.0 0.0 0.0 0.0
0.0 0.0 0.0 0.0 0.0 0.0 0.0 0.0
0.0 0.0 0.0 0.0 0.0 0.0 0.0 0.0
0.0 0.0 0.0 0.0 0.0 0.0 0.0 0.0
0.0 0.0 0.0 0.0 0.0 0.0 0.0 0.0
0.0 0.0 0.0 0.0 0.0 0.0 0.0 0.0
0.0 0.0 0.0 0.0 0.0 0.0 0.0 0.0
0.0 0.0 0.0 0.0 0.0 0.0 0.0 0.0
0.0 0.0 0.0 0.0 0.0 0.0 0.0 0.0
0.0 0.0 0.0 0.0 0.0 0.0 0.0 0.0
0.0 0.0 0.0 0.0 0.0 0.0 0.0 0.0
0.0 0.0 0.0 0.0 0.0 0.0 0.0 0.0
0.0 0.0 0.0 0.0 0.0 0.0 0.0 0.0
00000000: 0000 0000 0000 0000 0000 0000 0000 0000
00000010: 0000 0000 0000 0000 0000 0000 0000 0000
00000020: 0000 0000 0000 0000 0000 0000 0000 0000
00000030: 0000 0000 0000 0000 0000 0000 0000 0000
00000040: 0000 0000 0000 0000 0000 0000 0000 0000
00000050: 0000 0000 0000 0000 0000 0000 0000 0000
00000060: 0000 0000 0000 0000 0000 0000 0000 0000
00000070: 0000 0000 0000 0000 0000 0000 0000 0000
00000080: 0000 0000 0000 0000 0000 0000 0000 0000
00000090: 0000 0000 0000 0000 0000 0000 0000 0000
000000a0: 0000 0000 0000 0000 0000 0000 0000 0000
000000b0: 0000 0000 0000 0000 0000 0000 0000 0000
000000c0: 0000 0000 0000 0000 0000 0000 0000 0000
000000d0: 0000 0000 0000 0000 0000 0000 0000 0000
000000e0: 0000 0000 0000 0000 0000 0000 0000 0000
000000f0: 0000 0000 0000 0000 0000 0000 0000 0000
00000100: 0000 0000 0000 0000 0000 0000 0000 0000
00000110: 0000 0000 0000 0000 0000 0000 0000 0000
00000120: 0000 0000 0000 0000 0000 0000 0000 0000
00000130: 0000 0000 0000 0000 0000 0000 0000 0000
00000140: 0000 0000 0000 0000 0000 0000 0000 0000
00000150: 0000 0000 0000 0000 0000 0000 0000 0000
00000160: 0000 0000 0000 0000 0000 0000 0000 0000
00000170: 0000 0000 0000 0000 0000 0000 0000 0000
00000180: 0000 0000 0000 0000 0000 0000 0000 0000
00000190: 0000 0000 0000 0000 0000 0000 0000 0000
000001a0: 0000 0000 0000 0000 0000 0000 0000 0000
000001b0: 0000 0000 0000 0000 0000 0000 0000 0000
000001c0: 0000 0000 0000 0000 0000 0000 0000 0000
000001d0: 0000 0000 0000 0000 0000 0000 0000 0000
000001e0: 0000 0000 0000 0000 0000 0000 0000 0000
000001f0: 0000 0000 0000 0000 0000 0000 0000 0000
00000200: 0000 0000 0000 0000 0000 0000 0000 0000
00000210: 0000 0000 0000 0000 0000 0000 0000 0000
00000220: 0000 0000 0000 0000 0000 0000 0000 0000
00000230: 0000 0000 0000 0000 0000 0000 0000 0000
00000240: 0000 0000 0000 0000 0000 0000 0000 0000
00000250: 0000 0000 0000 0000 0000 0000 0000 0000
00000260: 0000 0000 0000 0000 0000 0000 0000 0000
00000270: 0000 0000 0000 0000 0000 0000 0000 0000
00000280: 0000 0000 0000 0000 0000 0000 0000 0000
00000290: 0000 0000 0000 0000 0000 0000 0000 0000
000002a0: 0000 0000 0000 0000 0000 0000 0000 0000
000002b0: 0000 0000 0000 0000 0000 0000 0000 0000
000002c0: 0000 0000 0000 0000 0000 0000 0000 0000
000002d0: 0000 0000 0000 0000 0000 0000 0000 0000
000002e0: 0000 0000 0000 0000 0000 0000 0000 0000
000002f0: 0000 0000 0000 0000 0000 0000 0000 0000
00000300: 0000 0000 0000 0000 0000 0000 0000 0000
00000310: 0000 0000 0000 0000 0000 0000 0000 0000
00000320: 0000 0000 0000 0000 0000 0000 0000 0000
00000330: 0000 0000 0000 0000 0000 0000 0000 0000
00000340: 0000 0000 0000 0000 0000 0000 0000 0000
00000350: 0000 0000 0000 0000 0000 0000 0000 0000
00000360: 0000 0000 0000 0000 0000 0000 0000 0000
00000370: 0000 0000 0000 0000 0000 0000 0000 0000
00000380: 0000 0000 0000 0000 0000 0000 0000 0000
00000390: 0000 0000 0000 0000 0000 0000 0000 0000
000003a0: 0000 0000 0000 0000 0000 0000 0000 0000
000003b0: 0000 0000 0000 0000 0000 0000 0000 0000
000003c0: 0000 0000 0000 0000 0000 0000 0000 0000
000003d0: 0000 0000 0000 0000 0000 0000 0000 0000
000003e0: 0000 0000 0000 0000 0000 0000 0000 0000
000003f0: 0000 0000 0000 0000 0000 0000 0000 0000

exp_avg_sq f4 [128, 8]
0.0 0.0 0.0 0.0 0.0 0.0 0.0 0.0
0.0 0.0 0.0 0.0 0.0 0.0 0.0 0.0
0.0 0.0 0.0 0.0 0.0 0.0 0.0 0.0
0.0 0.0 0.0 0.0 0.0 0.0 0.0 0.0
0.0 0.0 0.0 0.0 0.0 0.0 0.0 0.0
0.0 0.0 0.0 0.0 0.0 0.0 0.0 0.0
0.0 0.0 0.0 0.0 0.0 0.0 0.0 0.0
0.0 0.0 0.0 0.0 0.0 0.0 0.0 0.0
0.0 0.0 0.0 0.0 0.0 0.0 0.0 0.0
0.0 0.0 0.0 0.0 0.0 0.0 0.0 0.0
0.0 0.0 0.0 0.0 0.0 0.0 0.0 0.0
0.0 0.0 0.0 0.0 0.0 0.0 0.0 0.0
0.0 0.0 0.0 0.0 0.0 0.0 0.0 0.0
0.0 0.0 0.0 0.0 0.0 0.0 0.0 0.0
0.0 0.0 0.0 0.0 0.0 0.0 0.0 0.0
0.0 0.0 0.0 0.0 0.0 0.0 0.0 0.0
0.0 0.0 0.0 0.0 0.0 0.0 0.0 0.0
0.0 0.0 0.0 0.0 0.0 0.0 0.0 0.0
0.0 0.0 0.0 0.0 0.0 0.0 0.0 0.0
0.0 0.0 0.0 0.0 0.0 0.0 0.0 0.0
0.0 0.0 0.0 0.0 0.0 0.0 0.0 0.0
0.0 0.0 0.0 0.0 0.0 0.0 0.0 0.0
0.0 0.0 0.0 0.0 0.0 0.0 0.0 0.0
0.0 0.0 0.0 0.0 0.0 0.0 0.0 0.0
0.0 0.0 0.0 0.0 0.0 0.0 0.0 0.0
0.0 0.0 0.0 0.0 0.0 0.0 0.0 0.0
0.0 0.0 0.0 0.0 0.0 0.0 0.0 0.0
0.0 0.0 0.0 0.0 0.0 0.0 0.0 0.0
0.0 0.0 0.0 0.0 0.0 0.0 0.0 0.0
0.0 0.0 0.0 0.0 0.0 0.0 0.0 0.0
0.0 0.0 0.0 0.0 0.0 0.0 0.0 0.0
0.0 0.0 0.0 0.0 0.0 0.0 0.0 0.0
00000000: 0000 0000 0000 0000 0000 0000 0000 0000
00000010: 0000 0000 0000 0000 0000 0000 0000 0000
00000020: 0000 0000 0000 0000 0000 0000 0000 0000
00000030: 0000 0000 0000 0000 0000 0000 0000 0000
00000040: 0000 0000 0000 0000 0000 0000 0000 0000
00000050: 0000 0000 0000 0000 0000 0000 0000 0000
00000060: 0000 0000 0000 0000 0000 0000 0000 0000
00000070: 0000 0000 0000 0000 0000 0000 0000 0000
00000080: 0000 0000 0000 0000 0000 0000 0000 0000
00000090: 0000 0000 0000 0000 0000 0000 0000 0000
000000a0: 0000 0000 0000 0000 0000 0000 0000 0000
000000b0: 0000 0000 0000 0000 0000 0000 0000 0000
000000c0: 0000 0000 0000 0000 0000 0000 0000 0000
000000d0: 0000 0000 0000 0000 0000 0000 0000 0000
000000e0: 0000 0000 0000 0000 0000 0000 0000 0000
000000f0: 0000 0000 0000 0000 0000 0000 0000 0000
00000100: 0000 0000 0000 0000 0000 0000 0000 0000
00000110: 0000 0000 0000 0000 0000 0000 0000 0000
00000120: 0000 0000 0000 0000 0000 0000 0000 0000
00000130: 0000 0000 0000 0000 0000 0000 0000 0000
00000140: 0000 0000 0000 0000 0000 0000 0000 0000
00000150: 0000 0000 0000 0000 0000 0000 0000 0000
00000160: 0000 0000 0000 0000 0000 0000 0000 0000
00000170: 0000 0000 0000 0000 0000 0000 0000 0000
00000180: 0000 0000 0000 0000 0000 0000 0000 0000
00000190: 0000 0000 0000 0000 0000 0000 0000 0000
000001a0: 0000 0000 0000 0000 0000 0000 0000 0000
000001b0: 0000 0000 0000 0000 0000 0000 0000 0000
000001c0: 0000 0000 0000 0000 0000 0000 0000 0000
000001d0: 0000 0000 0000 0000 0000 0000 0000 0000
000001e0: 0000 0000 0000 0000 0000 0000 0000 0000
000001f0: 0000 0000 0000 0000 0000 0000 0000 0000
00000200: 0000 0000 0000 0000 0000 0000 0000 0000
00000210: 0000 0000 0000 0000 0000 0000 0000 0000
00000220: 0000 0000 0000 0000 0000 0000 0000 0000
00000230: 0000 0000 0000 0000 0000 0000 0000 0000
00000240: 0000 0000 0000 0000 0000 0000 0000 0000
00000250: 0000 0000 0000 0000 0000 0000 0000 0000
00000260: 0000 0000 0000 0000 0000 0000 0000 0000
00000270: 0000 0000 0000 0000 0000 0000 0000 0000
00000280: 0000 0000 0000 0000 0000 0000 0000 0000
00000290: 0000 0000 0000 0000 0000 0000 0000 0000
000002a0: 0000 0000 0000 0000 0000 0000 0000 0000
000002b0: 0000 0000 0000 0000 0000 0000 0000 0000
000002c0: 0000 0000 0000 0000 0000 0000 0000 0000
000002d0: 0000 0000 0000 0000 0000 0000 0000 0000
000002e0: 0000 0000 0000 0000 0000 0000 0000 0000
000002f0: 0000 0000 0000 0000 0000 0000 0000 0000
00000300: 0000 0000 0000 0000 0000 0000 0000 0000
00000310: 0000 0000 0000 0000 0000 0000 0000 0000
00000320: 0000 0000 0000 0000 0000 0000 0000 0000
00000330: 0000 0000 0000 0000 0000 0000 0000 0000
00000340: 0000 0000 0000 0000 0000 0000 0000 0000
00000350: 0000 0000 0000 0000 0000 0000 0000 0000
00000360: 0000 0000 0000 0000 0000 0000 0000 0000
00000370: 0000 0000 0000 0000 0000 0000 0000 0000
00000380: 0000 0000 0000 0000 0000 0000 0000 0000
00000390: 0000 0000 0000 0000 0000 0000 0000 0000
000003a0: 0000 0000 0000 0000 0000 0000 0000 0000
000003b0: 0000 0000 0000 0000 0000 0000 0000 0000
000003c0: 0000 0000 0000 0000 0000 0000 0000 0000
000003d0: 0000 0000 0000 0000 0000 0000 0000 0000
000003e0: 0000 0000 0000 0000 0000 0000 0000 0000
000003f0: 0000 0000 0000 0000 0000 0000 0000 0000

exp_avg f4 [128]
0.00014783537 -0.000108307184 -8.985455e-05 7.647053e-06 0.00012292824 5.7237907e-05 2.5931206e-05 1.6587766e-05
-4.358575e-05 -0.000102297985 -0.00010994885 -8.35551e-05 0.0001244382 7.4953874e-05 3.7725975e-05 -7.972727e-05
8.9262605e-05 8.164244e-05 -7.594696e-05 0.000104642924 -3.9591967e-05 -0.000110967005 -6.162204e-05 3.642951e-05
-1.7470153e-05 -9.814512e-05 -9.566715e-05 2.882791e-06 -6.346638e-05 0.00010638356 8.624466e-05 0.00010048409
-7.434828e-05 9.4226256e-05 -5.189638e-05 0.00013562074 -7.947131e-05 5.705833e-05 0.00016273012 -8.015934e-06
7.1601266e-05 6.3497675e-05 0.00015633003 -4.4972578e-05 -6.369494e-05 0.00014983752 1.0942458e-05 -1.7443028e-05
1.6283222e-05 -3.7506863e-05 0.00012352459 -9.3421404e-05 5.2461397e-05 -7.725487e-05 -0.00011965703 0.00012048537
-0.00011830912 -5.910186e-05 4.8924216e-05 -6.9584166e-05 -9.1283095e-05 0.000107268395 -8.052253e-05 8.6230546e-05
7.941657e-05 -7.382604e-05 0.00010649522 -8.8987785e-05 -6.919704e-05 -7.586092e-05 -0.00010699439 4.6579607e-05
8.099545e-05 -9.6938755e-05 0.00011226431 -0.00013599716 -7.0981085e-05 8.1087775e-05 -6.243228e-05 -3.5728637e-05
-7.570363e-05 -3.8891634e-05 -5.6479206e-05 -0.00013209938 6.268034e-05 -0.00010943013 3.8668306e-05 8.958334e-05
-5.7935915e-05 -7.9164434e-05 0.00011971513 4.6410667e-05 -8.191944e-05 -5.9276033e-05 -0.00010422292 7.2523406e-05
-3.698154e-05 0.0001121361 4.955023e-05 4.887868e-05 0.00017346804 0.00012650245 -8.674047e-06 -1.1558065e-05
9.6206844e-05 5.8849815e-05 -0.00011073104 -2.1810165e-05 -0.00011868474 -6.592737e-05 -3.7234528e-05 9.3387935e-05
7.8968726e-05 -5.173462e-05 7.253877e-05 -5.610098e-05 -9.236971e-05 -0.00012553392 8.727133e-05 8.783686e-05
9.20536e-05 -9.144805e-05 7.8928686e-05 -0.000103593266 -6.4893735e-05 -8.360569e-05 9.606596e-05 6.840028e-05
00000000: 4104 1b39 fa22 e3b8 4b70 bcb8 d84b 0037
00000010: 4ce6 0039 bc12 7038 d786 d937 f525 8b37
00000020: d8cf 36b8 d088 d6b8 5794 e6b8 4e3a afb8
00000030: a07b 0239 8e30 9d38 f53b 1e38 4133 a7b8
00000040: 7f32 bb38 7437 ab38 b745 9fb8 be73 db38
00000050: 8d0f 26b8 f5b6 e8b8 153b 81b8 e3cb 1838
00000060: de8c 92b7 43d3 cdb8 e9a0 c8b8 f975 4136
00000070: 4119 85b8 3d1a df38 40de b438 fcba d238
00000080: 6eeb 9bb8 569b c538 50ab 59b8 6a35 0e39
00000090: d6a9 a6b8 ea51 6f38 89a2 2a39 2d7c 06b7
000000a0: a328 9638 0e2a 8538 86ec 2339 f0a0 3cb8
000000b0: f693 85b8 b41d 1d39 8095 3737 9e52 92b7
000000c0: f497 8837 b050 1db8 6186 0139 3ceb c3b8
000000d0: ff09 5c38 e403 a2b8 61f0 fab8 17ad fc38
000000e0: ba1c f8b8 24e4 77b8 fa33 4d38 b7ed 91b8
000000f0: 3d6f bfb8 48f5 e038 34de a8b8 acd6 b438
00000100: 728c a638 0ed3 9ab8 3056 df38 f49e bab8
00000110: e11d 91b8 8517 9fb8 2d62 e0b8 795e 4338
00000120: 1adc a938 994b cbb8 716f eb38 769a 0eb9
00000130: aedb 94b8 ab0d aa38 13ee 82b8 55db 15b8
00000140: 14c3 9eb8 931f 23b8 16e4 6cb8 2884 0ab9
00000150: 4073 8338 db7d e5b8 c72f 2238 b0de bb38
00000160: 3700 73b8 1505 a6b8 920f fb38 13a9 4238
00000170: 2acc abb8 289f 78b8 4192 dab8 b517 9838
00000180: a01c 1bb8 9c2a eb38 28d4 4f38 1503 4d38
00000190: f9e4 3539 bea5 0439 c086 11b7 83e9 41b7
000001a0: a8c2 c938 82d5 7638 4638 e8b8 f9f4 b6b7
000001b0: 62e6 f8b8 7d42 8ab8 452c 1cb8 44d9 c338
000001c0: 039c a538 a0fd 58b8 f51f 9838 f84d 6bb8
000001d0: 9cb6 c1b8 c1a1 03b9 7005 b738 0e35 b838
000001e0: e60c c138 ccc7 bfb8 8486 a538 3640 d9b8
000001f0: 8f17 88b8 7755 afb8 0577 c938 1f72 8f38

exp_avg_sq f4 [128]
3.1608275e-07 2.2750596e-07 8.693163e-08 2.758231e-09 1.8638502e-07 2.0158886e-08 1.27380995e-08 1.6447238e-08
1.0723733e-08 1.8550149e-07 1.4646946e-07 8.30635e-08 2.6555676e-07 1.6173476e-07 1.0777617e-08 5.1318906e-08
1.284279e-07 1.079636e-07 4.11692e-08 1.428821e-07 1.7632441e-08 1.8165677e-07 1.4489985e-08 1.933354e-08
1.8699229e-09 1.6188946e-07 5.955505e-08 3.853785e-09 5.6058386e-08 9.704735e-08 1.3323621e-07 1.9826192e-07
3.041322e-08 9.7036775e-08 6.311324e-08 3.1338445e-07 5.7606098e-08 1.9337643e-08 6.3077243e-07 1.41357e-09
4.008774e-08 3.70697e-08 5.602509e-07 1.0749056e-08 1.5138577e-08 3.8945225e-07 1.5435178e-09 4.511077e-09
5.1951194e-09 1.1360259e-08 2.0358686e-07 6.749611e-08 3.0949355e-08 2.1904457e-07 1.7730476e-07 2.0176748e-07
3.42624e-07 5.6674935e-08 1.9888363e-08 6.16199e-08 1.504282e-07 1.2734873e-07 5.12631e-08 6.5529846e-08
6.316344e-08 3.228871e-08 2.3990066e-07 6.715346e-08 2.4199373e-08 3.968633e-08 2.0659648e-07 1.1116624e-08
5.1454997e-08 1.7705725e-07 1.8365888e-07 3.3982323e-07 7.285027e-08 5.3135384e-08 1.8670445e-08 5.552408e-08
3.7747785e-08 5.4491977e-08 3.1862882e-08 3.4188147e-07 2.9841164e-08 1.264607e-07 1.190635e-08 6.346182e-08
1.7018015e-08 1.720755e-07 2.3378588e-07 9.353113e-09 3.9963698e-08 2.010678e-08 1.4652497e-07 2.3612971e-08
3.0778036e-08 2.7945384e-07 1.3977815e-08 1.12624035e-08 5.5220926e-07 2.450997e-07 1.7525858e-08 1.5048592e-07
1.5275867e-07 5.989151e-08 2.1567452e-07 5.6727103e-08 1.430725e-07 5.3578102e-08 2.5854272e-08 6.4118346e-08
4.5202757e-08 1.2824097e-08 4.47396e-08 5.147855e-08 7.6696516e-08 1.9959029e-07 1.5066679e-07 3.8934985e-08
9.944361e-08 7.627143e-08 4.6724534e-08 1.28206e-07 3.5104623e-08 6.946556e-08 1.0933903e-07 1.9985631e-08
00000000: 15b2 a934 5d48 7434 2baf ba33 508b 3d31
00000010: 2021 4834 dc29 ad32 c1d6 5a32 dc47 8d32
00000020: 7a3b 3832 432e 4734 3845 1d34 a460 b233
00000030: d891 8e34 50a9 2d34 7628 3932 bc69 5c33
00000040: fee5 0934 9ed9 e733 04d2 3033 226b 1934
00000050: 2676 9732 6f0d 4334 a1ef 7832 e712 a632
00000060: 0880 0031 d6d3 2d34 78c9 7f33 406a 8431
00000070: d9c4 7033 5868 d033 b10f 0f34 d2e1 5434
00000080: b09f 0233 8862 d033 df88 8733 3b3f a834
00000090: 936a 7733 ed1b a632 5a52 2935 9347 c230
000000a0: f02c 2c33 9136 1f33 2664 1635 d9aa 3832
000000b0: 150a 8232 e915 d134 b423 d430 daff 9a31
000000c0: c180 b231 f32a 4332 8899 5a34 61f2 9033
000000d0: 2ded 0433 8332 6b34 2961 3e34 6ca5 5834
000000e0: e2f1 b734 c06a 7333 f9d6 aa32 e653 8433
000000f0: 6485 2134 5abd 0834 602c 5c33 6ab9 8c33
00000100: 78a4 8733 d0ad 0a33 b2cb 8034 0136 9033
00000110: fcde cf32 9573 2a33 cfd4 5d34 6efb 3e32
00000120: 5eff 5c33 201d 3e34 c533 4534 f370 b634
00000130: dc71 9c33 f936 6433 be60 a032 5f79 6e33
00000140: 2120 2233 900a 6a33 9cd9 0833 d58b b734
00000150: b52a 0033 41c9 0734 ae8c 4c32 8148 8833
00000160: 032f 9232 c1c3 3834 9306 7b34 6daf 2032
00000170: 8da4 2b33 47b7 ac32 7a54 1d34 79d5 ca32
00000180: cf30 0433 d807 9634 1523 7032 937c 4132
00000190: 883b 1435 3f96 8334 c58b 9632 4195 2134
000001a0: fc05 2434 b59d 8033 2994 6734 1ca4 7333
000001b0: 789f 1934 bf1d 6633 2516 de32 6fb1 8933
000001c0: f524 4233 fa50 5c32 b627 4033 4419 5d33
000001d0: 5bb4 a433 f64e 5634 f9c6 2134 7839 2733
000001e0: b48d d533 a9ca a333 2bae 4833 ffa8 0934
000001f0: f1c5 1633 182d 9533 c4cd ea33 deac ab32

exp_avg f4 [128, 128]
-4.9235115e-07 4.4842008e-07 4.7536972e-07 -3.4850842e-08 -4.7216395e-07 -2.6742327e-07 -2.7093353e-08 -8.546718e-08
3.7392843e-07 4.696365e-07 4.8033434e-07 4.8378035e-07 -4.816844e-07 -3.736245e-07 -8.437751e-08 6.018366e-07
-3.0544442e-07 -4.249909e-07 3.3853203e-07 -4.9195415e-07 1.9852618e-07 4.915545e-07 2.224636e-07 -1.1636237e-07
1.3631816e-07 4.870698e-07 5.177469e-07 -2.6960642e-08 1.06451466e-07 -4.6537332e-07 -3.2649584e-07 -4.056126e-07
3.1269752e-07 -4.6351877e-07 1.7797103e-07 -4.942143e-07 4.2345692e-07 -2.5464226e-07 -4.8557223e-07 5.3407383e-08
-3.948165e-07 -4.195129e-07 -4.829246e-07 2.145825e-07 2.6338847e-07 -4.5227762e-07 -3.6902346e-08 1.01886144e-07
-4.0073076e-08 2.5493907e-07 -5.0468816e-07 3.935486e-07 -1.043214e-07 4.0998e-07 4.606096e-07 -3.6498426e-07
4.5838948e-07 1.5924435e-07 -2.1932368e-07 3.8151362e-07 3.7557908e-07 -4.1729697e-07 4.58316e-07 -4.6172875e-07
-2.9830917e-07 3.076086e-07 -3.7685086e-07 4.320036e-07 3.363265e-07 3.7653214e-07 4.7044716e-07 -2.030242e-07
-4.4133304e-07 1.9243849e-07 -4.891924e-07 4.845434e-07 4.1666758e-07 -3.8511698e-07 3.0823853e-07 1.2008059e-07
5.003575e-07 7.670649e-08 3.6560138e-07 4.904425e-07 -3.4442527e-07 4.766773e-07 -1.3092772e-07 -3.5159846e-07
1.900266e-07 2.8143273e-07 -5.1723396e-07 -2.5833205e-07 2.9798062e-07 3.844985e-07 4.333229e-07 -3.083347e-07
1.0796536e-07 -4.3645622e-07 -3.3289598e-07 -2.6193132e-07 -4.997934e-07 -4.7320796e-07 1.602414e-08 -8.2932985e-09
-2.3764541e-07 -4.2729135e-07 4.881063e-07 1.2348839e-07 4.4935203e-07 4.5068862e-07 1.3608374e-07 -3.9310575e-07
-2.8655163e-07 1.8955546e-07 -2.5086769e-07 3.391913e-07 4.2694296e-07 4.738863e-07 -5.0910626e-07 -3.766243e-07
-4.3263606e-07 3.043494e-07 -2.7404758e-07 4.897494e-07 2.838516e-07 4.5716533e-07 -4.52858e-07 -3.3060746e-07
-8.409534e-07 7.767761e-07 8.133817e-07 -6.040706e-08 -8.104173e-07 -4.6786687e-07 -3.566852e-08 -1.8548288e-07
6.756545e-07 8.094049e-07 8.196707e-07 8.316294e-07 -8.174168e-07 -6.6279705e-07 -1.4941192e-07 1.0275031e-06
-5.507088e-07 -7.399557e-07 5.800603e-07 -8.4716015e-07 3.798292e-07 8.3462334e-07 3.986987e-07 -1.9110222e-07
2.5762785e-07 8.342315e-07 8.711614e-07 -5.8753404e-08 1.600732e-07 -7.974778e-07 -5.848415e-07 -7.1052034e-07
5.507761e-07 -7.979987e-07 3.4091434e-07 -8.4704254e-07 7.3925804e-07 -4.531089e-07 -8.319978e-07 1.00468725e-07
-6.830352e-07 -7.379475e-07 -8.283319e-07 3.803248e-07 4.644888e-07 -7.5603987e-07 -5.7207565e-08 1.9873868e-07
-6.464258e-08 4.7215784e-07 -8.634271e-07 6.659309e-07 -1.5677402e-07 7.1730835e-07 7.8270693e-07 -6.027842e-07
7.911386e-07 3.0241654e-07 -3.975705e-07 6.759405e-07 6.642415e-07 -7.287685e-07 7.9719314e-07 -7.876795e-07
-5.3666514e-07 5.3768656e-07 -6.671804e-07 7.291302e-07 5.9173215e-07 6.468079e-07 8.1066787e-07 -3.5998636e-07
-7.6312153e-07 3.074169e-07 -8.340883e-07 8.2949026e-07 7.275169e-07 -6.672579e-07 5.488806e-07 2.36718e-07
8.565015e-07 1.6758037e-07 6.465491e-07 8.374387e-07 -6.1704276e-07 8.1137557e-07 -2.4393327e-07 -6.042228e-07
3.4984336e-07 5.103655e-07 -8.8002434e-07 -4.6794423e-07 5.1400986e-07 6.7171277e-07 7.316756e-07 -5.4615816e-07
2.1866735e-07 -7.601856e-07 -5.924075e-07 -4.730108e-07 -8.4741396e-07 -8.165118e-07 4.17795e-08 -5.1219182e-08
-3.8568598e-07 -7.56648e-07 8.3298784e-07 2.5699515e-07 7.658538e-07 7.8747263e-07 2.2619531e-07 -6.646818e-07
-4.862128e-07 3.4252182e-07 -4.2460977e-07 6.092758e-07 7.391756e-07 8.040061e-07 -8.6306255e-07 -6.49736e-07
-7.501856e-07 5.157401e-07 -4.6943683e-07 8.3077344e-07 4.883121e-07 7.800002e-07 -7.896423e-07 -5.7945164e-07
00000000: 1d2a 04b5 63be f034 5136 ff34 e8ae 15b3
00000010: b87d fdb4 6092 8fb4 eaba e8b2 148a b7b3
00000020: 55c0 c834 5922 fc34 53f0 0035 22dd 0135
00000030: 1a4d 01b5 8f96 c8b4 0733 b5b3 e58d 2135
00000040: f6fb a3b4 4e2a e4b4 7dbf b534 d50e 04b5
00000050: 762a 5534 5ef3 0335 54de 6e34 e4e2 f9b3
00000060: da5e 1234 2fbf 0235 4cfb 0a35 1497 e7b2
00000070: 509a e433 6cd8 f9b4 3f49 afb4 f9c2 d9b4
00000080: d2e0 a734 89d9 f8b4 4e18 3f34 26aa 04b5
00000090: 7a57 e334 c4b5 88b4 4558 02b5 0a62 6533
000000a0: 2bf7 d3b4 6a39 e1b4 53a2 01b5 fd67 6634
000000b0: d667 8d34 90d0 f2b4 8f7e 1eb3 80cc da33
000000c0: d01c 2cb3 8fde 8834 e879 07b5 e848 d334
000000d0: 4c07 e0b3 391b dc34 b449 f734 0ef3 c3b4
000000e0: 9218 f634 c1fc 2a34 3c7f 6bb4 d5d2 cc34
000000f0: 32a3 c934 dc08 e0b4 790e f634 84e3 f7b4
00000100: 4d27 a0b4 6725 a534 fd51 cab4 1fee e734
00000110: 5d90 b434 2f26 ca34 c491 fc34 defe 59b4
00000120: 5af0 ecb4 17a1 4e34 0c51 03b5 9211 0235
00000130: 5bb2 df34 13c2 ceb4 fb7b a534 80ef 0034
00000140: 4e50 0635 d7b9 a433 df47 c434 f4a6 0335
00000150: 73e9 b8b4 07ea ff34 2395 0cb4 53c3 bcb4
00000160: 1d0a 4c34 d217 9734 0cd8 0ab5 e3b0 8ab4
00000170: 25fa 9f34 126d ce34 72a3 e834 3389 a5b4
00000180: 96da e733 1652 eab4 e0b8 b2b4 919f 8cb4
00000190: 8a29 06b5 350d feb4 75a5 8932 507a 0eb2
000001a0: 792b 7fb4 7a66 e5b4 6906 0335 3b98 0434
000001b0: 793e f134 2cf6 f134 6a1e 1234 0b0c d3b4
000001c0: 5bd7 99b4 9c88 4b34 feae 86b4 191a b634
000001d0: 9836 e534 706a fe34 84a9 08b5 da32 cab4
000001e0: 0c45 e8b4 7765 a334 d020 93b4 5377 0335
000001f0: 4464 9834 5370 f534 5420 f3b4 587e b1b4
00000200: e1bd 61b5 a683 5035 2a57 5a35 22b9 81b3
00000210: 748b 59b5 222f fbb4 f431 19b3 2529 47b4
00000220: a05e 3535 e245 5935 5707 5c35 233d 5f35
00000230: 746c 5bb5 11eb 31b5 096e 20b4 bde8 8935
00000240: 6cd4 13b5 5ea1 46b5 71b5 1b35 6768 63b5
00000250: 54eb cb34 e10a 6035 bb0c d634 c731 4db4
00000260: 1a50 8a34 f4ef 5f35 c1d9 6935 0d58 7cb3
00000270: 96e0 2b34 4212 56b5 00fe 1cb5 96ba 3eb5
00000280: 0cd9 1335 0e36 56b5 e906 b734 5260 63b5
00000290: 6d71 4635 d042 f3b4 7456 5fb5 44c1 d733
000002a0: d259 37b5 5e17 46b5 895a 5eb5 712f cc34
000002b0: db5e f934 aaf2 4ab5 62b4 75b3 df64 5534
000002c0: a2d1 8ab3 e17c fd34 42c6 67b5 6cc2 3235
000002d0: b755 28b4 0e8d 4035 361b 5235 04cf 21b5
000002e0: a15e 5435 d05b a234 ac71 d5b4 4772 3535
000002f0: 544e 3235 97a0 43b5 b2fe 5535 ec70 53b5
00000300: 590f 10b5 8a55 1035 4a18 33b5 72b9 4335
00000310: 86d7 1e35 4da0 2d35 ac9c 5935 2644 c1b4
00000320: 50d9 4cb5 0f0b a534 1de6 5fb5 23aa 5e35
00000330: 954a 4335 9d1d 33b5 ca56 1335 8c2c 7e34
00000340: 56ea 6535 24f0 3334 848e 2d35 59cc 6035
00000350: dba2 25b5 4ecd 5935 eff5 82b4 e031 22b5
00000360: 1bd2 bb34 0d00 0935 d03a 6cb5 c439 fbb4
00000370: 7dfa 0935 c04f 3435 5d68 4435 b49b 12b5
00000380: d3ca 6a34 8f0f 4cb5 ef05 1fb5 1cf2 fdb4
00000390: d879 63b5 432e 5bb5 0c71 3333 16fc 5bb3
000003a0: 4710 cfb4 741c 4bb5 7d9a 5f35 25f9 8934
000003b0: 1395 4d35 b562 5335 18e0 7234 966c 32b5
000003c0: 4a84 02b5 d7e3 b734 ecf5 e3b4 1d8d 2335
000003d0: c36b 4635 e1d2 5735 35ad 67b5 8569 2eb5
000003e0: 5d60 49b5 6471 0a35 e806 fcb4 5102 5f35
000003f0: 8d14 0335 3561 5135 cef7 53b5 9d8b 1bb5
