results/Basic_run01/Basic/checkpoint.pt (torch, 33442 bytes, 36 tensors)

network_body._body_endoder.seq_layers.0.weight f4 [20, 6]
000000 87 68 ce 3d 3a 3e a9 3e 93 b5 90 3e cc 5d ac 3e
       0.10078531 0.33055288 0.2826353 0.3366531
000010 a5 41 ee 3e 76 f0 2b bf 58 1b d8 3e a8 fe 15 be
       0.46534458 -0.6716379 0.42208362 -0.14647925
000020 9b 7a 88 be 14 d3 44 bf e2 f6 ba 3e 2b c3 d1 bd
       -0.2665604 -0.7688458 0.36516482 -0.102423035
000030 ac 47 7e 3e bc 3e 2b bd 55 18 7b 3e 0f e1 65 bf
       0.24832028 -0.041807875 0.24521 -0.8979654
000040 28 23 d6 3e ce 40 3d 3e 3f 0a 14 3d cf d6 9b 3e
       0.41823697 0.18481752 0.036142584 0.30437323
000050 60 e9 79 3f ac ef 81 3e 0f 8e fe bd b3 a5 55 bd
       0.97621727 0.25378168 -0.12429439 -0.052159976
000060 50 d4 81 be f8 15 17 3e c5 1d 4d 3e 02 07 de 3e
       -0.25357294 0.14754474 0.20030887 0.43364722
000070 1a 80 5f 3e d8 04 4e be a8 38 02 bf 71 e0 f6 bd
       0.2182621 -0.20119035 -0.508677 -0.120545276
000080 af 90 b2 be 3f 87 09 bf 63 4c 0b 3e c9 e2 77 be
       -0.3487601 -0.53721994 0.13603358 -0.24207605
000090 9b a5 35 bf 47 db af 3e 93 2c e7 3c e3 89 12 3f
       -0.7095582 0.34346983 0.028219497 0.5724165
0000a0 bd 38 5b be 5a 91 b7 3e 29 ed 5c 3f b1 f6 0c 3e
       -0.21408363 0.35853082 0.8629938 0.1376598
0000b0 2f 0b 27 be df a5 a5 be 2e cd 09 3e 70 6b a4 3f
       -0.1631286 -0.32353112 0.13457176 1.2845287
0000c0 7f d7 37 3e 3b af 0a 3d 0d cc df 3e 42 6d d7 be
       0.17953299 0.03385852 0.43710366 -0.42075545
0000d0 4b c3 f8 3e 9b fb 80 bf 19 86 39 bd 5b c8 72 3e
       0.48586497 -1.0076784 -0.0452939 0.23709242
0000e0 9c 63 e9 3e 38 ad 08 bf fa 2b 56 3e 76 7b 31 bf
       0.45583808 -0.5338931 0.20915213 -0.6932901
0000f0 e7 50 91 3e 05 4f 6f 3c 28 7f 48 bf f6 51 ce 3e
       0.28382036 0.014606242 -0.78319025 0.40296906
000100 0d 6b 8c be ee fe 69 3e 90 be ff be 3b cb 56 3e
       -0.27425423 0.22851154 -0.49950075 0.20975964
000110 04 d9 2d bf e8 12 26 3e 03 4b 80 3f 07 5f 84 3f
       -0.67909265 0.1621815 1.0022892 1.03415
000120 79 cf 1c bf 7d 6a 31 3d bf 31 4d bf d8 3d c6 3e
       -0.6125408 0.043314446 -0.8015403 0.38719058
000130 eb 15 1d bf 1c bf 04 bc cc 10 1d be df dc 88 3e
       -0.6136157 -0.008102205 -0.15338439 0.2673101
000140 56 ca 22 3f b0 07 40 3f ae 5b 29 3f 41 58 3b 3f
       0.6358999 0.7501173 0.6615552 0.7318154
000150 2a a6 2f bf dc 6b 2a bd 2e c3 04 3f 7e b5 81 3e
       -0.6861292 -0.04160677 0.5186032 0.2533378
000160 e0 06 7e 3e 02 89 18 3c cf 63 54 bf 38 8c 9f 3e
       0.2480731 0.009310009 -0.82964796 0.31161666
000170 ef b0 6b bd e7 14 5a 3f 3d a5 83 bd 0d 33 40 bf
       -0.057541784 0.85188144 -0.06428001 -0.750779
000180 ad 9d fc 3e 96 bc 6e bf 49 ac 0f 3f 10 f7 96 be
       0.49339047 -0.9325651 0.5612226 -0.2948537
000190 4b a5 85 3f 1a 45 32 bf f2 55 0d bf a3 bf aa 3e
       1.0441068 -0.6963669 -0.5520927 0.33349332
0001a0 86 15 b0 3d a5 2e 2b 3f e1 c7 46 3e 58 27 54 bf
       0.08597855 0.6686805 0.19412185 -0.82872534
0001b0 ac 00 38 3e 16 8e cc 3e 26 47 35 3f ab b7 2a 3f
       0.17969006 0.39952153 0.7081169 0.66686505
0001c0 93 39 73 3e dc 53 9c be cb b9 2c 3f 60 bb 5a 3d
       0.23752432 -0.3053273 0.67471 0.05340135
0001d0 75 ae 0a bd e5 6a 98 be 64 7b 93 3f fc b2 06 3d
       -0.03385778 -0.29769054 1.1522031 0.032885537

network_body._body_endoder.seq_layers.0.bias f4 [20]
000000 f3 f6 16 3e fa 84 1c 3e 79 a6 99 3e 33 28 0b 3e
       0.14742641 0.15285102 0.3000982 0.13589554
000010 66 ea 9a 3a a5 d7 e8 3e d2 bd 26 3e c4 a8 94 3e
       0.0011819124 0.45477024 0.16283348 0.29035008
000020 d5 64 92 3e 71 d7 31 bd e3 83 07 3e cb f4 70 3e
       0.28592554 -0.04341835 0.13233905 0.23530881
000030 90 24 31 3e db 5e e2 3e 16 c7 62 3e f0 42 85 3e
       0.17299104 0.44212994 0.22146258 0.26027632
000040 df da 37 3e 8f a3 85 3e 79 22 8c 3e 62 81 8b 3e
       0.17954586 0.26101348 0.2737005 0.2724715

network_body._body_endoder.seq_layers.2.weight f4 [20, 20]
000000 35 6a a7 be 5d c9 2b bf 09 a7 8e be 97 9d b2 be
       -0.32698217 -0.6710413 -0.27861813 -0.34885857
000010 3f 95 25 bc 6d 3f 02 be 2d 4a c7 3e 6c b1 a9 3d
       -0.010106384 -0.12719508 0.3892378 0.08285794
000020 7a 8d d5 be 56 d4 f6 be 4b f4 b0 3c 77 5f 89 3f
       -0.417095 -0.48208874 0.021600863 1.0732259
000030 5d bd 3e 3e 31 e8 9f 3e db 38 09 3e 1b 31 69 3e
       0.18626924 0.31231835 0.13400595 0.22772638
000040 8d fe 2e be 44 29 e8 3e bb 57 37 bd 78 ff 7f 3e
       -0.17089291 0.45343983 -0.0447614 0.24999797
000050 48 83 14 3f 9b b7 66 be fb c7 33 bf dd 56 dd bd
       0.5801282 -0.22530977 -0.7022702 -0.108075835
000060 8a 38 41 3f b6 27 b5 bd d5 b4 7a 3e 40 53 8a be
       0.75476897 -0.08845465 0.24483044 -0.2701664
000070 ef 5f 19 3e 11 03 8c 3e 2a bd 8c bc 79 4e 42 bd
       0.14978002 0.2734609 -0.017180044 -0.04743812
000080 71 e6 c7 be 33 79 4f 3d b8 b9 2c 3f 6e 0b 0c 3f
       -0.39043 0.050652694 0.67470884 0.5470494
000090 4c 92 21 3e 77 ba f4 3e 50 f7 b4 3e b7 56 00 be
       0.15778464 0.4779851 0.35344934 -0.12533079
0000a0 3a f4 ce 3e 33 7f 8a be 6e 9c 74 bd 9c 6e 3b 3e
       0.40420705 -0.2705017 -0.059719495 0.18303913
0000b0 2d ed 0b 3e 5b 2e a3 bc 0e e2 c4 be de 11 36 bf
       0.13664694 -0.019919565 -0.38453716 -0.71121013
0000c0 67 26 0f 3f c4 6c 16 3f 26 9f 8e be 52 54 91 be
       0.5591797 0.58759713 -0.27855796 -0.28384644
0000d0 2a 65 39 3e 5f 7a 10 3e 94 b4 92 3e 2b 58 12 bc
       0.18104997 0.14109181 0.28653395 -0.008932154
0000e0 87 27 95 3e 60 96 58 bd cc 88 b1 3e 19 e5 a6 3e
       0.2913172 -0.052877784 0.3467468 0.32596663
0000f0 0a 48 26 3e 5c 4d 1d bf e0 8d c4 bc 15 27 0d 3d
       0.16238418 -0.61446166 -0.023993433 0.0344611
000100 f5 d8 fb 3e a2 d9 51 bd ad 1d 39 3e 9f e0 14 bf
       0.49188963 -0.05123294 0.18077727 -0.58155245
000110 5f e6 65 be 42 d2 0b be 13 04 41 be 40 e6 8e 3e
       -0.22451161 -0.13654426 -0.1884921 0.27910042
000120 e9 04 a2 bc 83 67 76 3e ad 30 5c 3e b9 8e 10 3f
       -0.019777732 0.24062924 0.21502943 0.5646778
000130 d0 40 a3 be 2f f6 18 3f d2 f3 fc 3e 1c 58 bf be
       -0.31885386 0.59750646 0.4940477 -0.3737191
000140 9b 89 05 be 97 93 28 bf cc a4 15 be 3b d9 d0 3e
       -0.13040774 -0.65850204 -0.14613646 0.40790734
000150 c2 a0 6e 3e e3 96 88 3e 3a a2 8a 3e e3 41 85 be
       0.23303512 0.26677617 0.27076894 -0.2602683
000160 b6 4f b3 be 7b 5b ef bd a6 15 c4 be 3e dc 8a bd
       -0.35021752 -0.116873704 -0.38297766 -0.06780289
000170 53 20 7f be 95 0f a1 3d dd 27 99 3e 22 fb da 3e
       -0.24914674 0.078643 0.29913226 0.42769724
000180 14 e1 09 be e1 20 c3 3e b8 7f a8 bd e7 4f 5a be
       -0.13464767 0.38111022 -0.082274854 -0.21319543
000190 e5 fb c2 3d 7e e6 43 bf 99 50 d3 be 41 fe a2 3e
       0.09520701 -0.7652358 -0.4127243 0.31834605
0001a0 92 26 e2 3e b1 21 79 3e 79 57 00 3f e8 ef e9 bd
       0.44170052 0.24329259 0.5013347 -0.114227116
0001b0 6d f1 71 be 3f 80 e2 be 86 3c c1 be 1e 6f 12 3f
       -0.23627253 -0.4423847 -0.37741488 0.572008
0001c0 74 52 b8 3e 4a 08 46 3e 67 30 cb 3e db 73 1e 3f
       0.36000407 0.193391 0.39685366 0.6189553
0001d0 fc 7a e1 3d e2 4d 20 3f 27 83 12 3f 38 84 3b be
       0.110097855 0.6261884 0.5723137 -0.18312156
0001e0 72 e8 b2 3e 6c d0 e0 3e 5d 97 16 3f ac 55 73 3d
       0.34942967 0.43909013 0.5882471 0.059407875
0001f0 f4 46 39 39 08 de da 3d 7c 00 04 bf 80 00 0c 3e
       0.00017669407 0.1068688 -0.5156324 0.13672066
000200 dd 35 85 3f 3e c6 b9 3e 5e cc 2e bf 9c 33 20 bf
       1.0407063 0.3628406 -0.6828059 -0.6257875
000210 46 f1 22 bf c2 6e 7d 3e c1 be b2 3e 64 e6 2e bd
       -0.63649404 0.24749282 0.3491116 -0.042700186
000220 0c a2 76 3f ac e7 4c 3e 5b ca 65 3e d6 a0 c1 3e
       0.96341014 0.20010251 0.22440474 0.3781802
000230 5d 50 03 3f f6 08 1b be 84 a8 7a 3d f1 1d 5b 3e
       0.512945 -0.15140137 0.061195865 0.2139814
000240 bc 0f 4a 3e 0a 28 e0 be 81 08 9f 3e 4d f4 0b bf
       0.19732565 -0.43780547 0.31061175 -0.5466965
000250 e6 67 22 3f 3a df 06 3f 7a e5 44 be 52 72 69 be
       0.63439786 0.52684367 -0.19228163 -0.22797516
000260 d8 fd b1 be 05 18 1a 3e 17 26 3a 3e db c5 61 3e
       -0.3476398 0.15048225 0.18178593 0.22048132
000270 aa 8a 05 3f 63 1a 38 3e e4 80 44 3d 33 2f 96 bb
       0.5216471 0.17978816 0.047974482 -0.0045832633
000280 b3 89 6c be 6b d1 22 3e f2 ab 05 bd ef e7 56 be
       -0.23099403 0.15900199 -0.032634683 -0.20986913
000290 32 e3 a6 3d 63 2a 61 3d dc 78 eb 3e ab d4 59 3e
       0.08148803 0.054972064 0.45990646 0.21272533
0002a0 8b 20 e9 be 29 5f 70 be 2d e6 a9 3e 16 c5 74 3f
       -0.4553264 -0.234738 0.33183423 0.9561323
0002b0 f1 18 a9 be 0f 65 74 3e e3 95 92 3c a2 53 77 bd
       -0.3302684 0.23866676 0.017893737 -0.060382493
0002c0 56 d9 1a bf 42 94 dc be 67 f4 32 3c 66 50 65 3e
       -0.6048788 -0.43081862 0.010922528 0.22393951
0002d0 20 eb 88 3d 79 34 16 bf 46 e7 bc bd 24 2a 14 3f
       0.066854715 -0.58673817 -0.092237994 0.578768
0002e0 4b bb af 3d 40 d0 0b 3e 79 e2 47 3e dd 2c 2a bf
       0.08580645 0.1365366 0.19519986 -0.66474706
0002f0 b1 b6 b5 3e eb 2c e2 3b f6 4b 6a be ce 1c ab bd
       0.35490945 0.0069023273 -0.2288054 -0.083551034
000300 f0 95 05 be 5d 27 43 3e ad c8 99 3e 55 45 9b 3e
       -0.13045478 0.19057985 0.30035916 0.30326334
000310 26 3a 8c be d0 85 d8 3e 8a 9f ae 3e 1e fd 1b bd
       -0.27388114 0.4228959 0.34106094 -0.03808319
000320 c0 ea 72 3d 96 d8 52 3e 29 b2 e3 3e f4 47 e7 3e
       0.059305906 0.20590433 0.44471863 0.45172083
000330 7c e6 38 be 0a b6 d3 3e 34 65 93 be b5 e8 bb be
       -0.18056673 0.41349822 -0.2878815 -0.3670098
000340 6b 10 49 3f 50 f0 12 3f d5 10 1d be 22 81 24 bf
       0.78540677 0.5739794 -0.15338452 -0.6425954
000350 8d df 19 bf 50 c5 d9 3d d9 3f b2 3e bb 8a f5 3d
       -0.60106736 0.106333375 0.34814337 0.11989351
000360 59 c9 1e 3f 41 19 c0 3e 34 fc bb 3e 23 d5 fc 3e
       0.6202598 0.37519267 0.36715853 0.4938136
000370 42 ec ac bd 27 ee a0 be ec 97 7f be 66 bd 8c 3d
       -0.084435 -0.31431696 -0.24960297 0.068720624
000380 23 8b ac 3e 30 09 72 3e 6f bc 9b be bc d0 85 3d
       0.33699903 0.23636317 -0.304172 0.065339535
000390 d8 74 16 3f 52 f8 41 3e 23 c3 36 bf cf 6d 89 be
       0.5877204 0.18942383 -0.71391505 -0.2684159
0003a0 f8 ec a9 be 3e 24 11 be 4d 77 86 3e 53 9f 6e 3d
       -0.33188605 -0.14173982 0.26262894 0.058257412
0003b0 c4 2e 0c 3f 66 16 ba 3e 1e a8 84 3e f5 57 b4 bd
       0.5475886 0.36345214 0.25909513 -0.08805839
0003c0 3b 47 07 be 16 20 9e 3e 32 7b b3 3e bf 91 23 bc
       -0.13210766 0.30883855 0.35054928 -0.009983479
0003d0 c6 db 0d bf fd 06 e8 3e d5 da 46 be 28 00 00 3f
       -0.5541347 0.45317832 -0.19419415 0.5000024
0003e0 d7 91 56 be a2 d7 fa bc fb 8b df 3e 18 3b 37 3f
       -0.20954071 -0.0306204 0.43661484 0.71574545
0003f0 f4 d6 bb bd 1c ee ce 3d f4 cf 20 be f3 d9 24 bf
       -0.091718584 0.101040095 -0.15704328 -0.64395064

network_body._body_endoder.seq_layers.2.bias f4 [20]
000000 32 c3 2a 3e 7a b8 44 3e e8 ab 1b 3e 98 85 86 3e
       0.16676024 0.19210997 0.15202296 0.262738
000010 8a a4 1f 3e 55 05 f6 3d f3 f1 79 3e 73 3f 12 3e
       0.1559011 0.12012736 0.24408703 0.14282016
000020 ba d6 62 3e 09 ed 0a 3e 79 87 67 3e e8 d2 26 3e
       0.22152224 0.13566984 0.22610272 0.16291392
000030 e6 5d 84 3e 97 c2 05 3e 29 69 60 3e 82 a5 78 3e
       0.2585289 0.13062511 0.21915115 0.24281886
000040 37 eb 21 3e a4 f7 ba 3d ec fe 4a 3e 52 0f 2b 3e
       0.15812384 0.09129265 0.19823807 0.16705063

action_model._continuous_distribution.log_sigma f4 [1, 2]
000000 65 df 6e be 61 d0 45 be
       -0.23327406 -0.19317771

action_model._continuous_distribution.mu.weight f4 [2, 20]
000000 af 17 e9 be ad 9d a0 3e f0 d1 00 3f a7 1b af 3d
       -0.45525882 0.31370297 0.5032034 0.08550196
000010 b7 e5 c7 3d 6d 2b 0c bd fc 85 df 3e 48 4b fd 3e
       0.097606115 -0.0342211 0.4365691 0.49471498
000020 b9 fc 14 bf 24 3d a0 3e 3b ef ee 3e a4 3e cb 3e
       -0.58198124 0.31296647 0.46666893 0.39696229
000030 e6 b5 02 bf 25 36 ba 3e fb b9 dc bc 13 ad 13 bf
       -0.51058805 0.36369434 -0.026944151 -0.57685965
000040 db 54 ae be 80 d8 6c 3e be 5d 30 be 5c dc 51 be
       -0.34049115 0.23129463 -0.1722326 -0.20494217
000050 ae 2c bf be 0c 38 cd be 86 29 07 3d 29 85 04 bf
       -0.37338775 -0.40081823 0.032998584 -0.51765686
000060 06 a8 b8 be 7f 67 f7 be 37 8a b8 3e 42 4a 96 bd
       -0.36065692 -0.4832115 0.3604295 -0.07338382
000070 57 3b f0 bd 93 29 ab be 32 7c 71 3e 77 cc 47 3d
       -0.11730068 -0.33430156 0.23582533 0.048778977
000080 c4 6d b4 3e 8d 0b 14 3e a2 e5 12 3f b4 2c 8b 3d
       0.35239995 0.14457531 0.5738164 0.06795636
000090 0c 1a 2f be f9 10 af be 1d 56 eb 3e cc 24 f3 be
       -0.1709978 -0.34192637 0.45964137 -0.4748901

action_model._continuous_distribution.mu.bias f4 [2]
000000 fe 78 f4 bb 9a 50 94 3d
       -0.0074607125 0.07241936

exp_avg f4 [20, 6]
000000 03 d8 1a 3b 40 1f 56 39 dc f7 4b 3b aa bc db 3c
       0.0023627288 0.00020420272 0.0031123077 0.02682336
000010 0f f5 75 3b 30 44 bd 3b 59 02 fe 3c 1c 7b 03 3d
       0.00375301 0.005775951 0.031006979 0.032099828
000020 16 37 69 bd be 39 75 3c ae 37 0f 3d 4a f9 70 bd
       -0.0569373 0.01496738 0.03496521 -0.05883149
000030 eb 09 04 3d c8 04 c1 3b 6d 76 5e bd bf 51 ca 3b
       0.03223602 0.0058904625 -0.05431216 0.0061742957
000040 e2 c5 02 3b 19 d2 7a bd 4f 93 f6 3b f8 66 66 3c
       0.0019954373 -0.06123552 0.007524885 0.014062636
000050 15 f2 a7 3c 58 b6 f8 3c eb ab ac 3c b3 9d 02 3d
       0.020501176 0.030360386 0.02107807 0.031888675
000060 bf 3f 4c bb 83 9f e7 ba 27 a2 47 3d e1 91 cc 3c
       -0.0031165925 -0.001767144 0.048738625 0.024971904
000070 2c e8 59 3b 50 f4 71 3d 7e 5a fe 3a 71 2e ea 3b
       0.0033249957 0.059070885 0.0019405631 0.0071466495
000080 a9 43 1a bc e7 ba 5e 3a da 2f fa 3b 9e 7d 03 bc
       -0.0094155455 0.00084964785 0.007635099 -0.008025555
000090 f8 5e 1e 3b 69 4c d2 3b da 34 a9 3d db 50 5a 3b
       0.0024165493 0.0064178 0.08262034 0.0033312354
0000a0 57 3f 54 3c d3 5f bf 3d 54 50 98 3a d0 7e db bb
       0.0129545545 0.09344449 0.0011620619 -0.006698467
0000b0 c6 34 9c bd 0d c5 74 bd 82 a1 9e bc 01 c4 b5 bd
       -0.07627253 -0.059758235 -0.019364122 -0.088752754
0000c0 0c 57 a5 3b 8c e0 93 3c 04 06 1f bd 57 80 47 3d
       0.005045777 0.018051408 -0.038824096 0.04870638
0000d0 ab 0b d8 3c ce 80 33 bd 82 39 83 bc 87 f1 bd 3b
       0.026372751 -0.04382401 -0.016018633 0.0057966146
0000e0 44 51 d6 bc d8 2c 35 3c 79 45 11 3c a2 25 f7 bc
       -0.026161797 0.011058055 0.008866661 -0.030169312
0000f0 95 0a 89 bc c4 e6 6f bb aa 30 48 bb e4 b6 2b bd
       -0.016728679 -0.0036606053 -0.0030546584 -0.041922465
000100 d7 88 11 bc e7 3e 1f b8 21 e1 73 3c 93 68 13 bc
       -0.008882723 -3.7967136e-05 0.014885218 -0.0089971
000110 e8 45 18 3d 8a b5 7d bd 99 c8 a1 bc 4b 30 22 3d
       0.037176043 -0.061940707 -0.019748973 0.039596837
000120 41 46 71 3c 58 24 6e bc c8 70 ba 3c a3 2f 1a bc
       0.0147262225 -0.014535032 0.022758856 -0.009410772
000130 3b 5e 9e bc f3 a9 c0 3c ec 95 1f bb 14 f9 bd b9
       -0.019332042 0.023518538 -0.0024350835 -0.00036234467
000140 e5 01 94 3c 45 3b b0 ba d6 86 1b 3a 19 82 b2 3c
       0.01806731 -0.0013445398 0.0005932873 0.021790551
000150 81 35 1f bc ad d5 28 3c be c1 0f 3d ee 9b 99 3c
       -0.009717346 0.0103048505 0.035096876 0.01875111
000160 35 87 95 3c 60 bb 43 3d d3 64 cd 3b a3 9f 8e bc
       0.018252948 0.047786117 0.0062681227 -0.017410105
000170 2d 69 42 3d a0 46 11 3d d2 22 63 bc d9 6d 56 3d
       0.047463585 0.035467744 -0.013863282 0.052350853
000180 27 a0 ae 3c 7a 33 04 3c df ff 09 bd 99 a7 36 3d
       0.021316601 0.008068914 -0.033691283 0.044593427
000190 55 8f 56 3c c7 a2 1b bd 08 33 2e 3a 0e 4f 91 bc
       0.013095696 -0.037997033 0.00066451775 -0.017737892
0001a0 5b cb 46 3d 54 82 28 3d 0d aa 5e bc c8 4b 61 3d
       0.04853378 0.041139916 -0.013590348 0.05500391
0001b0 ab 77 b4 3a a8 f9 8e 3b a1 f4 14 3d 34 16 04 3d
       0.0013768574 0.0043632574 0.03636611 0.032247737
0001c0 8f c6 31 3c 77 96 36 3d 9c b8 b0 3c d7 17 12 3c
       0.010850563 0.04457709 0.021572404 0.008916817
0001d0 84 8c 7b bd a5 3f 0b bc 9a 7a a3 3b 87 a5 8d bd
       -0.061413303 -0.008499061 0.0049889805 -0.069163375

exp_avg_sq f4 [20, 6]
000000 7f 70 0a 3c ae 75 b8 3b 55 1c 1f 3b c6 5c 11 3c
       0.008449673 0.005629263 0.0024278362 0.008872217
000010 0a bf 04 3c c9 b0 fa 3a a2 99 9b 3c f4 9b 91 3c
       0.008102188 0.0019126172 0.018994156 0.01777456
000020 bf bc 25 3c db 33 4a 3c c1 a4 d0 3c 0c 67 d6 3b
       0.010115801 0.012341465 0.025469186 0.006543046
000030 97 e6 3f 3c 72 70 40 3c 34 d4 d5 3b 83 28 df 3b
       0.011712692 0.011745559 0.0065255407 0.0068102493
000040 c7 e6 87 3c d9 6c 8f 3b 44 0c 0f 3c 32 aa c0 3b
       0.016589535 0.0043769893 0.008730952 0.005879664
000050 0e 77 55 3b ca 55 22 3c 67 51 0c 3c 34 02 29 3b
       0.0032572183 0.009908149 0.00856433 0.0025788667
000060 b8 d5 75 3c 3a 91 22 3c 4e 6d aa 3b 9c 50 8f 3c
       0.015004568 0.00992232 0.0052010184 0.017494492
000070 d0 a8 72 3c 4f 14 90 3b 62 4a 12 3a 36 f4 33 3a
       0.014810756 0.004396952 0.0005580542 0.00068646984
000080 07 01 e1 39 2c e4 fc 39 81 24 7a 3a 10 cd 46 39
       0.0004291611 0.00048235187 0.00095421827 0.00018959143
000090 b5 29 ac 3c 23 5a 89 3c d6 21 17 3c 3f 7e cb 3c
       0.021015981 0.016766613 0.009224376 0.024840472
0000a0 e4 5d c8 3c 4f 7c 08 3c e4 17 4f 3d 16 be 02 3d
       0.024458833 0.008330419 0.050559893 0.03191956
0000b0 1c d5 82 3c 57 fa 54 3d 23 5d 41 3d a9 77 5e 3c
       0.01597076 0.051996555 0.047207963 0.013578334
0000c0 d4 05 7f 3d ba 6d 57 3d 13 ac c0 3c 2f 6f 4c 3d
       0.062261418 0.052594878 0.023519551 0.04991072
0000d0 39 f9 96 3d e2 71 84 3c a5 2e 5a 3c f1 43 80 3c
       0.07371754 0.016167585 0.013316785 0.015657397
0000e0 a3 46 ee 3b 2c 02 15 3c 75 d3 aa 3c cd 79 89 3b
       0.007271604 0.009094756 0.020852784 0.004195428
0000f0 ca 60 92 3c 77 67 03 3c 24 fb 6b 3b 28 8b 9e 3c
       0.017868418 0.008020273 0.0036007846 0.019353464
000100 cd a1 4d 3c ae 3c 73 3b d0 30 d0 3d 13 09 a9 3d
       0.012550783 0.0037115025 0.1016556 0.08253684
000110 e4 6b 22 3d 83 49 c8 3d 03 41 f0 3d 48 0d 04 3d
       0.039653674 0.09779646 0.1173115 0.03223923
000120 7e 69 dc 3a 8f 97 f1 3a 0b 7d f7 3a 8d ff e1 3a
       0.0016816107 0.0018432009 0.001888187 0.0017242298
000130 11 c4 2f 3b 75 d1 a1 3a 44 d5 e6 3b 32 eb 97 3b
       0.0026819746 0.0012345748 0.007044466 0.0046361918
000140 af 23 05 3b e6 12 fb 3b e5 ae e0 3b b4 1d 04 3b
       0.0020315459 0.007662165 0.0068567866 0.0020159306
000150 cf 87 dd 3b ed 43 df 3b 64 fc 76 3b 02 d8 dc 3b
       0.0067605744 0.0068135173 0.0037687058 0.0067396173
000160 83 25 1d 3c de 5a 27 3b 63 ce c7 3c d0 cd 99 3c
       0.009591463 0.0025536339 0.024390405 0.018774897
000170 18 ad 1c 3c 15 82 e7 3c ca 50 de 3c 1b 7d d8 3b
       0.009562753 0.02826027 0.027138133 0.0066067106
000180 b1 50 5c 3d 22 aa 05 3d b4 2a 74 3c ee ff 42 3d
       0.05378789 0.032632954 0.014902759 0.047607355
000190 7d 18 47 3d 2b b5 4c 3c fa 24 f0 3c e0 3a b3 3c
       0.04860734 0.012494366 0.029314507 0.02187866
0001a0 1c 8f 2b 3c 8e 79 05 3d 27 03 01 3d 8f 3c ee 3b
       0.010471132 0.032586627 0.031497147 0.0072704027
0001b0 d8 f4 77 3c 17 0c 22 3c dd 7a 95 3b 10 fa 86 3c
       0.015134059 0.009890578 0.0045617656 0.016476661
0001c0 a7 4d 6d 3c 2e 9e 7b 3b ed cf 99 3c 52 34 60 3c
       0.014483846 0.0038393843 0.018775905 0.013684349
0001d0 aa 88 f4 3b 22 03 8e 3c 51 7f a6 3c ac d7 c0 3b
       0.0074625807 0.017335478 0.020324381 0.005885085

exp_avg f4 [20]
000000 1d f5 75 3b ad 37 0f 3d d6 c5 02 3b e9 ab ac 3c
       0.0037530132 0.034965206 0.0019954345 0.021078067
000010 29 e8 59 3b da 2f fa 3b 54 3f 54 3c 7f a1 9e bc
       0.003324995 0.007635099 0.012954552 -0.019364117
000020 a7 0b d8 3c 7f 45 11 3c df 88 11 bc 97 c8 a1 bc
       0.026372744 0.008866667 -0.00888273 -0.019748969
000030 3a 5e 9e bc ce 86 1b 3a 37 87 95 3c ce 22 63 bc
       -0.01933204 0.0005932868 0.018252952 -0.013863279
000040 5b 8f 56 3c 03 aa 5e bc 95 c6 31 3c a4 7a a3 3b
       0.013095702 -0.013590339 0.010850568 0.004988985

exp_avg_sq f4 [20]
000000 fd be 04 3c a7 a4 d0 3c b2 e6 87 3c 59 51 0c 3c
       0.008102176 0.025469137 0.016589496 0.008564317
000010 e1 a8 72 3c 93 24 7a 3a ff 5d c8 3c 0c 5d 41 3d
       0.014810772 0.0009542193 0.024458883 0.047207877
000020 0a f9 96 3d 2d d3 aa 3c ed a1 4d 3c e5 40 f0 3d
       0.07371719 0.02085265 0.012550813 0.11731128
000030 06 c4 2f 3b 15 af e0 3b 74 25 1d 3c de 50 de 3c
       0.002681972 0.006856809 0.009591449 0.02713817
000040 5d 18 47 3d 2a 03 01 3d 9d 4d 6d 3c 46 7f a6 3c
       0.04860722 0.031497158 0.0144838365 0.02032436

exp_avg f4 [20, 20]
000000 1c 49 49 bc 8a 5f d6 ba 58 8d 92 3b ad ac ed 3b
       -0.012285497 -0.0016355377 0.004472416 0.0072532506
000010 96 28 7a bb 0a c7 16 bc c3 c4 96 39 72 c4 01 3c
       -0.0038171164 -0.009202728 0.00028756828 0.007920371
000020 b7 a0 ff bb 70 fe 22 bb 09 8a e0 bb 31 c6 f6 ba
       -0.007801141 -0.0024870895 -0.0068523926 -0.0018827376
000030 af 24 e3 bb 58 28 d9 3b 68 95 18 3b 04 98 9a bc
       -0.0069318633 0.006627124 0.0023282412 -0.018871315
000040 bc 3c 52 bb d5 03 96 bc 87 ee 55 bb de d8 be bb
       -0.0032079658 -0.018312374 -0.0032643394 -0.0058241924
000050 1e ae 77 bb 67 de ce bb 23 4b 59 ba f6 f1 f2 3b
       -0.003779299 -0.0063131335 -0.00082890893 0.007414098
000060 6c d5 2c 3b bf 87 40 bb 65 ee 0a 3c be db 05 3c
       0.0026372327 -0.0029377786 0.008479689 0.008170066
000070 11 1e 1d bc 46 77 66 bb c4 02 91 38 76 a6 07 3c
       -0.009589688 -0.0035166307 6.914654e-05 0.0082794335
000080 92 d0 1f bb d6 e3 bb 3c ba db f8 3b 13 01 ec ba
       -0.0024385792 0.02293579 0.007594553 -0.0018005691
000090 ea 50 95 bb 1a 7e 5f bb 4b de 0a 3c ac 4f bb bb
       -0.004556765 -0.0034102262 0.00847585 -0.0057162847
0000a0 f9 b6 cc 3b b5 c4 74 bb fb 1b c9 bb cb ec 89 3a
       0.006247398 -0.0037348692 -0.0061373687 0.001052284
0000b0 fa f8 83 3b 77 f2 6a 3a 49 79 88 3b 20 14 83 3a
       0.004027483 0.00089625217 0.004164849 0.0010000505
0000c0 9d ad 83 ba 3b 39 0f bb 07 7e 91 3b 88 87 56 3b
       -0.0010046248 -0.002185418 0.0044400725 0.0032734592
0000d0 1d 1a 91 3b 4d 12 1f 3c f0 28 a7 3a 8a f1 4a 3c
       0.004428162 0.009708953 0.0012753289 0.012386689
0000e0 36 47 47 ba 74 12 32 3c 0c 72 e9 3b 02 50 11 ba
       -0.0007601859 0.010868657 0.007124191 -0.0005543233
0000f0 b8 ef d3 bb 3b d8 be bb 93 7b e4 3b 8a 3f 7b 3c
       -0.0064677857 -0.0058241165 0.006972739 0.015334973
000100 4f 1a ca 3a 82 69 02 bc 6c 66 17 3c 41 dc c0 3c
       0.0015419218 -0.007959725 0.009240728 0.023542525
000110 7a 9a 45 bc 6c af 9b bb ff e6 51 bb fb a5 80 3c
       -0.012060756 -0.0047511365 -0.0032028554 0.015704146
000120 d7 0c ff bb 0f de 24 3d 29 62 2e 3c 3d 22 4d bc
       -0.007783513 0.040250834 0.01064352 -0.01252037
000130 5b d0 46 bb 10 e0 50 bc 35 91 66 3c 41 d4 3b 3b
       -0.0030336592 -0.012748733 0.014072706 0.0028660449
000140 b1 32 10 bb 63 7f 13 bb b1 a0 a2 3b 10 56 07 3c
       -0.002200287 -0.0022506348 0.0049630036 0.008260265
000150 c7 b7 88 3a c2 47 28 bb a6 f6 ac 3b 41 47 6d 3c
       0.0010430746 -0.0025677537 0.005278426 0.01448232
000160 7d fb aa bb 52 88 0a bb a6 38 d2 ba fa 7a 43 3c
       -0.005217968 -0.0021138382 -0.0016038611 0.011931175
000170 59 23 7b bb af 43 c0 3c 85 3e cf 3b b8 09 bd bb
       -0.003832063 0.023469774 0.0063245916 -0.005768981
000180 cf 7a 82 ba 12 dd b9 bb 0d 69 07 3c 75 21 9d 3b
       -0.0009954813 -0.0056721056 0.008264792 0.004795248
000190 55 43 41 bc 59 c0 cd bb 46 1e e0 3b c2 57 5e 3c
       -0.011795838 -0.006279033 0.0068395464 0.013570728
0001a0 77 b7 60 b9 58 12 05 bc 20 b4 10 3c 96 cd 89 3c
       -0.0002143065 -0.008122049 0.008832008 0.016821664
0001b0 09 34 5c bc 32 ba 8b bb 95 68 bc bb fb 38 3d 3c
       -0.0134401405 -0.0042641396 -0.005749772 0.01154923
0001c0 ec bc f1 bb db bc fb 3c 21 69 35 3c 7d 72 6f bc
       -0.0073772576 0.030729702 0.011072428 -0.0146146985
0001d0 46 d8 bf bb 4e ef 7f bc 7f ab c1 3b 80 ae ce bb
       -0.005854639 -0.0156210195 0.0059103365 -0.006307423
0001e0 c5 33 54 3c ae b1 0f 3a f0 4a f0 bb d6 9f a7 bb
       0.012951796 0.00054814934 -0.007333152 -0.0051154895
0001f0 39 eb 70 3b 12 77 a5 3b 87 2b f3 ba 36 a7 9d bb
       0.0036761297 0.0050495947 -0.0018552401 -0.004811193
000200 eb 5e f3 3b ee 6f 53 3a c2 c3 df 3b 13 84 6c bb
       0.0074270866 0.000806569 0.006828756 -0.0036089465
000210 af f5 fc 3b 1c b9 b0 bb 4f 1b a2 bb 65 d4 99 3c
       0.0077197175 -0.0053931605 -0.004947103 0.018778035
000220 b4 ed 8a 3b 17 3e 94 3c 26 9c 9f 3b 01 ca bc 3b
       0.004239762 0.018096013 0.0048709093 0.0057613854
000230 cc 2a 85 3b 4d 57 92 bb 97 f7 97 bb b3 9e 29 3b
       0.0040639397 -0.0044659735 -0.0046376693 0.0025881946
000240 ee ec 82 3b e0 e7 d8 39 b4 bb bf 3b cc dc 19 3b
       0.0039955294 0.0004137149 0.0058512334 0.0023477552
000250 8a ec 42 bb 47 a0 1e bb 14 4d 5e 3b 56 76 c4 3b
       -0.002974304 -0.002420442 0.0033920454 0.005995552
000260 ba 4a 4b 3b a8 5b 60 3c 95 b0 64 3b e4 56 25 3c
       0.0031019882 0.013693728 0.003489529 0.010091517
000270 a4 3b 06 bb 21 2d 0a 3c 20 45 ef 3b 68 9b fc ba
       -0.0020482326 0.008433611 0.0073019415 -0.0019272389
000280 05 f8 aa bb 03 35 bf 3b 68 d6 85 3b cd e4 38 bb
       -0.0052175545 0.005835177 0.004084397 -0.0028212548
000290 b9 f1 96 bb 7a 5a c6 3a 0c ee ce bb af a2 23 bb
       -0.0046064523 0.0015133165 -0.0063149985 -0.0024968793
0002a0 a6 c0 a0 3b ed e0 65 3b 08 89 85 bb 10 7d dc bb
       0.004905778 0.0035076693 -0.0040751733 -0.006728776
0002b0 98 96 a8 ba b0 8e 88 bc 12 39 8f bb d5 40 11 bc
       -0.0012862263 -0.016669601 -0.004370817 -0.008865555
0002c0 a6 6c 3b 3a 98 a2 f5 bb 15 f6 34 bc 47 89 93 b9
       0.0007149674 -0.0074961893 -0.011044999 -0.00028140304
0002d0 ea 47 3a ba 09 19 9a bb e1 dc 0d 3b c3 bd 0e 3c
       -0.0007106053 -0.0047026915 0.0021646547 0.008712235
0002e0 9e ba 50 3b be 57 1a bb b7 4c 0f 3c 00 41 60 3c
       0.0031849514 -0.0023550834 0.008746318 0.013687372
0002f0 5f b9 ef bb a0 90 5c bb 70 d9 ae 39 14 7e 77 3c
       -0.007315799 -0.003365554 0.0003334987 0.015105743
000300 d0 14 27 bb 86 21 f0 3c 61 af 07 3c f2 10 25 ba
       -0.0025494583 0.02931286 0.00828156 -0.00062967755
000310 75 b0 43 bb 68 0e b9 ba c7 ef 37 3c 98 b2 0b 3b
       -0.0029859815 -0.0014118673 0.011226601 0.0021316167
000320 c7 8e 31 3c da 82 b2 ba 39 16 a1 bb c2 59 40 ba
       0.010837263 -0.0013619319 -0.004915979 -0.00073375937
000330 1c 3c 91 3b 44 ce 85 3b b1 c0 0a 3b 6e 06 fa 39
       0.0044322144 0.0040834267 0.0021171982 0.00047688506
000340 37 8c 84 3b 75 3a 79 b9 69 be b5 3b 1e 6b 5e 3b
       0.004045035 -0.00023768267 0.0055463803 0.0033938359
000350 f7 3a c9 3b 73 2e d8 3b d8 33 85 b9 f8 1f 89 3c
       0.0061410624 0.006597334 -0.00025406363 0.016738877
000360 b9 38 1c 3b 1f fe 80 3c 3a 90 00 3c 00 0f a9 3b
       0.002383752 0.015746174 0.007846886 0.005159259
000370 94 da 7c 3b 55 48 ce ba 6a 07 64 bb 73 09 87 b9
       0.003858243 -0.0015738109 -0.0034794458 -0.00025756247
000380 88 0d 14 3b bc a1 0a 3b 57 bc 22 3b 6c 06 86 b9
       0.0022591073 0.002115353 0.0024831498 -0.00025563256
000390 df fd 30 3a 27 15 36 ba 42 9c 0e 3b 7c ce 33 3b
       0.0006751697 -0.0006945901 0.0021760617 0.0027436307
0003a0 f7 29 73 3b ca 55 76 3b 9c 4d 6d 3a e9 77 12 3c
       0.003710387 0.0037587755 0.0009052397 0.008939722
0003b0 7e 80 fb b9 37 15 00 3c d1 38 1a 3b 2f 84 e8 b9
       -0.00047970185 0.007817558 0.00235324 -0.00044348973
0003c0 26 40 86 3b 82 21 1c 3c 11 ec 80 ba 6f c9 5a bc
       0.0040970026 0.009529473 -0.0009835978 -0.01335369
0003d0 44 8d 86 bb 0b af 2e 3b f6 ee 51 bc fe a8 45 bc
       -0.0041061956 0.0026654627 -0.01281332 -0.012064217
0003e0 18 be 31 3c 2d 46 77 3b dd 58 a9 3a 9c c6 58 bc
       0.010848545 0.0037731037 0.001292016 -0.013230946
0003f0 5a 51 8f 39 5d 02 0f bd 1e 8a 5f bc 26 8b 1d bb
       0.00027335697 -0.034914363 -0.01364377 -0.0024039238

exp_avg_sq f4 [20, 20]
000000 1f 2b 2e 3b 08 36 8d 39 07 f2 54 3a 51 77 8c 3a
       0.0026575995 0.00026933872 0.0008123223 0.0010716711
000010 0b b0 c0 39 86 75 5b 3a 2f c3 ab 39 16 c6 8a 3b
       0.00036752256 0.00083716994 0.00032761085 0.0042350395
000020 30 d1 64 3a d0 88 7d 39 03 5d 35 3a e8 90 aa 3b
       0.0008728681 0.00024178927 0.0006918462 0.0052052625
000030 5d c4 64 39 40 7c 45 3c 2c dc 16 3a fc 0a 82 3a
       0.00021816925 0.012053549 0.0005754854 0.0009921486
000040 98 09 18 3a c3 c3 d0 3a 8a 66 c0 3b c2 3d ef 3b
       0.00057997694 0.0015927482 0.0058715986 0.0073010633
000050 a3 d1 02 3b 11 52 2a 39 97 58 e1 39 90 12 33 3a
       0.001996138 0.00016243035 0.0004298135 0.0006831074
000060 f8 18 88 39 c1 53 18 3a fa 24 5d 39 fb b3 e9 3a
       0.00025958545 0.000581082 0.00021089977 0.0017830128
000070 77 ae 5d 3a 54 53 6f 39 80 17 f7 39 3d de 30 3b
       0.0008456478 0.00022823858 0.0004712902 0.0026987933
000080 bd 30 09 39 3e 8c e4 3b a9 c1 d0 39 c4 ad 2b 3a
       0.00013083495 0.006974726 0.0003981714 0.00065490254
000090 a9 cb 0b 3a ac 5a 96 3a db 21 81 3b 3c 9c 92 3b
       0.0005332777 0.0011471114 0.0039408035 0.004474191
0000a0 ff 9c 04 3b 44 0f 74 39 94 50 31 3a c4 3d 18 3a
       0.0020235179 0.0002327534 0.0006764021 0.00058075436
0000b0 4c 7b 6b 39 a7 af 3f 3a 5b b9 02 39 c4 ec b4 3a
       0.00022457278 0.0007312246 0.00012466816 0.0013803472
0000c0 4c ed 85 3a 9e a3 ab 39 76 7f cf 39 b9 c5 07 3b
       0.0010217815 0.00032737566 0.00039577082 0.0020717217
0000d0 61 e0 f8 38 e7 e9 ad 3b 02 b4 ba 39 37 50 1f 3a
       0.00011867355 0.0053074243 0.000356108 0.00060773216
0000e0 de c1 1c 3a 9e 22 93 3a 4c 3d 64 3b dd 4f 93 3b
       0.0005979816 0.0011225527 0.0034826575 0.0044956044
0000f0 c3 89 e2 3a 99 42 e7 38 66 f5 c5 39 0d 50 34 3a
       0.0017283488 0.00011027343 0.00037757604 0.00068783836
000100 e1 7b 8c 39 8a a8 12 3a d6 96 81 39 9e 92 d5 3a
       0.00026795178 0.0005594572 0.0002471718 0.0016294306
000110 a4 9d 22 3a 99 8d 3a 39 83 bf e6 39 53 b8 3a 3b
       0.00062033 0.00017791092 0.00044011706 0.0028491213
000120 d0 51 06 39 59 ab e8 3b 46 70 e5 39 e4 3a 43 3a
       0.00012809713 0.0071005044 0.00043761934 0.0007447435
000130 c0 c6 b9 39 66 7b 9b 3a 5b 00 71 3b 67 b7 63 3b
       0.0003543403 0.0011862337 0.0036773894 0.0034746767
000140 94 10 84 39 4b f6 91 37 50 ca cb 38 6c 51 1f 39
       0.00025189354 1.7400036e-05 9.717478e-05 0.00015193754
000150 1a 82 60 38 48 d8 11 39 00 3a 9d 38 32 44 65 39
       5.352693e-05 0.00013908849 7.497147e-05 0.00021864547
000160 ea e8 dd 38 d7 85 36 38 e0 ea 55 38 38 f3 25 3a
       0.00010581485 4.351683e-05 5.10019e-05 0.0006330493
000170 09 85 b3 37 a4 0c b1 3a 09 7c 15 39 76 00 22 39
       2.1400412e-05 0.0013507796 0.00014255954 0.00015449696
000180 77 9a 2e 38 49 ca 6a 39 bc 53 1a 3a 15 da e4 39
       4.162869e-05 0.00022391336 0.0005887111 0.00043650033
000190 54 eb f7 3a 53 52 17 39 ec c0 fd 39 e0 5f 4e 3a
       0.0018914738 0.0001443115 0.00048399658 0.0007872563
0001a0 47 c3 87 39 54 7d 1f 3a 08 2d 73 39 4b 7d 24 3b
       0.000258947 0.0006084044 0.00023191061 0.0025099094
0001b0 14 82 3b 3a d4 df 46 39 cf ab ed 39 a3 49 54 3b
       0.0007152867 0.00018966134 0.0004533217 0.0032392524
0001c0 21 cf 23 39 90 61 06 3c 06 f2 e0 39 8c 85 3c 3a
       0.00015622053 0.008201972 0.0004290493 0.0007191531
0001d0 84 a4 f4 39 dd 6e 98 3a 3a df 85 3b 90 c6 98 3b
       0.0004666188 0.001162972 0.0040854486 0.0046623424
0001e0 60 47 43 3b cb f3 c5 39 30 32 91 3a 81 9e 8c 3a
       0.0029797181 0.00037756408 0.0011077579 0.001072839
0001f0 e0 af b2 39 ed 0e 8c 3a 89 f1 77 39 22 29 7c 3b
       0.00034081843 0.00106856 0.00023645734 0.0038476666
000200 4b 60 b3 3a ae a1 d6 39 77 1a 1e 3a 08 42 8b 3b
       0.0013685314 0.00040937721 0.0006031165 0.004249815
000210 ac 5b 61 39 ec a1 31 3c 90 d2 16 3a 08 90 6e 3a
       0.00021491823 0.010841828 0.0005753422 0.0009100442
000220 20 c5 61 3a 62 94 d1 3a 23 81 bf 3b f8 56 04 3c
       0.0008612443 0.0015989656 0.0058442517 0.008077376
000230 14 92 fa 3a 0b 6f 4d 39 b4 8c 25 3a 6f 0a 16 3a
       0.0019117021 0.0001959169 0.0006315217 0.00057236006
000240 d8 6e 67 39 2d 31 25 3a 32 f1 13 39 94 be a1 3a
       0.00022071169 0.0006301578 0.00014108865 0.0012340122
000250 b5 91 79 3a 54 c8 9e 39 fa 2a c6 39 3c 5e 04 3b
       0.0009520308 0.00030285364 0.00037797523 0.002019777
000260 68 b2 dc 38 51 9d aa 3b d5 32 c4 39 04 4f 14 3a
       0.00010523648 0.005206742 0.00037421906 0.0005657526
000270 76 49 13 3a 72 ae 8a 3a 3e 9e 59 3b d6 49 87 3b
       0.00056185515 0.0010580553 0.0033205892 0.004128675
000280 70 1c 01 3b ca 00 b7 39 ba f8 86 3a 43 b1 7e 3a
       0.0019700788 0.00034905068 0.0010297515 0.0009715745
000290 e0 73 91 39 d3 41 70 3a 10 70 9b 39 f6 72 8b 3b
       0.0002774289 0.0009165082 0.00029647397 0.004255648
0002a0 2f cf 44 3a c9 02 95 39 7d 7e 14 3a 87 88 ae 3b
       0.00075076794 0.0002842157 0.00056646 0.005326334
0002b0 a3 d4 33 39 02 30 35 3c f9 1e 13 3a c0 15 14 3a
       0.00017149984 0.011058809 0.000561222 0.0005648993
0002c0 d1 e4 ef 39 4b 11 7e 3a 61 2f 9f 3b f7 05 e3 3b
       0.00045756114 0.0009691908 0.004857943 0.0069282013
0002d0 e9 8c a5 3a 76 fd d8 38 26 0a cd 39 bf 74 03 3a
       0.0012630495 0.000103468934 0.00039108208 0.000501465
0002e0 2b 85 3e 39 bc 56 f9 39 9b bb 25 39 18 19 75 3a
       0.00018169421 0.00047557603 0.00015805515 0.00093497476
0002f0 dc fe 14 3a 1f 5d 47 39 5a fc 8e 39 22 10 ec 3a
       0.0005683729 0.00019012809 0.00027272367 0.0018010179
000300 00 b3 aa 38 f1 a5 95 3b 9d 15 b4 39 e0 7d f4 39
       8.139573e-05 0.004566901 0.00034348379 0.0004663309
000310 0c 81 a7 39 5a c1 50 3a c3 92 25 3b df 13 24 3b
       0.0003194887 0.0007963382 0.0025264479 0.0025036258
000320 80 bc 24 3b 5f 7c ac 39 a5 0b 7c 3a 64 b3 57 3a
       0.0025136769 0.0003289906 0.0009614772 0.00082283304
000330 f5 92 92 39 07 41 79 3a 5d b5 3d 39 2c f1 2f 3b
       0.00027956782 0.0009508286 0.00018092008 0.002684663
000340 35 98 9d 3a 03 1c c0 39 ab f5 02 3a 98 b3 5b 3b
       0.0012023511 0.00036641964 0.0004995714 0.0033523794
000350 97 5e 39 39 b9 b5 03 3c d4 96 fb 39 93 c5 4e 3a
       0.00017678212 0.0080389315 0.00047986826 0.0007887717
000360 90 5a 40 3a 42 bf b5 3a d9 e0 97 3b 76 db d4 3b
       0.00073377136 0.0013866203 0.004634958 0.0064958883
000370 6d 76 5e 3a 67 5c d2 38 0a e0 a4 39 40 e1 82 39
       0.0008486275 0.000100307916 0.0003144744 0.00024963357
000380 4b b0 c0 38 be 5f bd 39 5f 80 55 38 58 3d 00 3a
       9.1881106e-05 0.00036120223 5.0902712e-05 0.00048919534
000390 bb f0 ff 39 13 85 2d 39 b4 51 0d 39 6b 92 51 3a
       0.00048816748 0.0001654814 0.00013477245 0.0007994535
0003a0 e6 cc 54 38 29 88 05 3b 39 ab 2e 39 78 a1 8d 39
       5.0735565e-05 0.0020375347 0.00016657719 0.0002701392
0003b0 1a 97 8e 39 a2 42 01 3a 01 db b5 3a b2 09 eb 3a
       0.0002719693 0.00049308885 0.0013874472 0.0017931967
0003c0 6e 56 f9 3a ac 2c 10 3a a3 b3 b5 3a b7 db 81 3a
       0.001902295 0.00054998207 0.001386274 0.0009907399
0003d0 66 8d 66 39 83 76 bd 3a e0 3b 8d 39 e9 af 8a 3b
       0.00021987184 0.0014454875 0.00026938226 0.004232396
0003e0 ee 34 99 3a 3c 21 f4 39 eb 5c 02 3a 30 2e b7 3b
       0.0011688748 0.00046564068 0.00049729523 0.005590223
0003f0 55 3d 4c 39 61 dd 2c 3c 87 cb 1d 3a 25 04 d9 39
       0.00019477804 0.010550828 0.00060194026 0.00041392553

exp_avg f4 [20]
000000 95 29 cc bb 15 ae 95 ba c5 a6 02 3b df af 33 3b
       -0.006230543 -0.0011419678 0.0019935828 0.002741806
000010 34 47 83 3b 55 1f 20 bb cd 7d 8c 3b 79 da f0 3a
       0.004006291 -0.0024432738 0.0042874576 0.0018375657
000020 0d cd 33 bb 58 08 8c 3b ca 27 b6 3b e8 71 dd 3a
       -0.0027435452 0.0042734556 0.0055589424 0.0016894909
000030 4b 8a 17 3a fb 49 46 3b ac d0 0f 3b 8c 0c 0e bb
       0.00057808 0.0030256498 0.0021944446 -0.002167496
000040 b6 f0 73 bb a7 4f 28 3b d5 a4 9e 3a cc f9 a1 bb
       -0.0037222332 0.0025682242 0.0012103567 -0.004943108

exp_avg_sq f4 [20]
000000 8e f1 67 3b 74 7b 12 3b f5 c1 0c 3b 95 0a 02 3b
       0.003539178 0.0022351416 0.0021477912 0.0019842733
000010 d1 4b b9 39 6c 64 1a 3b 13 76 71 3b fb cc 04 3b
       0.00035342437 0.0023558391 0.003684406 0.002026378
000020 95 fc 59 3b da d4 b9 3a 98 a3 45 3b 90 9e 68 3a
       0.0033262123 0.0014177815 0.0030157324 0.00088737253
000030 77 3c 6c 3b 58 17 b2 3a af 7c 67 3b 26 b6 6b 3b
       0.0036046782 0.0013587279 0.003532212 0.0035966723
000040 ab 4e d5 3a e5 71 db 3a 6d cf 26 3b 50 02 2c 3b
       0.0016274055 0.0016742317 0.0025453225 0.0026246496

exp_avg f4 [1, 2]
000000 a0 6f 76 bc ad 25 ef 3c
       -0.015041262 0.02919277

exp_avg_sq f4 [1, 2]
000000 30 db 3c 3c 8b e3 57 3c
       0.011526868 0.013176809

exp_avg f4 [2, 20]
000000 d6 73 61 3d 5b 9e 53 3d e2 d2 d3 3a 5c 96 64 3d
       0.05504211 0.05166469 0.001616087 0.055807456
000010 32 f0 af 3c a5 83 a2 3d 60 d7 a2 bc f9 b5 26 3c
       0.021476839 0.079352655 -0.01987809 0.010175222
000020 4d 8f f9 3c 3a 48 fe 3c 7e cf 13 bc 8a 3f c5 3a
       0.030463839 0.0310403 -0.009021638 0.0015048843
000030 c2 0f 21 bc 3d 68 c9 bb 71 9e 14 bd 0b 4e be 3c
       -0.009830417 -0.0061464594 -0.036283914 0.023230573
000040 27 46 6c 3d fb ed 7f 3d 54 82 e1 bc 3c b6 87 3d
       0.05768409 0.062482815 -0.027527966 0.06626555
000050 1b 9e 53 bd 66 9d f7 3c 97 79 0b 3d a6 b5 67 38
       -0.051664453 0.03022642 0.034051504 5.5243865e-05
000060 b8 fe cc bb dc b8 eb bc e5 89 4e 3d bd 8b e9 3c
       -0.006255951 -0.028774671 0.050424475 0.028509015
000070 40 ff 87 bd a0 94 d8 3b cc 1e 61 3d c1 28 b4 3c
       -0.06640482 0.0066095144 0.05496101 0.02199209
000080 02 f9 e2 bc 59 db 3b 3d e0 06 ca 3c d6 68 65 bd
       -0.027706627 0.045863483 0.024661481 -0.056008182
000090 7d 5d 87 bd b7 38 7d 3c 55 64 61 3c be 89 47 bd
       -0.06609628 0.015455416 0.013756831 -0.048715346

exp_avg_sq f4 [2, 20]
000000 7e 67 e7 3c 97 bc c0 3c db 28 5c 3c fd b3 62 3c
       0.028247591 0.023527427 0.013437475 0.013836858
000010 94 69 82 3a d5 d9 1c 3d e6 92 88 3d 19 32 5b 3c
       0.0009949678 0.03829368 0.06668644 0.013378643
000020 67 d9 c7 3c 19 c6 0a 3c 50 9d 38 3d f3 61 56 3b
       0.024395658 0.008470082 0.0450719 0.003271219
000030 9c 2d ec 3c 4f af 77 3c b9 d2 41 3d 39 0a 24 3d
       0.028830342 0.01511748 0.0473201 0.04004881
000040 3f bb 70 3d 88 d9 06 3d 35 71 24 3d ee e5 17 3d
       0.05877232 0.032922298 0.040147025 0.037084512
000050 c8 25 f2 3c ba c3 bd 3c 48 01 4f 3c f5 15 6a 3c
       0.029559031 0.023164619 0.012634583 0.0142874615
000060 59 3a 8f 3a 9d 97 26 3d aa 29 83 3d 69 8c 4e 3c
       0.0010927423 0.040671933 0.06404431 0.012606719
000070 bd 89 c7 3c af 0b 09 3c 8c 8e 2d 3d a7 87 48 3b
       0.02435767 0.008364602 0.04237227 0.0030598433
000080 ce db d2 3c 17 20 6f 3c 29 c0 32 3d b7 26 1e 3d
       0.025739577 0.014595053 0.04364029 0.03861114
000090 84 a5 7b 3d 2e c9 09 3d 9c a4 16 3d 98 d7 22 3d
       0.061437145 0.033639126 0.036778077 0.039756387

exp_avg f4 [2]
000000 53 71 c6 3b f2 6c 0a 3c
       0.00605599 0.008448826

exp_avg_sq f4 [2]
000000 28 9a 31 3c e0 10 2d 3c
       0.010839976 0.010563105

exp_avg f4 [20, 6]
000000 fe 8a 8f ba 13 a7 d3 ba ae ed b6 3a a1 94 ad ba
       -0.0010951457 -0.0016147814 0.0013956332 -0.0013243147
000010 bf e2 ed ba c4 81 bd 3a 13 dd 98 39 59 6a 85 39
       -0.0018149241 0.0014458229 0.00029156412 0.00025446972
000020 c0 82 14 b9 a1 fa 34 39 f8 9d 89 39 eb 67 36 b9
       -0.00014163088 0.00017259504 0.00026248372 -0.00017395585
000030 2f fb eb 3a b8 20 18 3b 3a 99 28 bb 8a 18 46 3b
       0.0018003936 0.0023212861 -0.0025726096 0.0030227029
000040 a1 43 40 3b 81 1f 7a bb 61 ea 2f 3b d2 42 67 3b
       0.0029337185 -0.003816575 0.0026842582 0.003528763
000050 ae d9 18 bb 42 17 48 3b cb 7f 81 3b 5f e4 30 bb
       -0.0023323107 0.003053144 0.0039520017 -0.0026991589
000060 70 8b 90 39 39 60 99 39 6c a0 35 ba c1 bb a8 39
       0.0002756971 0.00029254126 -0.0006928507 0.00032183345
000070 05 aa 28 39 20 1d 1b ba 70 7f b4 b9 35 97 d0 ba
       0.00016085066 -0.0005917121 -0.00034427224 -0.0015914204
000080 3b 1b 71 b9 98 95 e4 b9 64 e7 fd ba 59 f4 c3 b9
       -0.00022993695 -0.00043599005 -0.0019371328 -0.00037375352
000090 19 3d 52 3a e7 37 15 3a 75 48 50 ba 69 9f 2d 3a
       0.00080199685 0.0005692229 -0.0007945367 0.000662318
0000a0 5c 84 16 3a d3 cd 6c ba 77 e9 17 3b 17 f6 88 3b
       0.0005741769 -0.0009033356 0.0023179927 0.004179727
0000b0 7a 7c ae bb bc 5a 0b 3b 04 10 75 3b 46 b6 75 bb
       -0.0053248974 0.0021263799 0.003739358 -0.0037492677
0000c0 81 b9 01 3b 4f b8 5c 3b 12 c9 56 bb a3 3d 39 3b
       0.0019794407 0.0033679192 -0.0032773656 0.0028265498
0000d0 50 1a 70 3b 7e 8d 61 bb c7 2c d2 ba 1f a8 96 ba
       0.0036636777 -0.0034416611 -0.0016035073 -0.0011494196
0000e0 90 f7 1d 3b 0d a3 c7 ba 5a 39 6e ba 10 ff 24 3b
       0.0024103858 -0.0015231088 -0.00090875255 0.0025176443
0000f0 5c dd 02 3b 6e ff 6d 3b 2c 3c 4d bb b6 a0 03 3b
       0.0019968366 0.0036315578 -0.0031316383 0.0020084805
000100 08 29 7f 3b ae 5a 41 bb 84 2c d4 b9 97 3a c3 b8
       0.0038934369 -0.0029503512 -0.00040468958 -9.309238e-05
000110 86 c8 b6 39 62 cc a6 b9 a8 75 50 b8 70 4e af 39
       0.00034863147 -0.00031814264 -4.970064e-05 0.00033437042
000120 39 2c 6e 39 d9 cc aa 39 f4 cd 1c b9 8a d7 e1 38
       0.00022713923 0.0003257755 -0.00014954043 0.00010768983
000130 bc 91 aa 39 f4 d6 e7 b7 9b 60 a0 39 39 36 40 38
       0.00032533507 -2.7637441e-05 0.00030589555 4.5826866e-05
000140 ec 37 c2 39 58 98 11 39 22 4c 10 39 cd 12 74 39
       0.00037044229 0.0001388503 0.00013761272 0.00023276657
000150 ff 7c 8a 3a 3f b2 46 3b f6 64 37 bb 91 1b cb 3a
       0.0010565816 0.0030318645 -0.0027983761 0.0015495886
000160 75 0e 57 3b 6e 5d 19 bb c0 96 fb ba 5a f3 84 bb
       0.0032815014 -0.0023401636 -0.0019194707 -0.00405733
000170 92 f6 43 3b 97 3f 1d bb 77 7e 93 bb 54 90 21 3b
       0.0029901606 -0.0023994201 -0.00450116 0.0024652677
000180 f9 d1 85 ba 76 30 4c ba 33 b5 e6 39 70 26 25 ba
       -0.0010209671 -0.00077892037 0.00044004022 -0.0006299978
000190 c3 f6 68 ba ea e7 1b 3a ea 33 c1 39 3c 8d 6c 3a
       -0.0008886868 0.00059473387 0.00036850508 0.0009023731
0001a0 96 f5 59 ba 48 5c 2b 3a 78 bb 85 3a f1 3a 2b ba
       -0.0008314488 0.00065368833 0.0010202965 -0.0006531915
0001b0 9f 55 d4 39 a8 40 92 3a cd 90 8c ba 61 d8 fd 39
       0.00040499584 0.0011158185 -0.0010724306 0.00048417135
0001c0 88 a4 9d 3a c2 6c 6b ba b9 ce 98 3a 7b fe 8b 3a
       0.0012027184 -0.0008980745 0.0011658288 0.00106807
0001d0 1b 73 fb ba c8 88 9e 3a 68 d3 87 3a ec 27 11 bb
       -0.0019184084 0.0012095207 0.0010362687 -0.002214904

exp_avg_sq f4 [20, 6]
000000 fb 75 84 37 0f 11 a9 36 36 b6 22 36 da 27 a7 37
       1.5790565e-05 5.0385784e-06 2.4245942e-06 1.9926509e-05
000010 8a 97 0c 37 42 92 75 36 0b b8 28 35 bd 0f a8 34
       8.379933e-06 3.6592978e-06 6.2852695e-07 3.130389e-07
000020 8b ba 39 34 5b 74 39 35 80 17 f7 34 be 5b 3c 34
       1.7297332e-07 6.908719e-07 4.6024434e-07 1.754224e-07
000030 26 84 48 38 86 34 82 37 e8 9a 15 37 70 b9 b1 38
       4.780679e-05 1.5521666e-05 8.917159e-06 8.474558e-05
000040 d1 1c e2 37 2f bc 5d 37 d8 d8 11 39 de b4 3a 38
       2.6954718e-05 1.3216441e-05 0.00013909058 4.45143e-05
000050 16 d2 94 37 e1 90 49 39 71 b0 9c 38 50 4d 01 38
       1.7740804e-05 0.00019222825 7.4715244e-05 3.0828e-05
000060 dd d7 48 36 4d f1 33 36 a7 55 e1 35 62 80 49 36
       2.9927971e-06 2.6813534e-06 1.6788734e-06 3.0026063e-06
000070 d1 a7 82 36 96 99 98 35 f8 bb 47 36 0d 8d f0 35
       3.8938383e-06 1.1369582e-06 2.9762723e-06 1.7922445e-06
000080 9d 81 22 36 ba 7b 80 36 9d 3a 45 36 30 28 66 36
       2.4215326e-06 3.829101e-06 2.9389405e-06 3.4296063e-06
000090 97 40 bf 37 cd 95 d4 36 49 03 52 36 55 a4 e1 37
       2.2799051e-05 6.3355315e-06 3.129435e-06 2.6898613e-05
0000a0 8d 1d 38 37 0c 73 be 36 bd 2d 9d 38 b5 0c 83 38
       1.0974135e-05 5.6758345e-06 7.494863e-05 6.248934e-05
0000b0 c8 62 1c 38 36 ac 84 38 f3 26 bc 38 5d 17 ff 37
       3.7285296e-05 6.326327e-05 8.9717934e-05 3.0409248e-05
0000c0 66 6b 4b 38 f8 fc d9 37 63 20 73 37 21 38 76 38
       4.8498994e-05 2.5986214e-05 1.4491469e-05 5.8703245e-05
0000d0 08 82 23 38 c1 bd 61 37 36 d7 8b 38 75 f5 e1 37
       3.898333e-05 1.3455226e-05 6.668123e-05 2.693639e-05
0000e0 94 ca a1 37 aa 52 ac 38 80 b7 35 38 e5 d0 c5 37
       1.9287028e-05 8.2169965e-05 4.332466e-05 2.3581504e-05
0000f0 dd 5a 75 38 a3 4f d7 37 bd cf 5e 37 10 65 a3 38
       5.8497175e-05 2.5667081e-05 1.3280599e-05 7.79127e-05
000100 02 c7 28 38 cc 07 8d 37 8f eb ba 35 db 5b 12 35
       4.023966e-05 1.681214e-05 1.3926636e-06 5.4522906e-07
000110 a5 4e c2 34 2a 31 c5 35 39 dd 6c 35 f8 84 92 34
       3.6192537e-07 1.4691952e-06 8.823877e-07 2.7291367e-07
000120 dd e4 64 34 74 37 84 34 dd 6f 94 34 9e 66 2a 34
       2.1317415e-07 2.4627263e-07 2.764854e-07 1.5869816e-07
000130 d5 59 b8 34 fc 15 c6 33 02 5c 06 36 7a ef 8e 35
       3.4338032e-07 9.2240924e-08 2.0021112e-06 1.0649521e-06
000140 53 d6 4a 35 c8 a0 36 36 a0 5b da 35 fa 21 3a 35
       7.5562747e-07 2.72137e-06 1.6268932e-06 6.933984e-07
000150 05 3b 33 37 34 20 19 37 4b 2a dd 36 73 2e 22 37
       1.0682973e-05 9.1270085e-06 6.591237e-06 9.666767e-06
000160 82 20 5a 37 da 60 88 36 a6 c0 00 38 3e f0 8c 37
       1.3001381e-05 4.064391e-06 3.0696996e-05 1.6801172e-05
000170 6a fb 2c 37 fc f0 fd 37 6d 84 d3 37 63 32 06 37
       1.0310536e-05 3.0272167e-05 2.5214826e-05 7.998754e-06
000180 5c 70 f8 37 35 67 ff 36 6e ee 58 36 3d ff 21 38
       2.9616225e-05 7.611607e-06 3.2325293e-06 3.86231e-05
000190 2f 99 5f 37 2d b1 d6 36 2b 67 a5 36 fc d6 18 36
       1.3327502e-05 6.398323e-06 4.9293935e-06 2.2774902e-06
0001a0 3f 78 cc 35 b8 4c 51 36 6d 17 71 36 b6 46 a8 35
       1.5234181e-06 3.1188083e-06 3.5925434e-06 1.2537555e-06
0001b0 ba 12 b8 35 8d 9e aa 35 e0 e1 94 35 1c 34 a0 35
       1.3714518e-06 1.2712131e-06 1.1092598e-06 1.1936095e-06
0001c0 92 8a f3 35 1f 85 22 35 48 21 e6 37 29 79 2a 37
       1.814524e-06 6.054342e-07 2.7433634e-05 1.0160999e-05
0001d0 9d 31 e9 36 1c ed 30 38 02 db 8c 37 02 0c 27 37
       6.949717e-06 4.2182495e-05 1.6791284e-05 9.9567715e-06

exp_avg f4 [20]
000000 bf e2 ed ba f6 9d 89 39 a1 43 40 3b cb 7f 81 3b
       -0.0018149241 0.00026248366 0.0029337185 0.0039520017
000010 07 aa 28 39 64 e7 fd ba 5b 84 16 3a 04 10 75 3b
       0.00016085069 -0.0019371328 0.00057417684 0.003739358
000020 4f 1a 70 3b 5b 39 6e ba 08 29 7f 3b 99 75 50 b8
       0.0036636775 -0.0009087526 0.0038934369 -4.9700586e-05
000030 bd 91 aa 39 1f 4c 10 39 74 0e 57 3b 78 7e 93 bb
       0.0003253351 0.00013761267 0.0032815011 -0.0045011602
000040 c1 f6 68 ba 77 bb 85 3a 88 a4 9d 3a 69 d3 87 3a
       -0.0008886867 0.0010202964 0.0012027184 0.0010362688

exp_avg_sq f4 [20]
000000 d1 97 0c 37 e3 17 f7 34 c6 1d e2 37 c7 b0 9c 38
       8.379998e-06 4.6024715e-07 2.6955164e-05 7.471587e-05
000010 29 a8 82 36 c8 3a 45 36 c2 1d 38 37 1d 27 bc 38
       3.8938783e-06 2.9389503e-06 1.0974183e-05 8.971824e-05
000020 1c 82 23 38 a7 b7 35 38 2a c7 28 38 1f de 6c 35
       3.8983402e-05 4.3324802e-05 4.0239807e-05 8.824008e-07
000030 e1 59 b8 34 0f 5c da 35 b9 20 5a 37 80 84 d3 37
       3.4338066e-07 1.6269058e-06 1.3001431e-05 2.521486e-05
000040 b9 99 5f 37 97 17 71 36 ba 8a f3 35 5b db 8c 37
       1.3327627e-05 3.592553e-06 1.8145286e-06 1.6791446e-05
